{
  "format": "graph-model",
  "generatedBy": "2.17.0",
  "convertedBy": "TensorFlow.js Converter v4.21.0",
  "signature": { "outputs": { "Identity:0": { "name": "Identity:0" } } },
  "modelTopology": {
    "node": [
      {
        "name": "ConstantFolding/PartitionedCall/model_37/tf.math.divide/truediv_recip",
        "op": "Const",
        "attr": {
          "dtype": { "type": "DT_FLOAT" },
          "value": {
            "tensor": {
              "dtype": "DT_FLOAT",
              "tensorShape": {
                "dim": [{ "size": "1" }, { "size": "1" }, { "size": "1" }]
              }
            }
          }
        }
      },
      {
        "name": "29654",
        "op": "Const",
        "attr": {
          "dtype": { "type": "DT_FLOAT" },
          "value": {
            "tensor": {
              "dtype": "DT_FLOAT",
              "tensorShape": {
                "dim": [{ "size": "1" }, { "size": "2" }, { "size": "8400" }]
              }
            }
          }
        }
      },
      {
        "name": "29646",
        "op": "Const",
        "attr": {
          "value": {
            "tensor": {
              "dtype": "DT_INT64",
              "tensorShape": { "dim": [{ "size": "3" }] }
            }
          },
          "dtype": { "type": "DT_INT64" }
        }
      },
      {
        "name": "29648",
        "op": "Const",
        "attr": {
          "value": {
            "tensor": {
              "dtype": "DT_INT64",
              "tensorShape": { "dim": [{ "size": "3" }] }
            }
          },
          "dtype": { "type": "DT_INT64" }
        }
      },
      {
        "name": "PartitionedCall/model_37/tf.strided_slice_22/ones_like",
        "op": "Const",
        "attr": {
          "dtype": { "type": "DT_INT64" },
          "value": {
            "tensor": {
              "dtype": "DT_INT64",
              "tensorShape": { "dim": [{ "size": "3" }] }
            }
          }
        }
      },
      {
        "name": "29656",
        "op": "Const",
        "attr": {
          "value": {
            "tensor": {
              "dtype": "DT_FLOAT",
              "tensorShape": {
                "dim": [{ "size": "1" }, { "size": "2" }, { "size": "8400" }]
              }
            }
          },
          "dtype": { "type": "DT_FLOAT" }
        }
      },
      {
        "name": "29640",
        "op": "Const",
        "attr": {
          "value": {
            "tensor": {
              "dtype": "DT_INT64",
              "tensorShape": { "dim": [{ "size": "3" }] }
            }
          },
          "dtype": { "type": "DT_INT64" }
        }
      },
      {
        "name": "29642",
        "op": "Const",
        "attr": {
          "dtype": { "type": "DT_INT64" },
          "value": {
            "tensor": {
              "dtype": "DT_INT64",
              "tensorShape": { "dim": [{ "size": "3" }] }
            }
          }
        }
      },
      {
        "name": "PartitionedCall/model_37/tf.strided_slice_19/StridedSlice/strides",
        "op": "Const",
        "attr": {
          "value": {
            "tensor": {
              "dtype": "DT_INT64",
              "tensorShape": { "dim": [{ "size": "3" }] }
            }
          },
          "dtype": { "type": "DT_INT64" }
        }
      },
      {
        "name": "PartitionedCall/model_37/tf.reshape_20/Reshape/shape",
        "op": "Const",
        "attr": {
          "dtype": { "type": "DT_INT32" },
          "value": {
            "tensor": {
              "dtype": "DT_INT32",
              "tensorShape": { "dim": [{ "size": "4" }] }
            }
          }
        }
      },
      {
        "name": "PartitionedCall/model_37/tf.compat.v1.transpose_46/transpose/perm",
        "op": "Const",
        "attr": {
          "dtype": { "type": "DT_INT32" },
          "value": {
            "tensor": {
              "dtype": "DT_INT32",
              "tensorShape": { "dim": [{ "size": "4" }] }
            }
          }
        }
      },
      {
        "name": "PartitionedCall/model_37/tf.compat.v1.transpose_47/transpose/perm",
        "op": "Const",
        "attr": {
          "value": {
            "tensor": {
              "dtype": "DT_INT32",
              "tensorShape": { "dim": [{ "size": "4" }] }
            }
          },
          "dtype": { "type": "DT_INT32" }
        }
      },
      {
        "name": "29644",
        "op": "Const",
        "attr": {
          "value": {
            "tensor": {
              "dtype": "DT_FLOAT",
              "tensorShape": {
                "dim": [
                  { "size": "1" },
                  { "size": "1" },
                  { "size": "16" },
                  { "size": "1" }
                ]
              }
            }
          },
          "dtype": { "type": "DT_FLOAT" }
        }
      },
      {
        "name": "PartitionedCall/model_37/tf.compat.v1.transpose_52/transpose/perm",
        "op": "Const",
        "attr": {
          "dtype": { "type": "DT_INT32" },
          "value": {
            "tensor": {
              "dtype": "DT_INT32",
              "tensorShape": { "dim": [{ "size": "4" }] }
            }
          }
        }
      },
      {
        "name": "PartitionedCall/model_37/tf.reshape_23/Reshape/shape",
        "op": "Const",
        "attr": {
          "dtype": { "type": "DT_INT32" },
          "value": {
            "tensor": {
              "dtype": "DT_INT32",
              "tensorShape": { "dim": [{ "size": "3" }] }
            }
          }
        }
      },
      {
        "name": "29650",
        "op": "Const",
        "attr": {
          "value": {
            "tensor": {
              "dtype": "DT_INT64",
              "tensorShape": { "dim": [{ "size": "3" }] }
            }
          },
          "dtype": { "type": "DT_INT64" }
        }
      },
      {
        "name": "29652",
        "op": "Const",
        "attr": {
          "value": {
            "tensor": {
              "dtype": "DT_INT64",
              "tensorShape": { "dim": [{ "size": "3" }] }
            }
          },
          "dtype": { "type": "DT_INT64" }
        }
      },
      {
        "name": "PartitionedCall/model_37/tf.strided_slice_21/ones_like",
        "op": "Const",
        "attr": {
          "dtype": { "type": "DT_INT64" },
          "value": {
            "tensor": {
              "dtype": "DT_INT64",
              "tensorShape": { "dim": [{ "size": "3" }] }
            }
          }
        }
      },
      {
        "name": "PartitionedCall/model_37/tf.concat_27/concat/axis",
        "op": "Const",
        "attr": {
          "value": { "tensor": { "dtype": "DT_INT32", "tensorShape": {} } },
          "dtype": { "type": "DT_INT32" }
        }
      },
      {
        "name": "PartitionedCall/model_37/tf.math.multiply_350/Mul/y",
        "op": "Const",
        "attr": {
          "value": {
            "tensor": {
              "dtype": "DT_FLOAT",
              "tensorShape": {
                "dim": [{ "size": "1" }, { "size": "1" }, { "size": "8400" }]
              }
            }
          },
          "dtype": { "type": "DT_FLOAT" }
        }
      },
      {
        "name": "29580",
        "op": "Const",
        "attr": {
          "dtype": { "type": "DT_FLOAT" },
          "value": {
            "tensor": {
              "dtype": "DT_FLOAT",
              "tensorShape": {
                "dim": [
                  { "size": "3" },
                  { "size": "3" },
                  { "size": "64" },
                  { "size": "64" }
                ]
              }
            }
          }
        }
      },
      {
        "name": "29590",
        "op": "Const",
        "attr": {
          "dtype": { "type": "DT_FLOAT" },
          "value": {
            "tensor": {
              "dtype": "DT_FLOAT",
              "tensorShape": { "dim": [{ "size": "64" }] }
            }
          }
        }
      },
      {
        "name": "29604",
        "op": "Const",
        "attr": {
          "dtype": { "type": "DT_FLOAT" },
          "value": {
            "tensor": {
              "dtype": "DT_FLOAT",
              "tensorShape": {
                "dim": [
                  { "size": "3" },
                  { "size": "3" },
                  { "size": "64" },
                  { "size": "64" }
                ]
              }
            }
          }
        }
      },
      {
        "name": "29614",
        "op": "Const",
        "attr": {
          "value": {
            "tensor": {
              "dtype": "DT_FLOAT",
              "tensorShape": { "dim": [{ "size": "64" }] }
            }
          },
          "dtype": { "type": "DT_FLOAT" }
        }
      },
      {
        "name": "29626",
        "op": "Const",
        "attr": {
          "dtype": { "type": "DT_FLOAT" },
          "value": {
            "tensor": {
              "dtype": "DT_FLOAT",
              "tensorShape": {
                "dim": [
                  { "size": "1" },
                  { "size": "1" },
                  { "size": "64" },
                  { "size": "64" }
                ]
              }
            }
          }
        }
      },
      {
        "name": "29636",
        "op": "Const",
        "attr": {
          "dtype": { "type": "DT_FLOAT" },
          "value": {
            "tensor": {
              "dtype": "DT_FLOAT",
              "tensorShape": { "dim": [{ "size": "64" }] }
            }
          }
        }
      },
      {
        "name": "29540",
        "op": "Const",
        "attr": {
          "dtype": { "type": "DT_FLOAT" },
          "value": {
            "tensor": {
              "dtype": "DT_FLOAT",
              "tensorShape": {
                "dim": [
                  { "size": "3" },
                  { "size": "3" },
                  { "size": "64" },
                  { "size": "1" }
                ]
              }
            }
          }
        }
      },
      {
        "name": "29542",
        "op": "Const",
        "attr": {
          "value": {
            "tensor": {
              "dtype": "DT_FLOAT",
              "tensorShape": { "dim": [{ "size": "64" }] }
            }
          },
          "dtype": { "type": "DT_FLOAT" }
        }
      },
      {
        "name": "29548",
        "op": "Const",
        "attr": {
          "dtype": { "type": "DT_FLOAT" },
          "value": {
            "tensor": {
              "dtype": "DT_FLOAT",
              "tensorShape": {
                "dim": [
                  { "size": "1" },
                  { "size": "1" },
                  { "size": "64" },
                  { "size": "80" }
                ]
              }
            }
          }
        }
      },
      {
        "name": "29550",
        "op": "Const",
        "attr": {
          "value": {
            "tensor": {
              "dtype": "DT_FLOAT",
              "tensorShape": { "dim": [{ "size": "80" }] }
            }
          },
          "dtype": { "type": "DT_FLOAT" }
        }
      },
      {
        "name": "29564",
        "op": "Const",
        "attr": {
          "dtype": { "type": "DT_FLOAT" },
          "value": {
            "tensor": {
              "dtype": "DT_FLOAT",
              "tensorShape": {
                "dim": [
                  { "size": "3" },
                  { "size": "3" },
                  { "size": "80" },
                  { "size": "1" }
                ]
              }
            }
          }
        }
      },
      {
        "name": "29570",
        "op": "Const",
        "attr": {
          "value": {
            "tensor": {
              "dtype": "DT_FLOAT",
              "tensorShape": { "dim": [{ "size": "80" }] }
            }
          },
          "dtype": { "type": "DT_FLOAT" }
        }
      },
      {
        "name": "29592",
        "op": "Const",
        "attr": {
          "value": {
            "tensor": {
              "dtype": "DT_FLOAT",
              "tensorShape": {
                "dim": [
                  { "size": "1" },
                  { "size": "1" },
                  { "size": "80" },
                  { "size": "80" }
                ]
              }
            }
          },
          "dtype": { "type": "DT_FLOAT" }
        }
      },
      {
        "name": "29594",
        "op": "Const",
        "attr": {
          "value": {
            "tensor": {
              "dtype": "DT_FLOAT",
              "tensorShape": { "dim": [{ "size": "80" }] }
            }
          },
          "dtype": { "type": "DT_FLOAT" }
        }
      },
      {
        "name": "29624",
        "op": "Const",
        "attr": {
          "value": {
            "tensor": {
              "dtype": "DT_FLOAT",
              "tensorShape": {
                "dim": [
                  { "size": "1" },
                  { "size": "1" },
                  { "size": "80" },
                  { "size": "80" }
                ]
              }
            }
          },
          "dtype": { "type": "DT_FLOAT" }
        }
      },
      {
        "name": "29638",
        "op": "Const",
        "attr": {
          "value": {
            "tensor": {
              "dtype": "DT_FLOAT",
              "tensorShape": { "dim": [{ "size": "80" }] }
            }
          },
          "dtype": { "type": "DT_FLOAT" }
        }
      },
      {
        "name": "PartitionedCall/model_37/tf.concat_16/concat/axis",
        "op": "Const",
        "attr": {
          "value": { "tensor": { "dtype": "DT_INT32", "tensorShape": {} } },
          "dtype": { "type": "DT_INT32" }
        }
      },
      {
        "name": "PartitionedCall/model_37/tf.compat.v1.transpose_29/transpose/perm",
        "op": "Const",
        "attr": {
          "value": {
            "tensor": {
              "dtype": "DT_INT32",
              "tensorShape": { "dim": [{ "size": "4" }] }
            }
          },
          "dtype": { "type": "DT_INT32" }
        }
      },
      {
        "name": "PartitionedCall/model_37/tf.reshape_11/Reshape/shape",
        "op": "Const",
        "attr": {
          "value": {
            "tensor": {
              "dtype": "DT_INT32",
              "tensorShape": { "dim": [{ "size": "3" }] }
            }
          },
          "dtype": { "type": "DT_INT32" }
        }
      },
      {
        "name": "29578",
        "op": "Const",
        "attr": {
          "dtype": { "type": "DT_FLOAT" },
          "value": {
            "tensor": {
              "dtype": "DT_FLOAT",
              "tensorShape": {
                "dim": [
                  { "size": "3" },
                  { "size": "3" },
                  { "size": "128" },
                  { "size": "64" }
                ]
              }
            }
          }
        }
      },
      {
        "name": "29588",
        "op": "Const",
        "attr": {
          "dtype": { "type": "DT_FLOAT" },
          "value": {
            "tensor": {
              "dtype": "DT_FLOAT",
              "tensorShape": { "dim": [{ "size": "64" }] }
            }
          }
        }
      },
      {
        "name": "29602",
        "op": "Const",
        "attr": {
          "value": {
            "tensor": {
              "dtype": "DT_FLOAT",
              "tensorShape": {
                "dim": [
                  { "size": "3" },
                  { "size": "3" },
                  { "size": "64" },
                  { "size": "64" }
                ]
              }
            }
          },
          "dtype": { "type": "DT_FLOAT" }
        }
      },
      {
        "name": "29612",
        "op": "Const",
        "attr": {
          "dtype": { "type": "DT_FLOAT" },
          "value": {
            "tensor": {
              "dtype": "DT_FLOAT",
              "tensorShape": { "dim": [{ "size": "64" }] }
            }
          }
        }
      },
      {
        "name": "29622",
        "op": "Const",
        "attr": {
          "dtype": { "type": "DT_FLOAT" },
          "value": {
            "tensor": {
              "dtype": "DT_FLOAT",
              "tensorShape": {
                "dim": [
                  { "size": "1" },
                  { "size": "1" },
                  { "size": "64" },
                  { "size": "64" }
                ]
              }
            }
          }
        }
      },
      {
        "name": "29632",
        "op": "Const",
        "attr": {
          "dtype": { "type": "DT_FLOAT" },
          "value": {
            "tensor": {
              "dtype": "DT_FLOAT",
              "tensorShape": { "dim": [{ "size": "64" }] }
            }
          }
        }
      },
      {
        "name": "29554",
        "op": "Const",
        "attr": {
          "value": {
            "tensor": {
              "dtype": "DT_FLOAT",
              "tensorShape": {
                "dim": [
                  { "size": "3" },
                  { "size": "3" },
                  { "size": "128" },
                  { "size": "1" }
                ]
              }
            }
          },
          "dtype": { "type": "DT_FLOAT" }
        }
      },
      {
        "name": "29558",
        "op": "Const",
        "attr": {
          "value": {
            "tensor": {
              "dtype": "DT_FLOAT",
              "tensorShape": { "dim": [{ "size": "128" }] }
            }
          },
          "dtype": { "type": "DT_FLOAT" }
        }
      },
      {
        "name": "29562",
        "op": "Const",
        "attr": {
          "dtype": { "type": "DT_FLOAT" },
          "value": {
            "tensor": {
              "dtype": "DT_FLOAT",
              "tensorShape": {
                "dim": [
                  { "size": "1" },
                  { "size": "1" },
                  { "size": "128" },
                  { "size": "80" }
                ]
              }
            }
          }
        }
      },
      {
        "name": "29568",
        "op": "Const",
        "attr": {
          "dtype": { "type": "DT_FLOAT" },
          "value": {
            "tensor": {
              "dtype": "DT_FLOAT",
              "tensorShape": { "dim": [{ "size": "80" }] }
            }
          }
        }
      },
      {
        "name": "29576",
        "op": "Const",
        "attr": {
          "dtype": { "type": "DT_FLOAT" },
          "value": {
            "tensor": {
              "dtype": "DT_FLOAT",
              "tensorShape": {
                "dim": [
                  { "size": "3" },
                  { "size": "3" },
                  { "size": "80" },
                  { "size": "1" }
                ]
              }
            }
          }
        }
      },
      {
        "name": "29586",
        "op": "Const",
        "attr": {
          "value": {
            "tensor": {
              "dtype": "DT_FLOAT",
              "tensorShape": { "dim": [{ "size": "80" }] }
            }
          },
          "dtype": { "type": "DT_FLOAT" }
        }
      },
      {
        "name": "29600",
        "op": "Const",
        "attr": {
          "dtype": { "type": "DT_FLOAT" },
          "value": {
            "tensor": {
              "dtype": "DT_FLOAT",
              "tensorShape": {
                "dim": [
                  { "size": "1" },
                  { "size": "1" },
                  { "size": "80" },
                  { "size": "80" }
                ]
              }
            }
          }
        }
      },
      {
        "name": "29610",
        "op": "Const",
        "attr": {
          "value": {
            "tensor": {
              "dtype": "DT_FLOAT",
              "tensorShape": { "dim": [{ "size": "80" }] }
            }
          },
          "dtype": { "type": "DT_FLOAT" }
        }
      },
      {
        "name": "29620",
        "op": "Const",
        "attr": {
          "value": {
            "tensor": {
              "dtype": "DT_FLOAT",
              "tensorShape": {
                "dim": [
                  { "size": "1" },
                  { "size": "1" },
                  { "size": "80" },
                  { "size": "80" }
                ]
              }
            }
          },
          "dtype": { "type": "DT_FLOAT" }
        }
      },
      {
        "name": "29634",
        "op": "Const",
        "attr": {
          "dtype": { "type": "DT_FLOAT" },
          "value": {
            "tensor": {
              "dtype": "DT_FLOAT",
              "tensorShape": { "dim": [{ "size": "80" }] }
            }
          }
        }
      },
      {
        "name": "PartitionedCall/model_37/tf.concat_19/concat/axis",
        "op": "Const",
        "attr": {
          "dtype": { "type": "DT_INT32" },
          "value": { "tensor": { "dtype": "DT_INT32", "tensorShape": {} } }
        }
      },
      {
        "name": "PartitionedCall/model_37/tf.compat.v1.transpose_34/transpose/perm",
        "op": "Const",
        "attr": {
          "value": {
            "tensor": {
              "dtype": "DT_INT32",
              "tensorShape": { "dim": [{ "size": "4" }] }
            }
          },
          "dtype": { "type": "DT_INT32" }
        }
      },
      {
        "name": "PartitionedCall/model_37/tf.reshape_14/Reshape/shape",
        "op": "Const",
        "attr": {
          "dtype": { "type": "DT_INT32" },
          "value": {
            "tensor": {
              "dtype": "DT_INT32",
              "tensorShape": { "dim": [{ "size": "3" }] }
            }
          }
        }
      },
      {
        "name": "29574",
        "op": "Const",
        "attr": {
          "dtype": { "type": "DT_FLOAT" },
          "value": {
            "tensor": {
              "dtype": "DT_FLOAT",
              "tensorShape": {
                "dim": [
                  { "size": "3" },
                  { "size": "3" },
                  { "size": "256" },
                  { "size": "64" }
                ]
              }
            }
          }
        }
      },
      {
        "name": "29584",
        "op": "Const",
        "attr": {
          "dtype": { "type": "DT_FLOAT" },
          "value": {
            "tensor": {
              "dtype": "DT_FLOAT",
              "tensorShape": { "dim": [{ "size": "64" }] }
            }
          }
        }
      },
      {
        "name": "29598",
        "op": "Const",
        "attr": {
          "value": {
            "tensor": {
              "dtype": "DT_FLOAT",
              "tensorShape": {
                "dim": [
                  { "size": "3" },
                  { "size": "3" },
                  { "size": "64" },
                  { "size": "64" }
                ]
              }
            }
          },
          "dtype": { "type": "DT_FLOAT" }
        }
      },
      {
        "name": "29608",
        "op": "Const",
        "attr": {
          "value": {
            "tensor": {
              "dtype": "DT_FLOAT",
              "tensorShape": { "dim": [{ "size": "64" }] }
            }
          },
          "dtype": { "type": "DT_FLOAT" }
        }
      },
      {
        "name": "29618",
        "op": "Const",
        "attr": {
          "dtype": { "type": "DT_FLOAT" },
          "value": {
            "tensor": {
              "dtype": "DT_FLOAT",
              "tensorShape": {
                "dim": [
                  { "size": "1" },
                  { "size": "1" },
                  { "size": "64" },
                  { "size": "64" }
                ]
              }
            }
          }
        }
      },
      {
        "name": "29628",
        "op": "Const",
        "attr": {
          "value": {
            "tensor": {
              "dtype": "DT_FLOAT",
              "tensorShape": { "dim": [{ "size": "64" }] }
            }
          },
          "dtype": { "type": "DT_FLOAT" }
        }
      },
      {
        "name": "29536",
        "op": "Const",
        "attr": {
          "dtype": { "type": "DT_INT64" },
          "value": {
            "tensor": {
              "dtype": "DT_INT64",
              "tensorShape": { "dim": [{ "size": "4" }] }
            }
          }
        }
      },
      {
        "name": "29538",
        "op": "Const",
        "attr": {
          "dtype": { "type": "DT_INT64" },
          "value": {
            "tensor": {
              "dtype": "DT_INT64",
              "tensorShape": { "dim": [{ "size": "4" }] }
            }
          }
        }
      },
      {
        "name": "PartitionedCall/model_37/tf.strided_slice_17/ones_like",
        "op": "Const",
        "attr": {
          "value": {
            "tensor": {
              "dtype": "DT_INT64",
              "tensorShape": { "dim": [{ "size": "4" }] }
            }
          },
          "dtype": { "type": "DT_INT64" }
        }
      },
      {
        "name": "29508",
        "op": "Const",
        "attr": {
          "value": {
            "tensor": {
              "dtype": "DT_FLOAT",
              "tensorShape": {
                "dim": [
                  { "size": "1" },
                  { "size": "1" },
                  { "size": "128" },
                  { "size": "64" }
                ]
              }
            }
          },
          "dtype": { "type": "DT_FLOAT" }
        }
      },
      {
        "name": "29510",
        "op": "Const",
        "attr": {
          "dtype": { "type": "DT_FLOAT" },
          "value": {
            "tensor": {
              "dtype": "DT_FLOAT",
              "tensorShape": { "dim": [{ "size": "64" }] }
            }
          }
        }
      },
      {
        "name": "29512",
        "op": "Const",
        "attr": {
          "dtype": { "type": "DT_FLOAT" },
          "value": {
            "tensor": {
              "dtype": "DT_FLOAT",
              "tensorShape": {
                "dim": [
                  { "size": "3" },
                  { "size": "3" },
                  { "size": "64" },
                  { "size": "64" }
                ]
              }
            }
          }
        }
      },
      {
        "name": "29514",
        "op": "Const",
        "attr": {
          "dtype": { "type": "DT_FLOAT" },
          "value": {
            "tensor": {
              "dtype": "DT_FLOAT",
              "tensorShape": { "dim": [{ "size": "64" }] }
            }
          }
        }
      },
      {
        "name": "29516",
        "op": "Const",
        "attr": {
          "value": {
            "tensor": {
              "dtype": "DT_FLOAT",
              "tensorShape": {
                "dim": [
                  { "size": "3" },
                  { "size": "3" },
                  { "size": "64" },
                  { "size": "64" }
                ]
              }
            }
          },
          "dtype": { "type": "DT_FLOAT" }
        }
      },
      {
        "name": "29518",
        "op": "Const",
        "attr": {
          "value": {
            "tensor": {
              "dtype": "DT_FLOAT",
              "tensorShape": { "dim": [{ "size": "64" }] }
            }
          },
          "dtype": { "type": "DT_FLOAT" }
        }
      },
      {
        "name": "29520",
        "op": "Const",
        "attr": {
          "value": {
            "tensor": {
              "dtype": "DT_FLOAT",
              "tensorShape": {
                "dim": [
                  { "size": "3" },
                  { "size": "3" },
                  { "size": "64" },
                  { "size": "64" }
                ]
              }
            }
          },
          "dtype": { "type": "DT_FLOAT" }
        }
      },
      {
        "name": "29522",
        "op": "Const",
        "attr": {
          "dtype": { "type": "DT_FLOAT" },
          "value": {
            "tensor": {
              "dtype": "DT_FLOAT",
              "tensorShape": { "dim": [{ "size": "64" }] }
            }
          }
        }
      },
      {
        "name": "29524",
        "op": "Const",
        "attr": {
          "dtype": { "type": "DT_FLOAT" },
          "value": {
            "tensor": {
              "dtype": "DT_FLOAT",
              "tensorShape": {
                "dim": [
                  { "size": "3" },
                  { "size": "3" },
                  { "size": "64" },
                  { "size": "64" }
                ]
              }
            }
          }
        }
      },
      {
        "name": "29528",
        "op": "Const",
        "attr": {
          "dtype": { "type": "DT_FLOAT" },
          "value": {
            "tensor": {
              "dtype": "DT_FLOAT",
              "tensorShape": { "dim": [{ "size": "64" }] }
            }
          }
        }
      },
      {
        "name": "29486",
        "op": "Const",
        "attr": {
          "value": {
            "tensor": {
              "dtype": "DT_INT64",
              "tensorShape": { "dim": [{ "size": "4" }] }
            }
          },
          "dtype": { "type": "DT_INT64" }
        }
      },
      {
        "name": "29488",
        "op": "Const",
        "attr": {
          "value": {
            "tensor": {
              "dtype": "DT_INT64",
              "tensorShape": { "dim": [{ "size": "4" }] }
            }
          },
          "dtype": { "type": "DT_INT64" }
        }
      },
      {
        "name": "PartitionedCall/model_37/tf.strided_slice_15/ones_like",
        "op": "Const",
        "attr": {
          "dtype": { "type": "DT_INT64" },
          "value": {
            "tensor": {
              "dtype": "DT_INT64",
              "tensorShape": { "dim": [{ "size": "4" }] }
            }
          }
        }
      },
      {
        "name": "29456",
        "op": "Const",
        "attr": {
          "value": {
            "tensor": {
              "dtype": "DT_INT64",
              "tensorShape": { "dim": [{ "size": "4" }] }
            }
          },
          "dtype": { "type": "DT_INT64" }
        }
      },
      {
        "name": "29458",
        "op": "Const",
        "attr": {
          "value": {
            "tensor": {
              "dtype": "DT_INT64",
              "tensorShape": { "dim": [{ "size": "4" }] }
            }
          },
          "dtype": { "type": "DT_INT64" }
        }
      },
      {
        "name": "PartitionedCall/model_37/tf.strided_slice_13/ones_like",
        "op": "Const",
        "attr": {
          "value": {
            "tensor": {
              "dtype": "DT_INT64",
              "tensorShape": { "dim": [{ "size": "4" }] }
            }
          },
          "dtype": { "type": "DT_INT64" }
        }
      },
      {
        "name": "PartitionedCall/model_37/tf.image.resize_1/resize/size",
        "op": "Const",
        "attr": {
          "value": {
            "tensor": {
              "dtype": "DT_INT32",
              "tensorShape": { "dim": [{ "size": "2" }] }
            }
          },
          "dtype": { "type": "DT_INT32" }
        }
      },
      {
        "name": "PartitionedCall/model_37/tf.concat_11/concat/axis",
        "op": "Const",
        "attr": {
          "dtype": { "type": "DT_INT32" },
          "value": { "tensor": { "dtype": "DT_INT32", "tensorShape": {} } }
        }
      },
      {
        "name": "29440",
        "op": "Const",
        "attr": {
          "dtype": { "type": "DT_FLOAT" },
          "value": {
            "tensor": {
              "dtype": "DT_FLOAT",
              "tensorShape": {
                "dim": [
                  { "size": "1" },
                  { "size": "1" },
                  { "size": "256" },
                  { "size": "64" }
                ]
              }
            }
          }
        }
      },
      {
        "name": "29442",
        "op": "Const",
        "attr": {
          "value": {
            "tensor": {
              "dtype": "DT_FLOAT",
              "tensorShape": { "dim": [{ "size": "64" }] }
            }
          },
          "dtype": { "type": "DT_FLOAT" }
        }
      },
      {
        "name": "29444",
        "op": "Const",
        "attr": {
          "value": {
            "tensor": {
              "dtype": "DT_INT64",
              "tensorShape": { "dim": [{ "size": "4" }] }
            }
          },
          "dtype": { "type": "DT_INT64" }
        }
      },
      {
        "name": "29446",
        "op": "Const",
        "attr": {
          "value": {
            "tensor": {
              "dtype": "DT_INT64",
              "tensorShape": { "dim": [{ "size": "4" }] }
            }
          },
          "dtype": { "type": "DT_INT64" }
        }
      },
      {
        "name": "PartitionedCall/model_37/tf.strided_slice_14/ones_like",
        "op": "Const",
        "attr": {
          "dtype": { "type": "DT_INT64" },
          "value": {
            "tensor": {
              "dtype": "DT_INT64",
              "tensorShape": { "dim": [{ "size": "4" }] }
            }
          }
        }
      },
      {
        "name": "29448",
        "op": "Const",
        "attr": {
          "value": {
            "tensor": {
              "dtype": "DT_FLOAT",
              "tensorShape": {
                "dim": [
                  { "size": "3" },
                  { "size": "3" },
                  { "size": "32" },
                  { "size": "16" }
                ]
              }
            }
          },
          "dtype": { "type": "DT_FLOAT" }
        }
      },
      {
        "name": "29450",
        "op": "Const",
        "attr": {
          "dtype": { "type": "DT_FLOAT" },
          "value": {
            "tensor": {
              "dtype": "DT_FLOAT",
              "tensorShape": { "dim": [{ "size": "16" }] }
            }
          }
        }
      },
      {
        "name": "29452",
        "op": "Const",
        "attr": {
          "value": {
            "tensor": {
              "dtype": "DT_FLOAT",
              "tensorShape": {
                "dim": [
                  { "size": "3" },
                  { "size": "3" },
                  { "size": "16" },
                  { "size": "32" }
                ]
              }
            }
          },
          "dtype": { "type": "DT_FLOAT" }
        }
      },
      {
        "name": "29454",
        "op": "Const",
        "attr": {
          "value": {
            "tensor": {
              "dtype": "DT_FLOAT",
              "tensorShape": { "dim": [{ "size": "32" }] }
            }
          },
          "dtype": { "type": "DT_FLOAT" }
        }
      },
      {
        "name": "PartitionedCall/model_37/tf.concat_12/concat/axis",
        "op": "Const",
        "attr": {
          "dtype": { "type": "DT_INT32" },
          "value": { "tensor": { "dtype": "DT_INT32", "tensorShape": {} } }
        }
      },
      {
        "name": "29460",
        "op": "Const",
        "attr": {
          "value": {
            "tensor": {
              "dtype": "DT_FLOAT",
              "tensorShape": {
                "dim": [
                  { "size": "1" },
                  { "size": "1" },
                  { "size": "96" },
                  { "size": "64" }
                ]
              }
            }
          },
          "dtype": { "type": "DT_FLOAT" }
        }
      },
      {
        "name": "29462",
        "op": "Const",
        "attr": {
          "dtype": { "type": "DT_FLOAT" },
          "value": {
            "tensor": {
              "dtype": "DT_FLOAT",
              "tensorShape": { "dim": [{ "size": "64" }] }
            }
          }
        }
      },
      {
        "name": "29464",
        "op": "Const",
        "attr": {
          "dtype": { "type": "DT_INT32" },
          "value": {
            "tensor": {
              "dtype": "DT_INT32",
              "tensorShape": { "dim": [{ "size": "4" }, { "size": "2" }] }
            }
          }
        }
      },
      {
        "name": "29466",
        "op": "Const",
        "attr": {
          "dtype": { "type": "DT_FLOAT" },
          "value": {
            "tensor": {
              "dtype": "DT_FLOAT",
              "tensorShape": {
                "dim": [
                  { "size": "3" },
                  { "size": "3" },
                  { "size": "64" },
                  { "size": "64" }
                ]
              }
            }
          }
        }
      },
      {
        "name": "29468",
        "op": "Const",
        "attr": {
          "dtype": { "type": "DT_FLOAT" },
          "value": {
            "tensor": {
              "dtype": "DT_FLOAT",
              "tensorShape": { "dim": [{ "size": "64" }] }
            }
          }
        }
      },
      {
        "name": "29432",
        "op": "Const",
        "attr": {
          "value": {
            "tensor": {
              "dtype": "DT_INT64",
              "tensorShape": { "dim": [{ "size": "4" }] }
            }
          },
          "dtype": { "type": "DT_INT64" }
        }
      },
      {
        "name": "29434",
        "op": "Const",
        "attr": {
          "dtype": { "type": "DT_INT64" },
          "value": {
            "tensor": {
              "dtype": "DT_INT64",
              "tensorShape": { "dim": [{ "size": "4" }] }
            }
          }
        }
      },
      {
        "name": "PartitionedCall/model_37/tf.strided_slice_11/ones_like",
        "op": "Const",
        "attr": {
          "value": {
            "tensor": {
              "dtype": "DT_INT64",
              "tensorShape": { "dim": [{ "size": "4" }] }
            }
          },
          "dtype": { "type": "DT_INT64" }
        }
      },
      {
        "name": "PartitionedCall/model_37/tf.image.resize/resize/size",
        "op": "Const",
        "attr": {
          "value": {
            "tensor": {
              "dtype": "DT_INT32",
              "tensorShape": { "dim": [{ "size": "2" }] }
            }
          },
          "dtype": { "type": "DT_INT32" }
        }
      },
      {
        "name": "PartitionedCall/model_37/tf.concat_9/concat/axis",
        "op": "Const",
        "attr": {
          "value": { "tensor": { "dtype": "DT_INT32", "tensorShape": {} } },
          "dtype": { "type": "DT_INT32" }
        }
      },
      {
        "name": "29416",
        "op": "Const",
        "attr": {
          "dtype": { "type": "DT_FLOAT" },
          "value": {
            "tensor": {
              "dtype": "DT_FLOAT",
              "tensorShape": {
                "dim": [
                  { "size": "1" },
                  { "size": "1" },
                  { "size": "384" },
                  { "size": "128" }
                ]
              }
            }
          }
        }
      },
      {
        "name": "29418",
        "op": "Const",
        "attr": {
          "value": {
            "tensor": {
              "dtype": "DT_FLOAT",
              "tensorShape": { "dim": [{ "size": "128" }] }
            }
          },
          "dtype": { "type": "DT_FLOAT" }
        }
      },
      {
        "name": "29420",
        "op": "Const",
        "attr": {
          "dtype": { "type": "DT_INT64" },
          "value": {
            "tensor": {
              "dtype": "DT_INT64",
              "tensorShape": { "dim": [{ "size": "4" }] }
            }
          }
        }
      },
      {
        "name": "29422",
        "op": "Const",
        "attr": {
          "dtype": { "type": "DT_INT64" },
          "value": {
            "tensor": {
              "dtype": "DT_INT64",
              "tensorShape": { "dim": [{ "size": "4" }] }
            }
          }
        }
      },
      {
        "name": "PartitionedCall/model_37/tf.strided_slice_12/ones_like",
        "op": "Const",
        "attr": {
          "dtype": { "type": "DT_INT64" },
          "value": {
            "tensor": {
              "dtype": "DT_INT64",
              "tensorShape": { "dim": [{ "size": "4" }] }
            }
          }
        }
      },
      {
        "name": "29424",
        "op": "Const",
        "attr": {
          "value": {
            "tensor": {
              "dtype": "DT_FLOAT",
              "tensorShape": {
                "dim": [
                  { "size": "3" },
                  { "size": "3" },
                  { "size": "64" },
                  { "size": "32" }
                ]
              }
            }
          },
          "dtype": { "type": "DT_FLOAT" }
        }
      },
      {
        "name": "29426",
        "op": "Const",
        "attr": {
          "dtype": { "type": "DT_FLOAT" },
          "value": {
            "tensor": {
              "dtype": "DT_FLOAT",
              "tensorShape": { "dim": [{ "size": "32" }] }
            }
          }
        }
      },
      {
        "name": "29428",
        "op": "Const",
        "attr": {
          "value": {
            "tensor": {
              "dtype": "DT_FLOAT",
              "tensorShape": {
                "dim": [
                  { "size": "3" },
                  { "size": "3" },
                  { "size": "32" },
                  { "size": "64" }
                ]
              }
            }
          },
          "dtype": { "type": "DT_FLOAT" }
        }
      },
      {
        "name": "29430",
        "op": "Const",
        "attr": {
          "dtype": { "type": "DT_FLOAT" },
          "value": {
            "tensor": {
              "dtype": "DT_FLOAT",
              "tensorShape": { "dim": [{ "size": "64" }] }
            }
          }
        }
      },
      {
        "name": "PartitionedCall/model_37/tf.concat_10/concat/axis",
        "op": "Const",
        "attr": {
          "dtype": { "type": "DT_INT32" },
          "value": { "tensor": { "dtype": "DT_INT32", "tensorShape": {} } }
        }
      },
      {
        "name": "29436",
        "op": "Const",
        "attr": {
          "value": {
            "tensor": {
              "dtype": "DT_FLOAT",
              "tensorShape": {
                "dim": [
                  { "size": "1" },
                  { "size": "1" },
                  { "size": "192" },
                  { "size": "128" }
                ]
              }
            }
          },
          "dtype": { "type": "DT_FLOAT" }
        }
      },
      {
        "name": "29438",
        "op": "Const",
        "attr": {
          "value": {
            "tensor": {
              "dtype": "DT_FLOAT",
              "tensorShape": { "dim": [{ "size": "128" }] }
            }
          },
          "dtype": { "type": "DT_FLOAT" }
        }
      },
      {
        "name": "PartitionedCall/model_37/tf.concat_13/concat/axis",
        "op": "Const",
        "attr": {
          "value": { "tensor": { "dtype": "DT_INT32", "tensorShape": {} } },
          "dtype": { "type": "DT_INT32" }
        }
      },
      {
        "name": "29470",
        "op": "Const",
        "attr": {
          "dtype": { "type": "DT_FLOAT" },
          "value": {
            "tensor": {
              "dtype": "DT_FLOAT",
              "tensorShape": {
                "dim": [
                  { "size": "1" },
                  { "size": "1" },
                  { "size": "192" },
                  { "size": "128" }
                ]
              }
            }
          }
        }
      },
      {
        "name": "29472",
        "op": "Const",
        "attr": {
          "value": {
            "tensor": {
              "dtype": "DT_FLOAT",
              "tensorShape": { "dim": [{ "size": "128" }] }
            }
          },
          "dtype": { "type": "DT_FLOAT" }
        }
      },
      {
        "name": "29474",
        "op": "Const",
        "attr": {
          "dtype": { "type": "DT_INT64" },
          "value": {
            "tensor": {
              "dtype": "DT_INT64",
              "tensorShape": { "dim": [{ "size": "4" }] }
            }
          }
        }
      },
      {
        "name": "29476",
        "op": "Const",
        "attr": {
          "value": {
            "tensor": {
              "dtype": "DT_INT64",
              "tensorShape": { "dim": [{ "size": "4" }] }
            }
          },
          "dtype": { "type": "DT_INT64" }
        }
      },
      {
        "name": "PartitionedCall/model_37/tf.strided_slice_16/ones_like",
        "op": "Const",
        "attr": {
          "dtype": { "type": "DT_INT64" },
          "value": {
            "tensor": {
              "dtype": "DT_INT64",
              "tensorShape": { "dim": [{ "size": "4" }] }
            }
          }
        }
      },
      {
        "name": "29478",
        "op": "Const",
        "attr": {
          "dtype": { "type": "DT_FLOAT" },
          "value": {
            "tensor": {
              "dtype": "DT_FLOAT",
              "tensorShape": {
                "dim": [
                  { "size": "3" },
                  { "size": "3" },
                  { "size": "64" },
                  { "size": "32" }
                ]
              }
            }
          }
        }
      },
      {
        "name": "29480",
        "op": "Const",
        "attr": {
          "value": {
            "tensor": {
              "dtype": "DT_FLOAT",
              "tensorShape": { "dim": [{ "size": "32" }] }
            }
          },
          "dtype": { "type": "DT_FLOAT" }
        }
      },
      {
        "name": "29482",
        "op": "Const",
        "attr": {
          "dtype": { "type": "DT_FLOAT" },
          "value": {
            "tensor": {
              "dtype": "DT_FLOAT",
              "tensorShape": {
                "dim": [
                  { "size": "3" },
                  { "size": "3" },
                  { "size": "32" },
                  { "size": "64" }
                ]
              }
            }
          }
        }
      },
      {
        "name": "29484",
        "op": "Const",
        "attr": {
          "value": {
            "tensor": {
              "dtype": "DT_FLOAT",
              "tensorShape": { "dim": [{ "size": "64" }] }
            }
          },
          "dtype": { "type": "DT_FLOAT" }
        }
      },
      {
        "name": "PartitionedCall/model_37/tf.concat_17/concat/axis",
        "op": "Const",
        "attr": {
          "dtype": { "type": "DT_INT32" },
          "value": { "tensor": { "dtype": "DT_INT32", "tensorShape": {} } }
        }
      },
      {
        "name": "29490",
        "op": "Const",
        "attr": {
          "dtype": { "type": "DT_FLOAT" },
          "value": {
            "tensor": {
              "dtype": "DT_FLOAT",
              "tensorShape": {
                "dim": [
                  { "size": "1" },
                  { "size": "1" },
                  { "size": "192" },
                  { "size": "128" }
                ]
              }
            }
          }
        }
      },
      {
        "name": "29492",
        "op": "Const",
        "attr": {
          "value": {
            "tensor": {
              "dtype": "DT_FLOAT",
              "tensorShape": { "dim": [{ "size": "128" }] }
            }
          },
          "dtype": { "type": "DT_FLOAT" }
        }
      },
      {
        "name": "29494",
        "op": "Const",
        "attr": {
          "dtype": { "type": "DT_INT32" },
          "value": {
            "tensor": {
              "dtype": "DT_INT32",
              "tensorShape": { "dim": [{ "size": "4" }, { "size": "2" }] }
            }
          }
        }
      },
      {
        "name": "29496",
        "op": "Const",
        "attr": {
          "value": {
            "tensor": {
              "dtype": "DT_FLOAT",
              "tensorShape": {
                "dim": [
                  { "size": "3" },
                  { "size": "3" },
                  { "size": "128" },
                  { "size": "128" }
                ]
              }
            }
          },
          "dtype": { "type": "DT_FLOAT" }
        }
      },
      {
        "name": "29498",
        "op": "Const",
        "attr": {
          "value": {
            "tensor": {
              "dtype": "DT_FLOAT",
              "tensorShape": { "dim": [{ "size": "128" }] }
            }
          },
          "dtype": { "type": "DT_FLOAT" }
        }
      },
      {
        "name": "29410",
        "op": "Const",
        "attr": {
          "value": {
            "tensor": {
              "dtype": "DT_FLOAT",
              "tensorShape": { "dim": [{ "size": "128" }] }
            }
          },
          "dtype": { "type": "DT_FLOAT" }
        }
      },
      {
        "name": "29402",
        "op": "Const",
        "attr": {
          "dtype": { "type": "DT_FLOAT" },
          "value": {
            "tensor": {
              "dtype": "DT_FLOAT",
              "tensorShape": { "dim": [{ "size": "128" }] }
            }
          }
        }
      },
      {
        "name": "29398",
        "op": "Const",
        "attr": {
          "dtype": { "type": "DT_FLOAT" },
          "value": {
            "tensor": {
              "dtype": "DT_FLOAT",
              "tensorShape": { "dim": [{ "size": "128" }] }
            }
          }
        }
      },
      {
        "name": "PartitionedCall/model_37/tf.strided_slice_8/StridedSlice/begin",
        "op": "Const",
        "attr": {
          "value": {
            "tensor": {
              "dtype": "DT_INT32",
              "tensorShape": { "dim": [{ "size": "4" }] }
            }
          },
          "dtype": { "type": "DT_INT32" }
        }
      },
      {
        "name": "PartitionedCall/model_37/tf.strided_slice_8/StridedSlice/end",
        "op": "Const",
        "attr": {
          "value": {
            "tensor": {
              "dtype": "DT_INT32",
              "tensorShape": { "dim": [{ "size": "4" }] }
            }
          },
          "dtype": { "type": "DT_INT32" }
        }
      },
      {
        "name": "PartitionedCall/model_37/tf.strided_slice_8/ones_like",
        "op": "Const",
        "attr": {
          "value": {
            "tensor": {
              "dtype": "DT_INT32",
              "tensorShape": { "dim": [{ "size": "4" }] }
            }
          },
          "dtype": { "type": "DT_INT32" }
        }
      },
      {
        "name": "PartitionedCall/model_37/tf.strided_slice_9/StridedSlice/begin",
        "op": "Const",
        "attr": {
          "dtype": { "type": "DT_INT32" },
          "value": {
            "tensor": {
              "dtype": "DT_INT32",
              "tensorShape": { "dim": [{ "size": "4" }] }
            }
          }
        }
      },
      {
        "name": "PartitionedCall/model_37/tf.strided_slice_9/StridedSlice/end",
        "op": "Const",
        "attr": {
          "value": {
            "tensor": {
              "dtype": "DT_INT32",
              "tensorShape": { "dim": [{ "size": "4" }] }
            }
          },
          "dtype": { "type": "DT_INT32" }
        }
      },
      {
        "name": "PartitionedCall/model_37/tf.strided_slice_9/ones_like",
        "op": "Const",
        "attr": {
          "dtype": { "type": "DT_INT32" },
          "value": {
            "tensor": {
              "dtype": "DT_INT32",
              "tensorShape": { "dim": [{ "size": "4" }] }
            }
          }
        }
      },
      {
        "name": "29140",
        "op": "Const",
        "attr": {
          "dtype": { "type": "DT_FLOAT" },
          "value": {
            "tensor": {
              "dtype": "DT_FLOAT",
              "tensorShape": {
                "dim": [
                  { "size": "1" },
                  { "size": "1" },
                  { "size": "1" },
                  { "size": "1" }
                ]
              }
            }
          }
        }
      },
      {
        "name": "PartitionedCall/model_37/tf.reshape_8/Reshape/shape",
        "op": "Const",
        "attr": {
          "value": {
            "tensor": {
              "dtype": "DT_INT32",
              "tensorShape": { "dim": [{ "size": "4" }] }
            }
          },
          "dtype": { "type": "DT_INT32" }
        }
      },
      {
        "name": "PartitionedCall/model_37/tf.compat.v1.transpose_17/transpose/perm",
        "op": "Const",
        "attr": {
          "dtype": { "type": "DT_INT32" },
          "value": {
            "tensor": {
              "dtype": "DT_INT32",
              "tensorShape": { "dim": [{ "size": "4" }] }
            }
          }
        }
      },
      {
        "name": "29142",
        "op": "Const",
        "attr": {
          "dtype": { "type": "DT_FLOAT" },
          "value": {
            "tensor": {
              "dtype": "DT_FLOAT",
              "tensorShape": {
                "dim": [
                  { "size": "3" },
                  { "size": "3" },
                  { "size": "1" },
                  { "size": "1" }
                ]
              }
            }
          }
        }
      },
      {
        "name": "29144",
        "op": "Const",
        "attr": {
          "value": {
            "tensor": {
              "dtype": "DT_FLOAT",
              "tensorShape": {
                "dim": [
                  { "size": "3" },
                  { "size": "3" },
                  { "size": "1" },
                  { "size": "1" }
                ]
              }
            }
          },
          "dtype": { "type": "DT_FLOAT" }
        }
      },
      {
        "name": "29146",
        "op": "Const",
        "attr": {
          "dtype": { "type": "DT_FLOAT" },
          "value": {
            "tensor": {
              "dtype": "DT_FLOAT",
              "tensorShape": {
                "dim": [
                  { "size": "3" },
                  { "size": "3" },
                  { "size": "1" },
                  { "size": "1" }
                ]
              }
            }
          }
        }
      },
      {
        "name": "29148",
        "op": "Const",
        "attr": {
          "dtype": { "type": "DT_FLOAT" },
          "value": {
            "tensor": {
              "dtype": "DT_FLOAT",
              "tensorShape": {
                "dim": [
                  { "size": "3" },
                  { "size": "3" },
                  { "size": "1" },
                  { "size": "1" }
                ]
              }
            }
          }
        }
      },
      {
        "name": "29150",
        "op": "Const",
        "attr": {
          "value": {
            "tensor": {
              "dtype": "DT_FLOAT",
              "tensorShape": {
                "dim": [
                  { "size": "3" },
                  { "size": "3" },
                  { "size": "1" },
                  { "size": "1" }
                ]
              }
            }
          },
          "dtype": { "type": "DT_FLOAT" }
        }
      },
      {
        "name": "29152",
        "op": "Const",
        "attr": {
          "dtype": { "type": "DT_FLOAT" },
          "value": {
            "tensor": {
              "dtype": "DT_FLOAT",
              "tensorShape": {
                "dim": [
                  { "size": "3" },
                  { "size": "3" },
                  { "size": "1" },
                  { "size": "1" }
                ]
              }
            }
          }
        }
      },
      {
        "name": "29154",
        "op": "Const",
        "attr": {
          "dtype": { "type": "DT_FLOAT" },
          "value": {
            "tensor": {
              "dtype": "DT_FLOAT",
              "tensorShape": {
                "dim": [
                  { "size": "3" },
                  { "size": "3" },
                  { "size": "1" },
                  { "size": "1" }
                ]
              }
            }
          }
        }
      },
      {
        "name": "29156",
        "op": "Const",
        "attr": {
          "value": {
            "tensor": {
              "dtype": "DT_FLOAT",
              "tensorShape": {
                "dim": [
                  { "size": "3" },
                  { "size": "3" },
                  { "size": "1" },
                  { "size": "1" }
                ]
              }
            }
          },
          "dtype": { "type": "DT_FLOAT" }
        }
      },
      {
        "name": "29158",
        "op": "Const",
        "attr": {
          "dtype": { "type": "DT_FLOAT" },
          "value": {
            "tensor": {
              "dtype": "DT_FLOAT",
              "tensorShape": {
                "dim": [
                  { "size": "3" },
                  { "size": "3" },
                  { "size": "1" },
                  { "size": "1" }
                ]
              }
            }
          }
        }
      },
      {
        "name": "29160",
        "op": "Const",
        "attr": {
          "value": {
            "tensor": {
              "dtype": "DT_FLOAT",
              "tensorShape": {
                "dim": [
                  { "size": "3" },
                  { "size": "3" },
                  { "size": "1" },
                  { "size": "1" }
                ]
              }
            }
          },
          "dtype": { "type": "DT_FLOAT" }
        }
      },
      {
        "name": "29162",
        "op": "Const",
        "attr": {
          "value": {
            "tensor": {
              "dtype": "DT_FLOAT",
              "tensorShape": {
                "dim": [
                  { "size": "3" },
                  { "size": "3" },
                  { "size": "1" },
                  { "size": "1" }
                ]
              }
            }
          },
          "dtype": { "type": "DT_FLOAT" }
        }
      },
      {
        "name": "29164",
        "op": "Const",
        "attr": {
          "dtype": { "type": "DT_FLOAT" },
          "value": {
            "tensor": {
              "dtype": "DT_FLOAT",
              "tensorShape": {
                "dim": [
                  { "size": "3" },
                  { "size": "3" },
                  { "size": "1" },
                  { "size": "1" }
                ]
              }
            }
          }
        }
      },
      {
        "name": "29166",
        "op": "Const",
        "attr": {
          "value": {
            "tensor": {
              "dtype": "DT_FLOAT",
              "tensorShape": {
                "dim": [
                  { "size": "3" },
                  { "size": "3" },
                  { "size": "1" },
                  { "size": "1" }
                ]
              }
            }
          },
          "dtype": { "type": "DT_FLOAT" }
        }
      },
      {
        "name": "29168",
        "op": "Const",
        "attr": {
          "dtype": { "type": "DT_FLOAT" },
          "value": {
            "tensor": {
              "dtype": "DT_FLOAT",
              "tensorShape": {
                "dim": [
                  { "size": "3" },
                  { "size": "3" },
                  { "size": "1" },
                  { "size": "1" }
                ]
              }
            }
          }
        }
      },
      {
        "name": "29170",
        "op": "Const",
        "attr": {
          "dtype": { "type": "DT_FLOAT" },
          "value": {
            "tensor": {
              "dtype": "DT_FLOAT",
              "tensorShape": {
                "dim": [
                  { "size": "3" },
                  { "size": "3" },
                  { "size": "1" },
                  { "size": "1" }
                ]
              }
            }
          }
        }
      },
      {
        "name": "29172",
        "op": "Const",
        "attr": {
          "dtype": { "type": "DT_FLOAT" },
          "value": {
            "tensor": {
              "dtype": "DT_FLOAT",
              "tensorShape": {
                "dim": [
                  { "size": "3" },
                  { "size": "3" },
                  { "size": "1" },
                  { "size": "1" }
                ]
              }
            }
          }
        }
      },
      {
        "name": "29174",
        "op": "Const",
        "attr": {
          "dtype": { "type": "DT_FLOAT" },
          "value": {
            "tensor": {
              "dtype": "DT_FLOAT",
              "tensorShape": {
                "dim": [
                  { "size": "3" },
                  { "size": "3" },
                  { "size": "1" },
                  { "size": "1" }
                ]
              }
            }
          }
        }
      },
      {
        "name": "29176",
        "op": "Const",
        "attr": {
          "value": {
            "tensor": {
              "dtype": "DT_FLOAT",
              "tensorShape": {
                "dim": [
                  { "size": "3" },
                  { "size": "3" },
                  { "size": "1" },
                  { "size": "1" }
                ]
              }
            }
          },
          "dtype": { "type": "DT_FLOAT" }
        }
      },
      {
        "name": "29178",
        "op": "Const",
        "attr": {
          "value": {
            "tensor": {
              "dtype": "DT_FLOAT",
              "tensorShape": {
                "dim": [
                  { "size": "3" },
                  { "size": "3" },
                  { "size": "1" },
                  { "size": "1" }
                ]
              }
            }
          },
          "dtype": { "type": "DT_FLOAT" }
        }
      },
      {
        "name": "29180",
        "op": "Const",
        "attr": {
          "value": {
            "tensor": {
              "dtype": "DT_FLOAT",
              "tensorShape": {
                "dim": [
                  { "size": "3" },
                  { "size": "3" },
                  { "size": "1" },
                  { "size": "1" }
                ]
              }
            }
          },
          "dtype": { "type": "DT_FLOAT" }
        }
      },
      {
        "name": "29182",
        "op": "Const",
        "attr": {
          "value": {
            "tensor": {
              "dtype": "DT_FLOAT",
              "tensorShape": {
                "dim": [
                  { "size": "3" },
                  { "size": "3" },
                  { "size": "1" },
                  { "size": "1" }
                ]
              }
            }
          },
          "dtype": { "type": "DT_FLOAT" }
        }
      },
      {
        "name": "29184",
        "op": "Const",
        "attr": {
          "dtype": { "type": "DT_FLOAT" },
          "value": {
            "tensor": {
              "dtype": "DT_FLOAT",
              "tensorShape": {
                "dim": [
                  { "size": "3" },
                  { "size": "3" },
                  { "size": "1" },
                  { "size": "1" }
                ]
              }
            }
          }
        }
      },
      {
        "name": "29186",
        "op": "Const",
        "attr": {
          "value": {
            "tensor": {
              "dtype": "DT_FLOAT",
              "tensorShape": {
                "dim": [
                  { "size": "3" },
                  { "size": "3" },
                  { "size": "1" },
                  { "size": "1" }
                ]
              }
            }
          },
          "dtype": { "type": "DT_FLOAT" }
        }
      },
      {
        "name": "29188",
        "op": "Const",
        "attr": {
          "value": {
            "tensor": {
              "dtype": "DT_FLOAT",
              "tensorShape": {
                "dim": [
                  { "size": "3" },
                  { "size": "3" },
                  { "size": "1" },
                  { "size": "1" }
                ]
              }
            }
          },
          "dtype": { "type": "DT_FLOAT" }
        }
      },
      {
        "name": "29190",
        "op": "Const",
        "attr": {
          "value": {
            "tensor": {
              "dtype": "DT_FLOAT",
              "tensorShape": {
                "dim": [
                  { "size": "3" },
                  { "size": "3" },
                  { "size": "1" },
                  { "size": "1" }
                ]
              }
            }
          },
          "dtype": { "type": "DT_FLOAT" }
        }
      },
      {
        "name": "29192",
        "op": "Const",
        "attr": {
          "dtype": { "type": "DT_FLOAT" },
          "value": {
            "tensor": {
              "dtype": "DT_FLOAT",
              "tensorShape": {
                "dim": [
                  { "size": "3" },
                  { "size": "3" },
                  { "size": "1" },
                  { "size": "1" }
                ]
              }
            }
          }
        }
      },
      {
        "name": "29194",
        "op": "Const",
        "attr": {
          "value": {
            "tensor": {
              "dtype": "DT_FLOAT",
              "tensorShape": {
                "dim": [
                  { "size": "3" },
                  { "size": "3" },
                  { "size": "1" },
                  { "size": "1" }
                ]
              }
            }
          },
          "dtype": { "type": "DT_FLOAT" }
        }
      },
      {
        "name": "29196",
        "op": "Const",
        "attr": {
          "value": {
            "tensor": {
              "dtype": "DT_FLOAT",
              "tensorShape": {
                "dim": [
                  { "size": "3" },
                  { "size": "3" },
                  { "size": "1" },
                  { "size": "1" }
                ]
              }
            }
          },
          "dtype": { "type": "DT_FLOAT" }
        }
      },
      {
        "name": "29198",
        "op": "Const",
        "attr": {
          "dtype": { "type": "DT_FLOAT" },
          "value": {
            "tensor": {
              "dtype": "DT_FLOAT",
              "tensorShape": {
                "dim": [
                  { "size": "3" },
                  { "size": "3" },
                  { "size": "1" },
                  { "size": "1" }
                ]
              }
            }
          }
        }
      },
      {
        "name": "29200",
        "op": "Const",
        "attr": {
          "dtype": { "type": "DT_FLOAT" },
          "value": {
            "tensor": {
              "dtype": "DT_FLOAT",
              "tensorShape": {
                "dim": [
                  { "size": "3" },
                  { "size": "3" },
                  { "size": "1" },
                  { "size": "1" }
                ]
              }
            }
          }
        }
      },
      {
        "name": "29202",
        "op": "Const",
        "attr": {
          "dtype": { "type": "DT_FLOAT" },
          "value": {
            "tensor": {
              "dtype": "DT_FLOAT",
              "tensorShape": {
                "dim": [
                  { "size": "3" },
                  { "size": "3" },
                  { "size": "1" },
                  { "size": "1" }
                ]
              }
            }
          }
        }
      },
      {
        "name": "29204",
        "op": "Const",
        "attr": {
          "value": {
            "tensor": {
              "dtype": "DT_FLOAT",
              "tensorShape": {
                "dim": [
                  { "size": "3" },
                  { "size": "3" },
                  { "size": "1" },
                  { "size": "1" }
                ]
              }
            }
          },
          "dtype": { "type": "DT_FLOAT" }
        }
      },
      {
        "name": "29206",
        "op": "Const",
        "attr": {
          "dtype": { "type": "DT_FLOAT" },
          "value": {
            "tensor": {
              "dtype": "DT_FLOAT",
              "tensorShape": {
                "dim": [
                  { "size": "3" },
                  { "size": "3" },
                  { "size": "1" },
                  { "size": "1" }
                ]
              }
            }
          }
        }
      },
      {
        "name": "29208",
        "op": "Const",
        "attr": {
          "value": {
            "tensor": {
              "dtype": "DT_FLOAT",
              "tensorShape": {
                "dim": [
                  { "size": "3" },
                  { "size": "3" },
                  { "size": "1" },
                  { "size": "1" }
                ]
              }
            }
          },
          "dtype": { "type": "DT_FLOAT" }
        }
      },
      {
        "name": "29210",
        "op": "Const",
        "attr": {
          "dtype": { "type": "DT_FLOAT" },
          "value": {
            "tensor": {
              "dtype": "DT_FLOAT",
              "tensorShape": {
                "dim": [
                  { "size": "3" },
                  { "size": "3" },
                  { "size": "1" },
                  { "size": "1" }
                ]
              }
            }
          }
        }
      },
      {
        "name": "29212",
        "op": "Const",
        "attr": {
          "dtype": { "type": "DT_FLOAT" },
          "value": {
            "tensor": {
              "dtype": "DT_FLOAT",
              "tensorShape": {
                "dim": [
                  { "size": "3" },
                  { "size": "3" },
                  { "size": "1" },
                  { "size": "1" }
                ]
              }
            }
          }
        }
      },
      {
        "name": "29214",
        "op": "Const",
        "attr": {
          "value": {
            "tensor": {
              "dtype": "DT_FLOAT",
              "tensorShape": {
                "dim": [
                  { "size": "3" },
                  { "size": "3" },
                  { "size": "1" },
                  { "size": "1" }
                ]
              }
            }
          },
          "dtype": { "type": "DT_FLOAT" }
        }
      },
      {
        "name": "29216",
        "op": "Const",
        "attr": {
          "dtype": { "type": "DT_FLOAT" },
          "value": {
            "tensor": {
              "dtype": "DT_FLOAT",
              "tensorShape": {
                "dim": [
                  { "size": "3" },
                  { "size": "3" },
                  { "size": "1" },
                  { "size": "1" }
                ]
              }
            }
          }
        }
      },
      {
        "name": "29218",
        "op": "Const",
        "attr": {
          "value": {
            "tensor": {
              "dtype": "DT_FLOAT",
              "tensorShape": {
                "dim": [
                  { "size": "3" },
                  { "size": "3" },
                  { "size": "1" },
                  { "size": "1" }
                ]
              }
            }
          },
          "dtype": { "type": "DT_FLOAT" }
        }
      },
      {
        "name": "29220",
        "op": "Const",
        "attr": {
          "dtype": { "type": "DT_FLOAT" },
          "value": {
            "tensor": {
              "dtype": "DT_FLOAT",
              "tensorShape": {
                "dim": [
                  { "size": "3" },
                  { "size": "3" },
                  { "size": "1" },
                  { "size": "1" }
                ]
              }
            }
          }
        }
      },
      {
        "name": "29222",
        "op": "Const",
        "attr": {
          "value": {
            "tensor": {
              "dtype": "DT_FLOAT",
              "tensorShape": {
                "dim": [
                  { "size": "3" },
                  { "size": "3" },
                  { "size": "1" },
                  { "size": "1" }
                ]
              }
            }
          },
          "dtype": { "type": "DT_FLOAT" }
        }
      },
      {
        "name": "29224",
        "op": "Const",
        "attr": {
          "value": {
            "tensor": {
              "dtype": "DT_FLOAT",
              "tensorShape": {
                "dim": [
                  { "size": "3" },
                  { "size": "3" },
                  { "size": "1" },
                  { "size": "1" }
                ]
              }
            }
          },
          "dtype": { "type": "DT_FLOAT" }
        }
      },
      {
        "name": "29226",
        "op": "Const",
        "attr": {
          "value": {
            "tensor": {
              "dtype": "DT_FLOAT",
              "tensorShape": {
                "dim": [
                  { "size": "3" },
                  { "size": "3" },
                  { "size": "1" },
                  { "size": "1" }
                ]
              }
            }
          },
          "dtype": { "type": "DT_FLOAT" }
        }
      },
      {
        "name": "29228",
        "op": "Const",
        "attr": {
          "dtype": { "type": "DT_FLOAT" },
          "value": {
            "tensor": {
              "dtype": "DT_FLOAT",
              "tensorShape": {
                "dim": [
                  { "size": "3" },
                  { "size": "3" },
                  { "size": "1" },
                  { "size": "1" }
                ]
              }
            }
          }
        }
      },
      {
        "name": "29230",
        "op": "Const",
        "attr": {
          "value": {
            "tensor": {
              "dtype": "DT_FLOAT",
              "tensorShape": {
                "dim": [
                  { "size": "3" },
                  { "size": "3" },
                  { "size": "1" },
                  { "size": "1" }
                ]
              }
            }
          },
          "dtype": { "type": "DT_FLOAT" }
        }
      },
      {
        "name": "29232",
        "op": "Const",
        "attr": {
          "dtype": { "type": "DT_FLOAT" },
          "value": {
            "tensor": {
              "dtype": "DT_FLOAT",
              "tensorShape": {
                "dim": [
                  { "size": "3" },
                  { "size": "3" },
                  { "size": "1" },
                  { "size": "1" }
                ]
              }
            }
          }
        }
      },
      {
        "name": "29234",
        "op": "Const",
        "attr": {
          "dtype": { "type": "DT_FLOAT" },
          "value": {
            "tensor": {
              "dtype": "DT_FLOAT",
              "tensorShape": {
                "dim": [
                  { "size": "3" },
                  { "size": "3" },
                  { "size": "1" },
                  { "size": "1" }
                ]
              }
            }
          }
        }
      },
      {
        "name": "29236",
        "op": "Const",
        "attr": {
          "dtype": { "type": "DT_FLOAT" },
          "value": {
            "tensor": {
              "dtype": "DT_FLOAT",
              "tensorShape": {
                "dim": [
                  { "size": "3" },
                  { "size": "3" },
                  { "size": "1" },
                  { "size": "1" }
                ]
              }
            }
          }
        }
      },
      {
        "name": "29238",
        "op": "Const",
        "attr": {
          "dtype": { "type": "DT_FLOAT" },
          "value": {
            "tensor": {
              "dtype": "DT_FLOAT",
              "tensorShape": {
                "dim": [
                  { "size": "3" },
                  { "size": "3" },
                  { "size": "1" },
                  { "size": "1" }
                ]
              }
            }
          }
        }
      },
      {
        "name": "29240",
        "op": "Const",
        "attr": {
          "dtype": { "type": "DT_FLOAT" },
          "value": {
            "tensor": {
              "dtype": "DT_FLOAT",
              "tensorShape": {
                "dim": [
                  { "size": "3" },
                  { "size": "3" },
                  { "size": "1" },
                  { "size": "1" }
                ]
              }
            }
          }
        }
      },
      {
        "name": "29242",
        "op": "Const",
        "attr": {
          "dtype": { "type": "DT_FLOAT" },
          "value": {
            "tensor": {
              "dtype": "DT_FLOAT",
              "tensorShape": {
                "dim": [
                  { "size": "3" },
                  { "size": "3" },
                  { "size": "1" },
                  { "size": "1" }
                ]
              }
            }
          }
        }
      },
      {
        "name": "29244",
        "op": "Const",
        "attr": {
          "value": {
            "tensor": {
              "dtype": "DT_FLOAT",
              "tensorShape": {
                "dim": [
                  { "size": "3" },
                  { "size": "3" },
                  { "size": "1" },
                  { "size": "1" }
                ]
              }
            }
          },
          "dtype": { "type": "DT_FLOAT" }
        }
      },
      {
        "name": "29246",
        "op": "Const",
        "attr": {
          "dtype": { "type": "DT_FLOAT" },
          "value": {
            "tensor": {
              "dtype": "DT_FLOAT",
              "tensorShape": {
                "dim": [
                  { "size": "3" },
                  { "size": "3" },
                  { "size": "1" },
                  { "size": "1" }
                ]
              }
            }
          }
        }
      },
      {
        "name": "29248",
        "op": "Const",
        "attr": {
          "dtype": { "type": "DT_FLOAT" },
          "value": {
            "tensor": {
              "dtype": "DT_FLOAT",
              "tensorShape": {
                "dim": [
                  { "size": "3" },
                  { "size": "3" },
                  { "size": "1" },
                  { "size": "1" }
                ]
              }
            }
          }
        }
      },
      {
        "name": "29250",
        "op": "Const",
        "attr": {
          "value": {
            "tensor": {
              "dtype": "DT_FLOAT",
              "tensorShape": {
                "dim": [
                  { "size": "3" },
                  { "size": "3" },
                  { "size": "1" },
                  { "size": "1" }
                ]
              }
            }
          },
          "dtype": { "type": "DT_FLOAT" }
        }
      },
      {
        "name": "29252",
        "op": "Const",
        "attr": {
          "value": {
            "tensor": {
              "dtype": "DT_FLOAT",
              "tensorShape": {
                "dim": [
                  { "size": "3" },
                  { "size": "3" },
                  { "size": "1" },
                  { "size": "1" }
                ]
              }
            }
          },
          "dtype": { "type": "DT_FLOAT" }
        }
      },
      {
        "name": "29254",
        "op": "Const",
        "attr": {
          "value": {
            "tensor": {
              "dtype": "DT_FLOAT",
              "tensorShape": {
                "dim": [
                  { "size": "3" },
                  { "size": "3" },
                  { "size": "1" },
                  { "size": "1" }
                ]
              }
            }
          },
          "dtype": { "type": "DT_FLOAT" }
        }
      },
      {
        "name": "29256",
        "op": "Const",
        "attr": {
          "value": {
            "tensor": {
              "dtype": "DT_FLOAT",
              "tensorShape": {
                "dim": [
                  { "size": "3" },
                  { "size": "3" },
                  { "size": "1" },
                  { "size": "1" }
                ]
              }
            }
          },
          "dtype": { "type": "DT_FLOAT" }
        }
      },
      {
        "name": "29258",
        "op": "Const",
        "attr": {
          "value": {
            "tensor": {
              "dtype": "DT_FLOAT",
              "tensorShape": {
                "dim": [
                  { "size": "3" },
                  { "size": "3" },
                  { "size": "1" },
                  { "size": "1" }
                ]
              }
            }
          },
          "dtype": { "type": "DT_FLOAT" }
        }
      },
      {
        "name": "29260",
        "op": "Const",
        "attr": {
          "value": {
            "tensor": {
              "dtype": "DT_FLOAT",
              "tensorShape": {
                "dim": [
                  { "size": "3" },
                  { "size": "3" },
                  { "size": "1" },
                  { "size": "1" }
                ]
              }
            }
          },
          "dtype": { "type": "DT_FLOAT" }
        }
      },
      {
        "name": "29262",
        "op": "Const",
        "attr": {
          "value": {
            "tensor": {
              "dtype": "DT_FLOAT",
              "tensorShape": {
                "dim": [
                  { "size": "3" },
                  { "size": "3" },
                  { "size": "1" },
                  { "size": "1" }
                ]
              }
            }
          },
          "dtype": { "type": "DT_FLOAT" }
        }
      },
      {
        "name": "29264",
        "op": "Const",
        "attr": {
          "value": {
            "tensor": {
              "dtype": "DT_FLOAT",
              "tensorShape": {
                "dim": [
                  { "size": "3" },
                  { "size": "3" },
                  { "size": "1" },
                  { "size": "1" }
                ]
              }
            }
          },
          "dtype": { "type": "DT_FLOAT" }
        }
      },
      {
        "name": "29266",
        "op": "Const",
        "attr": {
          "dtype": { "type": "DT_FLOAT" },
          "value": {
            "tensor": {
              "dtype": "DT_FLOAT",
              "tensorShape": {
                "dim": [
                  { "size": "3" },
                  { "size": "3" },
                  { "size": "1" },
                  { "size": "1" }
                ]
              }
            }
          }
        }
      },
      {
        "name": "29268",
        "op": "Const",
        "attr": {
          "dtype": { "type": "DT_FLOAT" },
          "value": {
            "tensor": {
              "dtype": "DT_FLOAT",
              "tensorShape": {
                "dim": [
                  { "size": "3" },
                  { "size": "3" },
                  { "size": "1" },
                  { "size": "1" }
                ]
              }
            }
          }
        }
      },
      {
        "name": "29270",
        "op": "Const",
        "attr": {
          "value": {
            "tensor": {
              "dtype": "DT_FLOAT",
              "tensorShape": {
                "dim": [
                  { "size": "3" },
                  { "size": "3" },
                  { "size": "1" },
                  { "size": "1" }
                ]
              }
            }
          },
          "dtype": { "type": "DT_FLOAT" }
        }
      },
      {
        "name": "29272",
        "op": "Const",
        "attr": {
          "value": {
            "tensor": {
              "dtype": "DT_FLOAT",
              "tensorShape": {
                "dim": [
                  { "size": "3" },
                  { "size": "3" },
                  { "size": "1" },
                  { "size": "1" }
                ]
              }
            }
          },
          "dtype": { "type": "DT_FLOAT" }
        }
      },
      {
        "name": "29274",
        "op": "Const",
        "attr": {
          "value": {
            "tensor": {
              "dtype": "DT_FLOAT",
              "tensorShape": {
                "dim": [
                  { "size": "3" },
                  { "size": "3" },
                  { "size": "1" },
                  { "size": "1" }
                ]
              }
            }
          },
          "dtype": { "type": "DT_FLOAT" }
        }
      },
      {
        "name": "29276",
        "op": "Const",
        "attr": {
          "dtype": { "type": "DT_FLOAT" },
          "value": {
            "tensor": {
              "dtype": "DT_FLOAT",
              "tensorShape": {
                "dim": [
                  { "size": "3" },
                  { "size": "3" },
                  { "size": "1" },
                  { "size": "1" }
                ]
              }
            }
          }
        }
      },
      {
        "name": "29278",
        "op": "Const",
        "attr": {
          "dtype": { "type": "DT_FLOAT" },
          "value": {
            "tensor": {
              "dtype": "DT_FLOAT",
              "tensorShape": {
                "dim": [
                  { "size": "3" },
                  { "size": "3" },
                  { "size": "1" },
                  { "size": "1" }
                ]
              }
            }
          }
        }
      },
      {
        "name": "29280",
        "op": "Const",
        "attr": {
          "dtype": { "type": "DT_FLOAT" },
          "value": {
            "tensor": {
              "dtype": "DT_FLOAT",
              "tensorShape": {
                "dim": [
                  { "size": "3" },
                  { "size": "3" },
                  { "size": "1" },
                  { "size": "1" }
                ]
              }
            }
          }
        }
      },
      {
        "name": "29282",
        "op": "Const",
        "attr": {
          "value": {
            "tensor": {
              "dtype": "DT_FLOAT",
              "tensorShape": {
                "dim": [
                  { "size": "3" },
                  { "size": "3" },
                  { "size": "1" },
                  { "size": "1" }
                ]
              }
            }
          },
          "dtype": { "type": "DT_FLOAT" }
        }
      },
      {
        "name": "29284",
        "op": "Const",
        "attr": {
          "dtype": { "type": "DT_FLOAT" },
          "value": {
            "tensor": {
              "dtype": "DT_FLOAT",
              "tensorShape": {
                "dim": [
                  { "size": "3" },
                  { "size": "3" },
                  { "size": "1" },
                  { "size": "1" }
                ]
              }
            }
          }
        }
      },
      {
        "name": "29286",
        "op": "Const",
        "attr": {
          "value": {
            "tensor": {
              "dtype": "DT_FLOAT",
              "tensorShape": {
                "dim": [
                  { "size": "3" },
                  { "size": "3" },
                  { "size": "1" },
                  { "size": "1" }
                ]
              }
            }
          },
          "dtype": { "type": "DT_FLOAT" }
        }
      },
      {
        "name": "29288",
        "op": "Const",
        "attr": {
          "dtype": { "type": "DT_FLOAT" },
          "value": {
            "tensor": {
              "dtype": "DT_FLOAT",
              "tensorShape": {
                "dim": [
                  { "size": "3" },
                  { "size": "3" },
                  { "size": "1" },
                  { "size": "1" }
                ]
              }
            }
          }
        }
      },
      {
        "name": "29290",
        "op": "Const",
        "attr": {
          "value": {
            "tensor": {
              "dtype": "DT_FLOAT",
              "tensorShape": {
                "dim": [
                  { "size": "3" },
                  { "size": "3" },
                  { "size": "1" },
                  { "size": "1" }
                ]
              }
            }
          },
          "dtype": { "type": "DT_FLOAT" }
        }
      },
      {
        "name": "29292",
        "op": "Const",
        "attr": {
          "dtype": { "type": "DT_FLOAT" },
          "value": {
            "tensor": {
              "dtype": "DT_FLOAT",
              "tensorShape": {
                "dim": [
                  { "size": "3" },
                  { "size": "3" },
                  { "size": "1" },
                  { "size": "1" }
                ]
              }
            }
          }
        }
      },
      {
        "name": "29294",
        "op": "Const",
        "attr": {
          "dtype": { "type": "DT_FLOAT" },
          "value": {
            "tensor": {
              "dtype": "DT_FLOAT",
              "tensorShape": {
                "dim": [
                  { "size": "3" },
                  { "size": "3" },
                  { "size": "1" },
                  { "size": "1" }
                ]
              }
            }
          }
        }
      },
      {
        "name": "29296",
        "op": "Const",
        "attr": {
          "dtype": { "type": "DT_FLOAT" },
          "value": {
            "tensor": {
              "dtype": "DT_FLOAT",
              "tensorShape": {
                "dim": [
                  { "size": "3" },
                  { "size": "3" },
                  { "size": "1" },
                  { "size": "1" }
                ]
              }
            }
          }
        }
      },
      {
        "name": "29298",
        "op": "Const",
        "attr": {
          "value": {
            "tensor": {
              "dtype": "DT_FLOAT",
              "tensorShape": {
                "dim": [
                  { "size": "3" },
                  { "size": "3" },
                  { "size": "1" },
                  { "size": "1" }
                ]
              }
            }
          },
          "dtype": { "type": "DT_FLOAT" }
        }
      },
      {
        "name": "29300",
        "op": "Const",
        "attr": {
          "value": {
            "tensor": {
              "dtype": "DT_FLOAT",
              "tensorShape": {
                "dim": [
                  { "size": "3" },
                  { "size": "3" },
                  { "size": "1" },
                  { "size": "1" }
                ]
              }
            }
          },
          "dtype": { "type": "DT_FLOAT" }
        }
      },
      {
        "name": "29302",
        "op": "Const",
        "attr": {
          "dtype": { "type": "DT_FLOAT" },
          "value": {
            "tensor": {
              "dtype": "DT_FLOAT",
              "tensorShape": {
                "dim": [
                  { "size": "3" },
                  { "size": "3" },
                  { "size": "1" },
                  { "size": "1" }
                ]
              }
            }
          }
        }
      },
      {
        "name": "29304",
        "op": "Const",
        "attr": {
          "dtype": { "type": "DT_FLOAT" },
          "value": {
            "tensor": {
              "dtype": "DT_FLOAT",
              "tensorShape": {
                "dim": [
                  { "size": "3" },
                  { "size": "3" },
                  { "size": "1" },
                  { "size": "1" }
                ]
              }
            }
          }
        }
      },
      {
        "name": "29306",
        "op": "Const",
        "attr": {
          "value": {
            "tensor": {
              "dtype": "DT_FLOAT",
              "tensorShape": {
                "dim": [
                  { "size": "3" },
                  { "size": "3" },
                  { "size": "1" },
                  { "size": "1" }
                ]
              }
            }
          },
          "dtype": { "type": "DT_FLOAT" }
        }
      },
      {
        "name": "29308",
        "op": "Const",
        "attr": {
          "dtype": { "type": "DT_FLOAT" },
          "value": {
            "tensor": {
              "dtype": "DT_FLOAT",
              "tensorShape": {
                "dim": [
                  { "size": "3" },
                  { "size": "3" },
                  { "size": "1" },
                  { "size": "1" }
                ]
              }
            }
          }
        }
      },
      {
        "name": "29310",
        "op": "Const",
        "attr": {
          "value": {
            "tensor": {
              "dtype": "DT_FLOAT",
              "tensorShape": {
                "dim": [
                  { "size": "3" },
                  { "size": "3" },
                  { "size": "1" },
                  { "size": "1" }
                ]
              }
            }
          },
          "dtype": { "type": "DT_FLOAT" }
        }
      },
      {
        "name": "29312",
        "op": "Const",
        "attr": {
          "value": {
            "tensor": {
              "dtype": "DT_FLOAT",
              "tensorShape": {
                "dim": [
                  { "size": "3" },
                  { "size": "3" },
                  { "size": "1" },
                  { "size": "1" }
                ]
              }
            }
          },
          "dtype": { "type": "DT_FLOAT" }
        }
      },
      {
        "name": "29314",
        "op": "Const",
        "attr": {
          "value": {
            "tensor": {
              "dtype": "DT_FLOAT",
              "tensorShape": {
                "dim": [
                  { "size": "3" },
                  { "size": "3" },
                  { "size": "1" },
                  { "size": "1" }
                ]
              }
            }
          },
          "dtype": { "type": "DT_FLOAT" }
        }
      },
      {
        "name": "29316",
        "op": "Const",
        "attr": {
          "dtype": { "type": "DT_FLOAT" },
          "value": {
            "tensor": {
              "dtype": "DT_FLOAT",
              "tensorShape": {
                "dim": [
                  { "size": "3" },
                  { "size": "3" },
                  { "size": "1" },
                  { "size": "1" }
                ]
              }
            }
          }
        }
      },
      {
        "name": "29318",
        "op": "Const",
        "attr": {
          "dtype": { "type": "DT_FLOAT" },
          "value": {
            "tensor": {
              "dtype": "DT_FLOAT",
              "tensorShape": {
                "dim": [
                  { "size": "3" },
                  { "size": "3" },
                  { "size": "1" },
                  { "size": "1" }
                ]
              }
            }
          }
        }
      },
      {
        "name": "29320",
        "op": "Const",
        "attr": {
          "value": {
            "tensor": {
              "dtype": "DT_FLOAT",
              "tensorShape": {
                "dim": [
                  { "size": "3" },
                  { "size": "3" },
                  { "size": "1" },
                  { "size": "1" }
                ]
              }
            }
          },
          "dtype": { "type": "DT_FLOAT" }
        }
      },
      {
        "name": "29322",
        "op": "Const",
        "attr": {
          "dtype": { "type": "DT_FLOAT" },
          "value": {
            "tensor": {
              "dtype": "DT_FLOAT",
              "tensorShape": {
                "dim": [
                  { "size": "3" },
                  { "size": "3" },
                  { "size": "1" },
                  { "size": "1" }
                ]
              }
            }
          }
        }
      },
      {
        "name": "29324",
        "op": "Const",
        "attr": {
          "value": {
            "tensor": {
              "dtype": "DT_FLOAT",
              "tensorShape": {
                "dim": [
                  { "size": "3" },
                  { "size": "3" },
                  { "size": "1" },
                  { "size": "1" }
                ]
              }
            }
          },
          "dtype": { "type": "DT_FLOAT" }
        }
      },
      {
        "name": "29326",
        "op": "Const",
        "attr": {
          "dtype": { "type": "DT_FLOAT" },
          "value": {
            "tensor": {
              "dtype": "DT_FLOAT",
              "tensorShape": {
                "dim": [
                  { "size": "3" },
                  { "size": "3" },
                  { "size": "1" },
                  { "size": "1" }
                ]
              }
            }
          }
        }
      },
      {
        "name": "29328",
        "op": "Const",
        "attr": {
          "dtype": { "type": "DT_FLOAT" },
          "value": {
            "tensor": {
              "dtype": "DT_FLOAT",
              "tensorShape": {
                "dim": [
                  { "size": "3" },
                  { "size": "3" },
                  { "size": "1" },
                  { "size": "1" }
                ]
              }
            }
          }
        }
      },
      {
        "name": "29330",
        "op": "Const",
        "attr": {
          "dtype": { "type": "DT_FLOAT" },
          "value": {
            "tensor": {
              "dtype": "DT_FLOAT",
              "tensorShape": {
                "dim": [
                  { "size": "3" },
                  { "size": "3" },
                  { "size": "1" },
                  { "size": "1" }
                ]
              }
            }
          }
        }
      },
      {
        "name": "29332",
        "op": "Const",
        "attr": {
          "dtype": { "type": "DT_FLOAT" },
          "value": {
            "tensor": {
              "dtype": "DT_FLOAT",
              "tensorShape": {
                "dim": [
                  { "size": "3" },
                  { "size": "3" },
                  { "size": "1" },
                  { "size": "1" }
                ]
              }
            }
          }
        }
      },
      {
        "name": "29334",
        "op": "Const",
        "attr": {
          "dtype": { "type": "DT_FLOAT" },
          "value": {
            "tensor": {
              "dtype": "DT_FLOAT",
              "tensorShape": {
                "dim": [
                  { "size": "3" },
                  { "size": "3" },
                  { "size": "1" },
                  { "size": "1" }
                ]
              }
            }
          }
        }
      },
      {
        "name": "29336",
        "op": "Const",
        "attr": {
          "value": {
            "tensor": {
              "dtype": "DT_FLOAT",
              "tensorShape": {
                "dim": [
                  { "size": "3" },
                  { "size": "3" },
                  { "size": "1" },
                  { "size": "1" }
                ]
              }
            }
          },
          "dtype": { "type": "DT_FLOAT" }
        }
      },
      {
        "name": "29338",
        "op": "Const",
        "attr": {
          "value": {
            "tensor": {
              "dtype": "DT_FLOAT",
              "tensorShape": {
                "dim": [
                  { "size": "3" },
                  { "size": "3" },
                  { "size": "1" },
                  { "size": "1" }
                ]
              }
            }
          },
          "dtype": { "type": "DT_FLOAT" }
        }
      },
      {
        "name": "29340",
        "op": "Const",
        "attr": {
          "value": {
            "tensor": {
              "dtype": "DT_FLOAT",
              "tensorShape": {
                "dim": [
                  { "size": "3" },
                  { "size": "3" },
                  { "size": "1" },
                  { "size": "1" }
                ]
              }
            }
          },
          "dtype": { "type": "DT_FLOAT" }
        }
      },
      {
        "name": "29342",
        "op": "Const",
        "attr": {
          "value": {
            "tensor": {
              "dtype": "DT_FLOAT",
              "tensorShape": {
                "dim": [
                  { "size": "3" },
                  { "size": "3" },
                  { "size": "1" },
                  { "size": "1" }
                ]
              }
            }
          },
          "dtype": { "type": "DT_FLOAT" }
        }
      },
      {
        "name": "29344",
        "op": "Const",
        "attr": {
          "dtype": { "type": "DT_FLOAT" },
          "value": {
            "tensor": {
              "dtype": "DT_FLOAT",
              "tensorShape": {
                "dim": [
                  { "size": "3" },
                  { "size": "3" },
                  { "size": "1" },
                  { "size": "1" }
                ]
              }
            }
          }
        }
      },
      {
        "name": "29346",
        "op": "Const",
        "attr": {
          "dtype": { "type": "DT_FLOAT" },
          "value": {
            "tensor": {
              "dtype": "DT_FLOAT",
              "tensorShape": {
                "dim": [
                  { "size": "3" },
                  { "size": "3" },
                  { "size": "1" },
                  { "size": "1" }
                ]
              }
            }
          }
        }
      },
      {
        "name": "29348",
        "op": "Const",
        "attr": {
          "dtype": { "type": "DT_FLOAT" },
          "value": {
            "tensor": {
              "dtype": "DT_FLOAT",
              "tensorShape": {
                "dim": [
                  { "size": "3" },
                  { "size": "3" },
                  { "size": "1" },
                  { "size": "1" }
                ]
              }
            }
          }
        }
      },
      {
        "name": "29350",
        "op": "Const",
        "attr": {
          "value": {
            "tensor": {
              "dtype": "DT_FLOAT",
              "tensorShape": {
                "dim": [
                  { "size": "3" },
                  { "size": "3" },
                  { "size": "1" },
                  { "size": "1" }
                ]
              }
            }
          },
          "dtype": { "type": "DT_FLOAT" }
        }
      },
      {
        "name": "29352",
        "op": "Const",
        "attr": {
          "dtype": { "type": "DT_FLOAT" },
          "value": {
            "tensor": {
              "dtype": "DT_FLOAT",
              "tensorShape": {
                "dim": [
                  { "size": "3" },
                  { "size": "3" },
                  { "size": "1" },
                  { "size": "1" }
                ]
              }
            }
          }
        }
      },
      {
        "name": "29354",
        "op": "Const",
        "attr": {
          "value": {
            "tensor": {
              "dtype": "DT_FLOAT",
              "tensorShape": {
                "dim": [
                  { "size": "3" },
                  { "size": "3" },
                  { "size": "1" },
                  { "size": "1" }
                ]
              }
            }
          },
          "dtype": { "type": "DT_FLOAT" }
        }
      },
      {
        "name": "29356",
        "op": "Const",
        "attr": {
          "value": {
            "tensor": {
              "dtype": "DT_FLOAT",
              "tensorShape": {
                "dim": [
                  { "size": "3" },
                  { "size": "3" },
                  { "size": "1" },
                  { "size": "1" }
                ]
              }
            }
          },
          "dtype": { "type": "DT_FLOAT" }
        }
      },
      {
        "name": "29358",
        "op": "Const",
        "attr": {
          "value": {
            "tensor": {
              "dtype": "DT_FLOAT",
              "tensorShape": {
                "dim": [
                  { "size": "3" },
                  { "size": "3" },
                  { "size": "1" },
                  { "size": "1" }
                ]
              }
            }
          },
          "dtype": { "type": "DT_FLOAT" }
        }
      },
      {
        "name": "29360",
        "op": "Const",
        "attr": {
          "dtype": { "type": "DT_FLOAT" },
          "value": {
            "tensor": {
              "dtype": "DT_FLOAT",
              "tensorShape": {
                "dim": [
                  { "size": "3" },
                  { "size": "3" },
                  { "size": "1" },
                  { "size": "1" }
                ]
              }
            }
          }
        }
      },
      {
        "name": "29362",
        "op": "Const",
        "attr": {
          "dtype": { "type": "DT_FLOAT" },
          "value": {
            "tensor": {
              "dtype": "DT_FLOAT",
              "tensorShape": {
                "dim": [
                  { "size": "3" },
                  { "size": "3" },
                  { "size": "1" },
                  { "size": "1" }
                ]
              }
            }
          }
        }
      },
      {
        "name": "29364",
        "op": "Const",
        "attr": {
          "value": {
            "tensor": {
              "dtype": "DT_FLOAT",
              "tensorShape": {
                "dim": [
                  { "size": "3" },
                  { "size": "3" },
                  { "size": "1" },
                  { "size": "1" }
                ]
              }
            }
          },
          "dtype": { "type": "DT_FLOAT" }
        }
      },
      {
        "name": "29366",
        "op": "Const",
        "attr": {
          "dtype": { "type": "DT_FLOAT" },
          "value": {
            "tensor": {
              "dtype": "DT_FLOAT",
              "tensorShape": {
                "dim": [
                  { "size": "3" },
                  { "size": "3" },
                  { "size": "1" },
                  { "size": "1" }
                ]
              }
            }
          }
        }
      },
      {
        "name": "29368",
        "op": "Const",
        "attr": {
          "dtype": { "type": "DT_FLOAT" },
          "value": {
            "tensor": {
              "dtype": "DT_FLOAT",
              "tensorShape": {
                "dim": [
                  { "size": "3" },
                  { "size": "3" },
                  { "size": "1" },
                  { "size": "1" }
                ]
              }
            }
          }
        }
      },
      {
        "name": "29370",
        "op": "Const",
        "attr": {
          "dtype": { "type": "DT_FLOAT" },
          "value": {
            "tensor": {
              "dtype": "DT_FLOAT",
              "tensorShape": {
                "dim": [
                  { "size": "3" },
                  { "size": "3" },
                  { "size": "1" },
                  { "size": "1" }
                ]
              }
            }
          }
        }
      },
      {
        "name": "29372",
        "op": "Const",
        "attr": {
          "value": {
            "tensor": {
              "dtype": "DT_FLOAT",
              "tensorShape": {
                "dim": [
                  { "size": "3" },
                  { "size": "3" },
                  { "size": "1" },
                  { "size": "1" }
                ]
              }
            }
          },
          "dtype": { "type": "DT_FLOAT" }
        }
      },
      {
        "name": "29374",
        "op": "Const",
        "attr": {
          "value": {
            "tensor": {
              "dtype": "DT_FLOAT",
              "tensorShape": {
                "dim": [
                  { "size": "3" },
                  { "size": "3" },
                  { "size": "1" },
                  { "size": "1" }
                ]
              }
            }
          },
          "dtype": { "type": "DT_FLOAT" }
        }
      },
      {
        "name": "29376",
        "op": "Const",
        "attr": {
          "value": {
            "tensor": {
              "dtype": "DT_FLOAT",
              "tensorShape": {
                "dim": [
                  { "size": "3" },
                  { "size": "3" },
                  { "size": "1" },
                  { "size": "1" }
                ]
              }
            }
          },
          "dtype": { "type": "DT_FLOAT" }
        }
      },
      {
        "name": "29378",
        "op": "Const",
        "attr": {
          "value": {
            "tensor": {
              "dtype": "DT_FLOAT",
              "tensorShape": {
                "dim": [
                  { "size": "3" },
                  { "size": "3" },
                  { "size": "1" },
                  { "size": "1" }
                ]
              }
            }
          },
          "dtype": { "type": "DT_FLOAT" }
        }
      },
      {
        "name": "29380",
        "op": "Const",
        "attr": {
          "value": {
            "tensor": {
              "dtype": "DT_FLOAT",
              "tensorShape": {
                "dim": [
                  { "size": "3" },
                  { "size": "3" },
                  { "size": "1" },
                  { "size": "1" }
                ]
              }
            }
          },
          "dtype": { "type": "DT_FLOAT" }
        }
      },
      {
        "name": "29382",
        "op": "Const",
        "attr": {
          "dtype": { "type": "DT_FLOAT" },
          "value": {
            "tensor": {
              "dtype": "DT_FLOAT",
              "tensorShape": {
                "dim": [
                  { "size": "3" },
                  { "size": "3" },
                  { "size": "1" },
                  { "size": "1" }
                ]
              }
            }
          }
        }
      },
      {
        "name": "29384",
        "op": "Const",
        "attr": {
          "value": {
            "tensor": {
              "dtype": "DT_FLOAT",
              "tensorShape": {
                "dim": [
                  { "size": "3" },
                  { "size": "3" },
                  { "size": "1" },
                  { "size": "1" }
                ]
              }
            }
          },
          "dtype": { "type": "DT_FLOAT" }
        }
      },
      {
        "name": "29386",
        "op": "Const",
        "attr": {
          "dtype": { "type": "DT_FLOAT" },
          "value": {
            "tensor": {
              "dtype": "DT_FLOAT",
              "tensorShape": {
                "dim": [
                  { "size": "3" },
                  { "size": "3" },
                  { "size": "1" },
                  { "size": "1" }
                ]
              }
            }
          }
        }
      },
      {
        "name": "29388",
        "op": "Const",
        "attr": {
          "value": {
            "tensor": {
              "dtype": "DT_FLOAT",
              "tensorShape": {
                "dim": [
                  { "size": "3" },
                  { "size": "3" },
                  { "size": "1" },
                  { "size": "1" }
                ]
              }
            }
          },
          "dtype": { "type": "DT_FLOAT" }
        }
      },
      {
        "name": "29390",
        "op": "Const",
        "attr": {
          "value": {
            "tensor": {
              "dtype": "DT_FLOAT",
              "tensorShape": {
                "dim": [
                  { "size": "3" },
                  { "size": "3" },
                  { "size": "1" },
                  { "size": "1" }
                ]
              }
            }
          },
          "dtype": { "type": "DT_FLOAT" }
        }
      },
      {
        "name": "29392",
        "op": "Const",
        "attr": {
          "value": {
            "tensor": {
              "dtype": "DT_FLOAT",
              "tensorShape": {
                "dim": [
                  { "size": "3" },
                  { "size": "3" },
                  { "size": "1" },
                  { "size": "1" }
                ]
              }
            }
          },
          "dtype": { "type": "DT_FLOAT" }
        }
      },
      {
        "name": "29394",
        "op": "Const",
        "attr": {
          "dtype": { "type": "DT_FLOAT" },
          "value": {
            "tensor": {
              "dtype": "DT_FLOAT",
              "tensorShape": {
                "dim": [
                  { "size": "3" },
                  { "size": "3" },
                  { "size": "1" },
                  { "size": "1" }
                ]
              }
            }
          }
        }
      },
      {
        "name": "PartitionedCall/model_37/tf.split_1/split/split_dim",
        "op": "Const",
        "attr": {
          "value": { "tensor": { "dtype": "DT_INT32", "tensorShape": {} } },
          "dtype": { "type": "DT_INT32" }
        }
      },
      {
        "name": "PartitionedCall/model_37/tf.split/split/split_dim",
        "op": "Const",
        "attr": {
          "value": { "tensor": { "dtype": "DT_INT32", "tensorShape": {} } },
          "dtype": { "type": "DT_INT32" }
        }
      },
      {
        "name": "29116",
        "op": "Const",
        "attr": {
          "dtype": { "type": "DT_INT64" },
          "value": {
            "tensor": {
              "dtype": "DT_INT64",
              "tensorShape": { "dim": [{ "size": "4" }] }
            }
          }
        }
      },
      {
        "name": "29118",
        "op": "Const",
        "attr": {
          "dtype": { "type": "DT_INT64" },
          "value": {
            "tensor": {
              "dtype": "DT_INT64",
              "tensorShape": { "dim": [{ "size": "4" }] }
            }
          }
        }
      },
      {
        "name": "PartitionedCall/model_37/tf.strided_slice_6/ones_like",
        "op": "Const",
        "attr": {
          "dtype": { "type": "DT_INT64" },
          "value": {
            "tensor": {
              "dtype": "DT_INT64",
              "tensorShape": { "dim": [{ "size": "4" }] }
            }
          }
        }
      },
      {
        "name": "29088",
        "op": "Const",
        "attr": {
          "dtype": { "type": "DT_FLOAT" },
          "value": {
            "tensor": {
              "dtype": "DT_FLOAT",
              "tensorShape": {
                "dim": [
                  { "size": "1" },
                  { "size": "1" },
                  { "size": "128" },
                  { "size": "64" }
                ]
              }
            }
          }
        }
      },
      {
        "name": "29090",
        "op": "Const",
        "attr": {
          "dtype": { "type": "DT_FLOAT" },
          "value": {
            "tensor": {
              "dtype": "DT_FLOAT",
              "tensorShape": { "dim": [{ "size": "64" }] }
            }
          }
        }
      },
      {
        "name": "29092",
        "op": "Const",
        "attr": {
          "value": {
            "tensor": {
              "dtype": "DT_FLOAT",
              "tensorShape": {
                "dim": [
                  { "size": "3" },
                  { "size": "3" },
                  { "size": "64" },
                  { "size": "64" }
                ]
              }
            }
          },
          "dtype": { "type": "DT_FLOAT" }
        }
      },
      {
        "name": "29094",
        "op": "Const",
        "attr": {
          "value": {
            "tensor": {
              "dtype": "DT_FLOAT",
              "tensorShape": { "dim": [{ "size": "64" }] }
            }
          },
          "dtype": { "type": "DT_FLOAT" }
        }
      },
      {
        "name": "29096",
        "op": "Const",
        "attr": {
          "value": {
            "tensor": {
              "dtype": "DT_FLOAT",
              "tensorShape": {
                "dim": [
                  { "size": "3" },
                  { "size": "3" },
                  { "size": "64" },
                  { "size": "64" }
                ]
              }
            }
          },
          "dtype": { "type": "DT_FLOAT" }
        }
      },
      {
        "name": "29098",
        "op": "Const",
        "attr": {
          "dtype": { "type": "DT_FLOAT" },
          "value": {
            "tensor": {
              "dtype": "DT_FLOAT",
              "tensorShape": { "dim": [{ "size": "64" }] }
            }
          }
        }
      },
      {
        "name": "29100",
        "op": "Const",
        "attr": {
          "dtype": { "type": "DT_FLOAT" },
          "value": {
            "tensor": {
              "dtype": "DT_FLOAT",
              "tensorShape": {
                "dim": [
                  { "size": "3" },
                  { "size": "3" },
                  { "size": "64" },
                  { "size": "64" }
                ]
              }
            }
          }
        }
      },
      {
        "name": "29102",
        "op": "Const",
        "attr": {
          "value": {
            "tensor": {
              "dtype": "DT_FLOAT",
              "tensorShape": { "dim": [{ "size": "64" }] }
            }
          },
          "dtype": { "type": "DT_FLOAT" }
        }
      },
      {
        "name": "29104",
        "op": "Const",
        "attr": {
          "value": {
            "tensor": {
              "dtype": "DT_FLOAT",
              "tensorShape": {
                "dim": [
                  { "size": "3" },
                  { "size": "3" },
                  { "size": "64" },
                  { "size": "64" }
                ]
              }
            }
          },
          "dtype": { "type": "DT_FLOAT" }
        }
      },
      {
        "name": "29108",
        "op": "Const",
        "attr": {
          "value": {
            "tensor": {
              "dtype": "DT_FLOAT",
              "tensorShape": { "dim": [{ "size": "64" }] }
            }
          },
          "dtype": { "type": "DT_FLOAT" }
        }
      },
      {
        "name": "29066",
        "op": "Const",
        "attr": {
          "dtype": { "type": "DT_INT64" },
          "value": {
            "tensor": {
              "dtype": "DT_INT64",
              "tensorShape": { "dim": [{ "size": "4" }] }
            }
          }
        }
      },
      {
        "name": "29068",
        "op": "Const",
        "attr": {
          "value": {
            "tensor": {
              "dtype": "DT_INT64",
              "tensorShape": { "dim": [{ "size": "4" }] }
            }
          },
          "dtype": { "type": "DT_INT64" }
        }
      },
      {
        "name": "PartitionedCall/model_37/tf.strided_slice_4/ones_like",
        "op": "Const",
        "attr": {
          "dtype": { "type": "DT_INT64" },
          "value": {
            "tensor": {
              "dtype": "DT_INT64",
              "tensorShape": { "dim": [{ "size": "4" }] }
            }
          }
        }
      },
      {
        "name": "29038",
        "op": "Const",
        "attr": {
          "dtype": { "type": "DT_FLOAT" },
          "value": {
            "tensor": {
              "dtype": "DT_FLOAT",
              "tensorShape": {
                "dim": [
                  { "size": "1" },
                  { "size": "1" },
                  { "size": "64" },
                  { "size": "32" }
                ]
              }
            }
          }
        }
      },
      {
        "name": "29040",
        "op": "Const",
        "attr": {
          "value": {
            "tensor": {
              "dtype": "DT_FLOAT",
              "tensorShape": { "dim": [{ "size": "32" }] }
            }
          },
          "dtype": { "type": "DT_FLOAT" }
        }
      },
      {
        "name": "29042",
        "op": "Const",
        "attr": {
          "dtype": { "type": "DT_FLOAT" },
          "value": {
            "tensor": {
              "dtype": "DT_FLOAT",
              "tensorShape": {
                "dim": [
                  { "size": "3" },
                  { "size": "3" },
                  { "size": "32" },
                  { "size": "32" }
                ]
              }
            }
          }
        }
      },
      {
        "name": "29044",
        "op": "Const",
        "attr": {
          "dtype": { "type": "DT_FLOAT" },
          "value": {
            "tensor": {
              "dtype": "DT_FLOAT",
              "tensorShape": { "dim": [{ "size": "32" }] }
            }
          }
        }
      },
      {
        "name": "29046",
        "op": "Const",
        "attr": {
          "value": {
            "tensor": {
              "dtype": "DT_FLOAT",
              "tensorShape": {
                "dim": [
                  { "size": "3" },
                  { "size": "3" },
                  { "size": "32" },
                  { "size": "32" }
                ]
              }
            }
          },
          "dtype": { "type": "DT_FLOAT" }
        }
      },
      {
        "name": "29048",
        "op": "Const",
        "attr": {
          "dtype": { "type": "DT_FLOAT" },
          "value": {
            "tensor": {
              "dtype": "DT_FLOAT",
              "tensorShape": { "dim": [{ "size": "32" }] }
            }
          }
        }
      },
      {
        "name": "29050",
        "op": "Const",
        "attr": {
          "dtype": { "type": "DT_FLOAT" },
          "value": {
            "tensor": {
              "dtype": "DT_FLOAT",
              "tensorShape": {
                "dim": [
                  { "size": "3" },
                  { "size": "3" },
                  { "size": "32" },
                  { "size": "32" }
                ]
              }
            }
          }
        }
      },
      {
        "name": "29052",
        "op": "Const",
        "attr": {
          "value": {
            "tensor": {
              "dtype": "DT_FLOAT",
              "tensorShape": { "dim": [{ "size": "32" }] }
            }
          },
          "dtype": { "type": "DT_FLOAT" }
        }
      },
      {
        "name": "29054",
        "op": "Const",
        "attr": {
          "dtype": { "type": "DT_FLOAT" },
          "value": {
            "tensor": {
              "dtype": "DT_FLOAT",
              "tensorShape": {
                "dim": [
                  { "size": "3" },
                  { "size": "3" },
                  { "size": "32" },
                  { "size": "32" }
                ]
              }
            }
          }
        }
      },
      {
        "name": "29058",
        "op": "Const",
        "attr": {
          "value": {
            "tensor": {
              "dtype": "DT_FLOAT",
              "tensorShape": { "dim": [{ "size": "32" }] }
            }
          },
          "dtype": { "type": "DT_FLOAT" }
        }
      },
      {
        "name": "29016",
        "op": "Const",
        "attr": {
          "dtype": { "type": "DT_INT64" },
          "value": {
            "tensor": {
              "dtype": "DT_INT64",
              "tensorShape": { "dim": [{ "size": "4" }] }
            }
          }
        }
      },
      {
        "name": "29018",
        "op": "Const",
        "attr": {
          "value": {
            "tensor": {
              "dtype": "DT_INT64",
              "tensorShape": { "dim": [{ "size": "4" }] }
            }
          },
          "dtype": { "type": "DT_INT64" }
        }
      },
      {
        "name": "PartitionedCall/model_37/tf.strided_slice_2/ones_like",
        "op": "Const",
        "attr": {
          "value": {
            "tensor": {
              "dtype": "DT_INT64",
              "tensorShape": { "dim": [{ "size": "4" }] }
            }
          },
          "dtype": { "type": "DT_INT64" }
        }
      },
      {
        "name": "28986",
        "op": "Const",
        "attr": {
          "value": {
            "tensor": {
              "dtype": "DT_INT64",
              "tensorShape": { "dim": [{ "size": "4" }] }
            }
          },
          "dtype": { "type": "DT_INT64" }
        }
      },
      {
        "name": "28988",
        "op": "Const",
        "attr": {
          "dtype": { "type": "DT_INT64" },
          "value": {
            "tensor": {
              "dtype": "DT_INT64",
              "tensorShape": { "dim": [{ "size": "4" }] }
            }
          }
        }
      },
      {
        "name": "PartitionedCall/model_37/tf.strided_slice/ones_like",
        "op": "Const",
        "attr": {
          "value": {
            "tensor": {
              "dtype": "DT_INT64",
              "tensorShape": { "dim": [{ "size": "4" }] }
            }
          },
          "dtype": { "type": "DT_INT64" }
        }
      },
      {
        "name": "28958",
        "op": "Const",
        "attr": {
          "value": {
            "tensor": {
              "dtype": "DT_INT32",
              "tensorShape": { "dim": [{ "size": "4" }, { "size": "2" }] }
            }
          },
          "dtype": { "type": "DT_INT32" }
        }
      },
      {
        "name": "28960",
        "op": "Const",
        "attr": {
          "value": {
            "tensor": {
              "dtype": "DT_FLOAT",
              "tensorShape": {
                "dim": [
                  { "size": "3" },
                  { "size": "3" },
                  { "size": "3" },
                  { "size": "16" }
                ]
              }
            }
          },
          "dtype": { "type": "DT_FLOAT" }
        }
      },
      {
        "name": "28962",
        "op": "Const",
        "attr": {
          "value": {
            "tensor": {
              "dtype": "DT_FLOAT",
              "tensorShape": { "dim": [{ "size": "16" }] }
            }
          },
          "dtype": { "type": "DT_FLOAT" }
        }
      },
      {
        "name": "28964",
        "op": "Const",
        "attr": {
          "value": {
            "tensor": {
              "dtype": "DT_INT32",
              "tensorShape": { "dim": [{ "size": "4" }, { "size": "2" }] }
            }
          },
          "dtype": { "type": "DT_INT32" }
        }
      },
      {
        "name": "28966",
        "op": "Const",
        "attr": {
          "dtype": { "type": "DT_FLOAT" },
          "value": {
            "tensor": {
              "dtype": "DT_FLOAT",
              "tensorShape": {
                "dim": [
                  { "size": "3" },
                  { "size": "3" },
                  { "size": "16" },
                  { "size": "32" }
                ]
              }
            }
          }
        }
      },
      {
        "name": "28968",
        "op": "Const",
        "attr": {
          "value": {
            "tensor": {
              "dtype": "DT_FLOAT",
              "tensorShape": { "dim": [{ "size": "32" }] }
            }
          },
          "dtype": { "type": "DT_FLOAT" }
        }
      },
      {
        "name": "28970",
        "op": "Const",
        "attr": {
          "dtype": { "type": "DT_FLOAT" },
          "value": {
            "tensor": {
              "dtype": "DT_FLOAT",
              "tensorShape": {
                "dim": [
                  { "size": "1" },
                  { "size": "1" },
                  { "size": "32" },
                  { "size": "32" }
                ]
              }
            }
          }
        }
      },
      {
        "name": "28972",
        "op": "Const",
        "attr": {
          "value": {
            "tensor": {
              "dtype": "DT_FLOAT",
              "tensorShape": { "dim": [{ "size": "32" }] }
            }
          },
          "dtype": { "type": "DT_FLOAT" }
        }
      },
      {
        "name": "28974",
        "op": "Const",
        "attr": {
          "dtype": { "type": "DT_INT64" },
          "value": {
            "tensor": {
              "dtype": "DT_INT64",
              "tensorShape": { "dim": [{ "size": "4" }] }
            }
          }
        }
      },
      {
        "name": "28976",
        "op": "Const",
        "attr": {
          "dtype": { "type": "DT_INT64" },
          "value": {
            "tensor": {
              "dtype": "DT_INT64",
              "tensorShape": { "dim": [{ "size": "4" }] }
            }
          }
        }
      },
      {
        "name": "PartitionedCall/model_37/tf.strided_slice_1/ones_like",
        "op": "Const",
        "attr": {
          "value": {
            "tensor": {
              "dtype": "DT_INT64",
              "tensorShape": { "dim": [{ "size": "4" }] }
            }
          },
          "dtype": { "type": "DT_INT64" }
        }
      },
      {
        "name": "28978",
        "op": "Const",
        "attr": {
          "value": {
            "tensor": {
              "dtype": "DT_FLOAT",
              "tensorShape": {
                "dim": [
                  { "size": "3" },
                  { "size": "3" },
                  { "size": "16" },
                  { "size": "8" }
                ]
              }
            }
          },
          "dtype": { "type": "DT_FLOAT" }
        }
      },
      {
        "name": "28980",
        "op": "Const",
        "attr": {
          "value": {
            "tensor": {
              "dtype": "DT_FLOAT",
              "tensorShape": { "dim": [{ "size": "8" }] }
            }
          },
          "dtype": { "type": "DT_FLOAT" }
        }
      },
      {
        "name": "28982",
        "op": "Const",
        "attr": {
          "value": {
            "tensor": {
              "dtype": "DT_FLOAT",
              "tensorShape": {
                "dim": [
                  { "size": "3" },
                  { "size": "3" },
                  { "size": "8" },
                  { "size": "16" }
                ]
              }
            }
          },
          "dtype": { "type": "DT_FLOAT" }
        }
      },
      {
        "name": "28984",
        "op": "Const",
        "attr": {
          "value": {
            "tensor": {
              "dtype": "DT_FLOAT",
              "tensorShape": { "dim": [{ "size": "16" }] }
            }
          },
          "dtype": { "type": "DT_FLOAT" }
        }
      },
      {
        "name": "PartitionedCall/model_37/tf.concat/concat/axis",
        "op": "Const",
        "attr": {
          "dtype": { "type": "DT_INT32" },
          "value": { "tensor": { "dtype": "DT_INT32", "tensorShape": {} } }
        }
      },
      {
        "name": "28990",
        "op": "Const",
        "attr": {
          "dtype": { "type": "DT_FLOAT" },
          "value": {
            "tensor": {
              "dtype": "DT_FLOAT",
              "tensorShape": {
                "dim": [
                  { "size": "1" },
                  { "size": "1" },
                  { "size": "48" },
                  { "size": "64" }
                ]
              }
            }
          }
        }
      },
      {
        "name": "28992",
        "op": "Const",
        "attr": {
          "value": {
            "tensor": {
              "dtype": "DT_FLOAT",
              "tensorShape": { "dim": [{ "size": "64" }] }
            }
          },
          "dtype": { "type": "DT_FLOAT" }
        }
      },
      {
        "name": "28994",
        "op": "Const",
        "attr": {
          "value": {
            "tensor": {
              "dtype": "DT_INT32",
              "tensorShape": { "dim": [{ "size": "4" }, { "size": "2" }] }
            }
          },
          "dtype": { "type": "DT_INT32" }
        }
      },
      {
        "name": "28996",
        "op": "Const",
        "attr": {
          "value": {
            "tensor": {
              "dtype": "DT_FLOAT",
              "tensorShape": {
                "dim": [
                  { "size": "3" },
                  { "size": "3" },
                  { "size": "64" },
                  { "size": "64" }
                ]
              }
            }
          },
          "dtype": { "type": "DT_FLOAT" }
        }
      },
      {
        "name": "28998",
        "op": "Const",
        "attr": {
          "value": {
            "tensor": {
              "dtype": "DT_FLOAT",
              "tensorShape": { "dim": [{ "size": "64" }] }
            }
          },
          "dtype": { "type": "DT_FLOAT" }
        }
      },
      {
        "name": "29000",
        "op": "Const",
        "attr": {
          "dtype": { "type": "DT_FLOAT" },
          "value": {
            "tensor": {
              "dtype": "DT_FLOAT",
              "tensorShape": {
                "dim": [
                  { "size": "1" },
                  { "size": "1" },
                  { "size": "64" },
                  { "size": "64" }
                ]
              }
            }
          }
        }
      },
      {
        "name": "29002",
        "op": "Const",
        "attr": {
          "dtype": { "type": "DT_FLOAT" },
          "value": {
            "tensor": {
              "dtype": "DT_FLOAT",
              "tensorShape": { "dim": [{ "size": "64" }] }
            }
          }
        }
      },
      {
        "name": "29004",
        "op": "Const",
        "attr": {
          "dtype": { "type": "DT_INT64" },
          "value": {
            "tensor": {
              "dtype": "DT_INT64",
              "tensorShape": { "dim": [{ "size": "4" }] }
            }
          }
        }
      },
      {
        "name": "29006",
        "op": "Const",
        "attr": {
          "value": {
            "tensor": {
              "dtype": "DT_INT64",
              "tensorShape": { "dim": [{ "size": "4" }] }
            }
          },
          "dtype": { "type": "DT_INT64" }
        }
      },
      {
        "name": "PartitionedCall/model_37/tf.strided_slice_3/ones_like",
        "op": "Const",
        "attr": {
          "dtype": { "type": "DT_INT64" },
          "value": {
            "tensor": {
              "dtype": "DT_INT64",
              "tensorShape": { "dim": [{ "size": "4" }] }
            }
          }
        }
      },
      {
        "name": "29008",
        "op": "Const",
        "attr": {
          "value": {
            "tensor": {
              "dtype": "DT_FLOAT",
              "tensorShape": {
                "dim": [
                  { "size": "3" },
                  { "size": "3" },
                  { "size": "32" },
                  { "size": "16" }
                ]
              }
            }
          },
          "dtype": { "type": "DT_FLOAT" }
        }
      },
      {
        "name": "29010",
        "op": "Const",
        "attr": {
          "value": {
            "tensor": {
              "dtype": "DT_FLOAT",
              "tensorShape": { "dim": [{ "size": "16" }] }
            }
          },
          "dtype": { "type": "DT_FLOAT" }
        }
      },
      {
        "name": "29012",
        "op": "Const",
        "attr": {
          "dtype": { "type": "DT_FLOAT" },
          "value": {
            "tensor": {
              "dtype": "DT_FLOAT",
              "tensorShape": {
                "dim": [
                  { "size": "3" },
                  { "size": "3" },
                  { "size": "16" },
                  { "size": "32" }
                ]
              }
            }
          }
        }
      },
      {
        "name": "29014",
        "op": "Const",
        "attr": {
          "value": {
            "tensor": {
              "dtype": "DT_FLOAT",
              "tensorShape": { "dim": [{ "size": "32" }] }
            }
          },
          "dtype": { "type": "DT_FLOAT" }
        }
      },
      {
        "name": "PartitionedCall/model_37/tf.concat_1/concat/axis",
        "op": "Const",
        "attr": {
          "dtype": { "type": "DT_INT32" },
          "value": { "tensor": { "dtype": "DT_INT32", "tensorShape": {} } }
        }
      },
      {
        "name": "29020",
        "op": "Const",
        "attr": {
          "dtype": { "type": "DT_FLOAT" },
          "value": {
            "tensor": {
              "dtype": "DT_FLOAT",
              "tensorShape": {
                "dim": [
                  { "size": "1" },
                  { "size": "1" },
                  { "size": "96" },
                  { "size": "128" }
                ]
              }
            }
          }
        }
      },
      {
        "name": "29022",
        "op": "Const",
        "attr": {
          "dtype": { "type": "DT_FLOAT" },
          "value": {
            "tensor": {
              "dtype": "DT_FLOAT",
              "tensorShape": { "dim": [{ "size": "128" }] }
            }
          }
        }
      },
      {
        "name": "29024",
        "op": "Const",
        "attr": {
          "dtype": { "type": "DT_INT32" },
          "value": {
            "tensor": {
              "dtype": "DT_INT32",
              "tensorShape": { "dim": [{ "size": "4" }, { "size": "2" }] }
            }
          }
        }
      },
      {
        "name": "29026",
        "op": "Const",
        "attr": {
          "dtype": { "type": "DT_FLOAT" },
          "value": {
            "tensor": {
              "dtype": "DT_FLOAT",
              "tensorShape": {
                "dim": [
                  { "size": "3" },
                  { "size": "3" },
                  { "size": "128" },
                  { "size": "128" }
                ]
              }
            }
          }
        }
      },
      {
        "name": "29028",
        "op": "Const",
        "attr": {
          "value": {
            "tensor": {
              "dtype": "DT_FLOAT",
              "tensorShape": { "dim": [{ "size": "128" }] }
            }
          },
          "dtype": { "type": "DT_FLOAT" }
        }
      },
      {
        "name": "29030",
        "op": "Const",
        "attr": {
          "value": {
            "tensor": {
              "dtype": "DT_FLOAT",
              "tensorShape": {
                "dim": [
                  { "size": "1" },
                  { "size": "1" },
                  { "size": "128" },
                  { "size": "128" }
                ]
              }
            }
          },
          "dtype": { "type": "DT_FLOAT" }
        }
      },
      {
        "name": "29032",
        "op": "Const",
        "attr": {
          "value": {
            "tensor": {
              "dtype": "DT_FLOAT",
              "tensorShape": { "dim": [{ "size": "128" }] }
            }
          },
          "dtype": { "type": "DT_FLOAT" }
        }
      },
      {
        "name": "29034",
        "op": "Const",
        "attr": {
          "dtype": { "type": "DT_INT64" },
          "value": {
            "tensor": {
              "dtype": "DT_INT64",
              "tensorShape": { "dim": [{ "size": "4" }] }
            }
          }
        }
      },
      {
        "name": "29036",
        "op": "Const",
        "attr": {
          "value": {
            "tensor": {
              "dtype": "DT_INT64",
              "tensorShape": { "dim": [{ "size": "4" }] }
            }
          },
          "dtype": { "type": "DT_INT64" }
        }
      },
      {
        "name": "PartitionedCall/model_37/tf.strided_slice_5/ones_like",
        "op": "Const",
        "attr": {
          "value": {
            "tensor": {
              "dtype": "DT_INT64",
              "tensorShape": { "dim": [{ "size": "4" }] }
            }
          },
          "dtype": { "type": "DT_INT64" }
        }
      },
      {
        "name": "29056",
        "op": "Const",
        "attr": {
          "value": {
            "tensor": {
              "dtype": "DT_FLOAT",
              "tensorShape": {
                "dim": [
                  { "size": "1" },
                  { "size": "1" },
                  { "size": "64" },
                  { "size": "32" }
                ]
              }
            }
          },
          "dtype": { "type": "DT_FLOAT" }
        }
      },
      {
        "name": "29060",
        "op": "Const",
        "attr": {
          "dtype": { "type": "DT_FLOAT" },
          "value": {
            "tensor": {
              "dtype": "DT_FLOAT",
              "tensorShape": { "dim": [{ "size": "32" }] }
            }
          }
        }
      },
      {
        "name": "PartitionedCall/model_37/tf.concat_2/concat/axis",
        "op": "Const",
        "attr": {
          "dtype": { "type": "DT_INT32" },
          "value": { "tensor": { "dtype": "DT_INT32", "tensorShape": {} } }
        }
      },
      {
        "name": "29062",
        "op": "Const",
        "attr": {
          "dtype": { "type": "DT_FLOAT" },
          "value": {
            "tensor": {
              "dtype": "DT_FLOAT",
              "tensorShape": {
                "dim": [
                  { "size": "1" },
                  { "size": "1" },
                  { "size": "64" },
                  { "size": "64" }
                ]
              }
            }
          }
        }
      },
      {
        "name": "29064",
        "op": "Const",
        "attr": {
          "dtype": { "type": "DT_FLOAT" },
          "value": {
            "tensor": {
              "dtype": "DT_FLOAT",
              "tensorShape": { "dim": [{ "size": "64" }] }
            }
          }
        }
      },
      {
        "name": "PartitionedCall/model_37/tf.concat_3/concat/axis",
        "op": "Const",
        "attr": {
          "dtype": { "type": "DT_INT32" },
          "value": { "tensor": { "dtype": "DT_INT32", "tensorShape": {} } }
        }
      },
      {
        "name": "29070",
        "op": "Const",
        "attr": {
          "value": {
            "tensor": {
              "dtype": "DT_FLOAT",
              "tensorShape": {
                "dim": [
                  { "size": "1" },
                  { "size": "1" },
                  { "size": "192" },
                  { "size": "128" }
                ]
              }
            }
          },
          "dtype": { "type": "DT_FLOAT" }
        }
      },
      {
        "name": "29072",
        "op": "Const",
        "attr": {
          "value": {
            "tensor": {
              "dtype": "DT_FLOAT",
              "tensorShape": { "dim": [{ "size": "128" }] }
            }
          },
          "dtype": { "type": "DT_FLOAT" }
        }
      },
      {
        "name": "29074",
        "op": "Const",
        "attr": {
          "dtype": { "type": "DT_INT32" },
          "value": {
            "tensor": {
              "dtype": "DT_INT32",
              "tensorShape": { "dim": [{ "size": "4" }, { "size": "2" }] }
            }
          }
        }
      },
      {
        "name": "29076",
        "op": "Const",
        "attr": {
          "value": {
            "tensor": {
              "dtype": "DT_FLOAT",
              "tensorShape": {
                "dim": [
                  { "size": "3" },
                  { "size": "3" },
                  { "size": "128" },
                  { "size": "256" }
                ]
              }
            }
          },
          "dtype": { "type": "DT_FLOAT" }
        }
      },
      {
        "name": "29078",
        "op": "Const",
        "attr": {
          "value": {
            "tensor": {
              "dtype": "DT_FLOAT",
              "tensorShape": { "dim": [{ "size": "256" }] }
            }
          },
          "dtype": { "type": "DT_FLOAT" }
        }
      },
      {
        "name": "29080",
        "op": "Const",
        "attr": {
          "value": {
            "tensor": {
              "dtype": "DT_FLOAT",
              "tensorShape": {
                "dim": [
                  { "size": "1" },
                  { "size": "1" },
                  { "size": "256" },
                  { "size": "256" }
                ]
              }
            }
          },
          "dtype": { "type": "DT_FLOAT" }
        }
      },
      {
        "name": "29082",
        "op": "Const",
        "attr": {
          "value": {
            "tensor": {
              "dtype": "DT_FLOAT",
              "tensorShape": { "dim": [{ "size": "256" }] }
            }
          },
          "dtype": { "type": "DT_FLOAT" }
        }
      },
      {
        "name": "29084",
        "op": "Const",
        "attr": {
          "value": {
            "tensor": {
              "dtype": "DT_INT64",
              "tensorShape": { "dim": [{ "size": "4" }] }
            }
          },
          "dtype": { "type": "DT_INT64" }
        }
      },
      {
        "name": "29086",
        "op": "Const",
        "attr": {
          "dtype": { "type": "DT_INT64" },
          "value": {
            "tensor": {
              "dtype": "DT_INT64",
              "tensorShape": { "dim": [{ "size": "4" }] }
            }
          }
        }
      },
      {
        "name": "PartitionedCall/model_37/tf.strided_slice_7/ones_like",
        "op": "Const",
        "attr": {
          "dtype": { "type": "DT_INT64" },
          "value": {
            "tensor": {
              "dtype": "DT_INT64",
              "tensorShape": { "dim": [{ "size": "4" }] }
            }
          }
        }
      },
      {
        "name": "29106",
        "op": "Const",
        "attr": {
          "value": {
            "tensor": {
              "dtype": "DT_FLOAT",
              "tensorShape": {
                "dim": [
                  { "size": "1" },
                  { "size": "1" },
                  { "size": "128" },
                  { "size": "64" }
                ]
              }
            }
          },
          "dtype": { "type": "DT_FLOAT" }
        }
      },
      {
        "name": "29110",
        "op": "Const",
        "attr": {
          "dtype": { "type": "DT_FLOAT" },
          "value": {
            "tensor": {
              "dtype": "DT_FLOAT",
              "tensorShape": { "dim": [{ "size": "64" }] }
            }
          }
        }
      },
      {
        "name": "PartitionedCall/model_37/tf.concat_4/concat/axis",
        "op": "Const",
        "attr": {
          "value": { "tensor": { "dtype": "DT_INT32", "tensorShape": {} } },
          "dtype": { "type": "DT_INT32" }
        }
      },
      {
        "name": "29112",
        "op": "Const",
        "attr": {
          "dtype": { "type": "DT_FLOAT" },
          "value": {
            "tensor": {
              "dtype": "DT_FLOAT",
              "tensorShape": {
                "dim": [
                  { "size": "1" },
                  { "size": "1" },
                  { "size": "128" },
                  { "size": "128" }
                ]
              }
            }
          }
        }
      },
      {
        "name": "29114",
        "op": "Const",
        "attr": {
          "dtype": { "type": "DT_FLOAT" },
          "value": {
            "tensor": {
              "dtype": "DT_FLOAT",
              "tensorShape": { "dim": [{ "size": "128" }] }
            }
          }
        }
      },
      {
        "name": "PartitionedCall/model_37/tf.concat_5/concat/axis",
        "op": "Const",
        "attr": {
          "value": { "tensor": { "dtype": "DT_INT32", "tensorShape": {} } },
          "dtype": { "type": "DT_INT32" }
        }
      },
      {
        "name": "29120",
        "op": "Const",
        "attr": {
          "dtype": { "type": "DT_FLOAT" },
          "value": {
            "tensor": {
              "dtype": "DT_FLOAT",
              "tensorShape": {
                "dim": [
                  { "size": "1" },
                  { "size": "1" },
                  { "size": "384" },
                  { "size": "256" }
                ]
              }
            }
          }
        }
      },
      {
        "name": "29122",
        "op": "Const",
        "attr": {
          "value": {
            "tensor": {
              "dtype": "DT_FLOAT",
              "tensorShape": { "dim": [{ "size": "256" }] }
            }
          },
          "dtype": { "type": "DT_FLOAT" }
        }
      },
      {
        "name": "29124",
        "op": "Const",
        "attr": {
          "dtype": { "type": "DT_FLOAT" },
          "value": {
            "tensor": {
              "dtype": "DT_FLOAT",
              "tensorShape": {
                "dim": [
                  { "size": "1" },
                  { "size": "1" },
                  { "size": "256" },
                  { "size": "128" }
                ]
              }
            }
          }
        }
      },
      {
        "name": "29126",
        "op": "Const",
        "attr": {
          "dtype": { "type": "DT_FLOAT" },
          "value": {
            "tensor": {
              "dtype": "DT_FLOAT",
              "tensorShape": { "dim": [{ "size": "128" }] }
            }
          }
        }
      },
      {
        "name": "PartitionedCall/model_37/tf.concat_6/concat/axis",
        "op": "Const",
        "attr": {
          "value": { "tensor": { "dtype": "DT_INT32", "tensorShape": {} } },
          "dtype": { "type": "DT_INT32" }
        }
      },
      {
        "name": "29128",
        "op": "Const",
        "attr": {
          "dtype": { "type": "DT_FLOAT" },
          "value": {
            "tensor": {
              "dtype": "DT_FLOAT",
              "tensorShape": {
                "dim": [
                  { "size": "1" },
                  { "size": "1" },
                  { "size": "512" },
                  { "size": "256" }
                ]
              }
            }
          }
        }
      },
      {
        "name": "29130",
        "op": "Const",
        "attr": {
          "dtype": { "type": "DT_FLOAT" },
          "value": {
            "tensor": {
              "dtype": "DT_FLOAT",
              "tensorShape": { "dim": [{ "size": "256" }] }
            }
          }
        }
      },
      {
        "name": "29132",
        "op": "Const",
        "attr": {
          "value": {
            "tensor": {
              "dtype": "DT_FLOAT",
              "tensorShape": {
                "dim": [
                  { "size": "1" },
                  { "size": "1" },
                  { "size": "256" },
                  { "size": "256" }
                ]
              }
            }
          },
          "dtype": { "type": "DT_FLOAT" }
        }
      },
      {
        "name": "29134",
        "op": "Const",
        "attr": {
          "value": {
            "tensor": {
              "dtype": "DT_FLOAT",
              "tensorShape": { "dim": [{ "size": "256" }] }
            }
          },
          "dtype": { "type": "DT_FLOAT" }
        }
      },
      {
        "name": "29136",
        "op": "Const",
        "attr": {
          "dtype": { "type": "DT_FLOAT" },
          "value": {
…
          "PartitionedCall/model_37/tf.math.sigmoid_74/Sigmoid"
        ],
        "attr": { "T": { "type": "DT_FLOAT" } }
      },
      {
        "name": "PartitionedCall/model_37/tf.compat.v1.nn.depthwise_conv2d_7/depthwise",
        "op": "FusedDepthwiseConv2dNative",
        "input": [
          "PartitionedCall/model_37/tf.math.multiply_329/Mul",
          "29572",
          "29582"
        ],
        "attr": {
          "data_format": { "s": "TkhXQw==" },
          "num_args": { "i": "1" },
          "fused_ops": { "list": { "s": ["Qmlhc0FkZA=="] } },
          "T": { "type": "DT_FLOAT" },
          "explicit_paddings": { "list": {} },
          "dilations": { "list": { "i": ["1", "1", "1", "1"] } },
          "strides": { "list": { "i": ["1", "1", "1", "1"] } },
          "padding": { "s": "U0FNRQ==" }
        }
      },
      {
        "name": "PartitionedCall/model_37/tf.math.sigmoid_75/Sigmoid",
        "op": "Sigmoid",
        "input": [
          "PartitionedCall/model_37/tf.compat.v1.nn.depthwise_conv2d_7/depthwise"
        ],
        "attr": { "T": { "type": "DT_FLOAT" } }
      },
      {
        "name": "PartitionedCall/model_37/tf.math.multiply_333/Mul",
        "op": "Mul",
        "input": [
          "PartitionedCall/model_37/tf.compat.v1.nn.depthwise_conv2d_7/depthwise",
          "PartitionedCall/model_37/tf.math.sigmoid_75/Sigmoid"
        ],
        "attr": { "T": { "type": "DT_FLOAT" } }
      },
      {
        "name": "PartitionedCall/model_37/tf.math.add_119/Add",
        "op": "_FusedConv2D",
        "input": [
          "PartitionedCall/model_37/tf.math.multiply_333/Mul",
          "29596",
          "29606"
        ],
        "device": "/device:CPU:0",
        "attr": {
          "num_host_args": { "i": "0" },
          "strides": { "list": { "i": ["1", "1", "1", "1"] } },
          "num_args": { "i": "1" },
          "T": { "type": "DT_FLOAT" },
          "explicit_paddings": { "list": {} },
          "padding": { "s": "U0FNRQ==" },
          "dilations": { "list": { "i": ["1", "1", "1", "1"] } },
          "epsilon": { "f": 0.0 },
          "TArgs": { "list": { "type": ["DT_FLOAT"] } },
          "filter_format": { "s": "SFdJTw==" },
          "use_cudnn_on_gpu": { "b": true },
          "fused_ops": { "list": { "s": ["Qmlhc0FkZA=="] } },
          "leakyrelu_alpha": { "f": 0.2 },
          "data_format": { "s": "TkhXQw==" }
        }
      },
      {
        "name": "PartitionedCall/model_37/tf.math.sigmoid_76/Sigmoid",
        "op": "Sigmoid",
        "input": ["PartitionedCall/model_37/tf.math.add_119/Add"],
        "attr": { "T": { "type": "DT_FLOAT" } }
      },
      {
        "name": "PartitionedCall/model_37/tf.math.multiply_337/Mul",
        "op": "Mul",
        "input": [
          "PartitionedCall/model_37/tf.math.add_119/Add",
          "PartitionedCall/model_37/tf.math.sigmoid_76/Sigmoid"
        ],
        "attr": { "T": { "type": "DT_FLOAT" } }
      },
      {
        "name": "PartitionedCall/model_37/tf.math.add_120/Add",
        "op": "_FusedConv2D",
        "input": [
          "PartitionedCall/model_37/tf.math.multiply_337/Mul",
          "29616",
          "29630"
        ],
        "device": "/device:CPU:0",
        "attr": {
          "TArgs": { "list": { "type": ["DT_FLOAT"] } },
          "dilations": { "list": { "i": ["1", "1", "1", "1"] } },
          "T": { "type": "DT_FLOAT" },
          "leakyrelu_alpha": { "f": 0.2 },
          "strides": { "list": { "i": ["1", "1", "1", "1"] } },
          "data_format": { "s": "TkhXQw==" },
          "filter_format": { "s": "SFdJTw==" },
          "epsilon": { "f": 0.0 },
          "padding": { "s": "U0FNRQ==" },
          "num_host_args": { "i": "0" },
          "explicit_paddings": { "list": {} },
          "use_cudnn_on_gpu": { "b": true },
          "num_args": { "i": "1" },
          "fused_ops": { "list": { "s": ["Qmlhc0FkZA=="] } }
        }
      },
      {
        "name": "PartitionedCall/model_37/tf.concat_22/concat",
        "op": "ConcatV2",
        "input": [
          "PartitionedCall/model_37/tf.math.add_117/Add",
          "PartitionedCall/model_37/tf.math.add_120/Add",
          "PartitionedCall/model_37/tf.concat_22/concat/axis"
        ],
        "attr": {
          "T": { "type": "DT_FLOAT" },
          "N": { "i": "2" },
          "Tidx": { "type": "DT_INT32" }
        }
      },
      {
        "name": "PartitionedCall/model_37/tf.compat.v1.transpose_39/transpose",
        "op": "Transpose",
        "input": [
          "PartitionedCall/model_37/tf.concat_22/concat",
          "PartitionedCall/model_37/tf.compat.v1.transpose_39/transpose/perm"
        ],
        "attr": { "T": { "type": "DT_FLOAT" }, "Tperm": { "type": "DT_INT32" } }
      },
      {
        "name": "PartitionedCall/model_37/tf.reshape_17/Reshape",
        "op": "Reshape",
        "input": [
          "PartitionedCall/model_37/tf.compat.v1.transpose_39/transpose",
          "PartitionedCall/model_37/tf.reshape_17/Reshape/shape"
        ],
        "attr": {
          "Tshape": { "type": "DT_INT32" },
          "T": { "type": "DT_FLOAT" }
        }
      },
      {
        "name": "PartitionedCall/model_37/tf.concat_23/concat",
        "op": "ConcatV2",
        "input": [
          "PartitionedCall/model_37/tf.reshape_11/Reshape",
          "PartitionedCall/model_37/tf.reshape_14/Reshape",
          "PartitionedCall/model_37/tf.reshape_17/Reshape",
          "PartitionedCall/model_37/tf.concat_23/concat/axis"
        ],
        "attr": {
          "T": { "type": "DT_FLOAT" },
          "N": { "i": "3" },
          "Tidx": { "type": "DT_INT32" }
        }
      },
      {
        "name": "PartitionedCall/model_37/tf.strided_slice_20/StridedSlice",
        "op": "StridedSlice",
        "input": [
          "PartitionedCall/model_37/tf.concat_23/concat",
          "29660",
          "29662",
          "PartitionedCall/model_37/tf.strided_slice_20/StridedSlice/strides"
        ],
        "attr": {
          "ellipsis_mask": { "i": "0" },
          "end_mask": { "i": "5" },
          "shrink_axis_mask": { "i": "0" },
          "Index": { "type": "DT_INT64" },
          "new_axis_mask": { "i": "0" },
          "begin_mask": { "i": "5" },
          "T": { "type": "DT_FLOAT" }
        }
      },
      {
        "name": "PartitionedCall/model_37/tf.strided_slice_19/StridedSlice",
        "op": "StridedSlice",
        "input": [
          "PartitionedCall/model_37/tf.concat_23/concat",
          "29640",
          "29642",
          "PartitionedCall/model_37/tf.strided_slice_19/StridedSlice/strides"
        ],
        "attr": {
          "Index": { "type": "DT_INT64" },
          "end_mask": { "i": "5" },
          "shrink_axis_mask": { "i": "0" },
          "ellipsis_mask": { "i": "0" },
          "new_axis_mask": { "i": "0" },
          "T": { "type": "DT_FLOAT" },
          "begin_mask": { "i": "7" }
        }
      },
      {
        "name": "PartitionedCall/model_37/tf.math.sigmoid_77/Sigmoid",
        "op": "Sigmoid",
        "input": ["PartitionedCall/model_37/tf.strided_slice_20/StridedSlice"],
        "attr": { "T": { "type": "DT_FLOAT" } }
      },
      {
        "name": "PartitionedCall/model_37/tf.reshape_20/Reshape",
        "op": "Reshape",
        "input": [
          "PartitionedCall/model_37/tf.strided_slice_19/StridedSlice",
          "PartitionedCall/model_37/tf.reshape_20/Reshape/shape"
        ],
        "attr": {
          "T": { "type": "DT_FLOAT" },
          "Tshape": { "type": "DT_INT32" }
        }
      },
      {
        "name": "PartitionedCall/model_37/tf.compat.v1.transpose_46/transpose",
        "op": "Transpose",
        "input": [
          "PartitionedCall/model_37/tf.reshape_20/Reshape",
          "PartitionedCall/model_37/tf.compat.v1.transpose_46/transpose/perm"
        ],
        "attr": { "Tperm": { "type": "DT_INT32" }, "T": { "type": "DT_FLOAT" } }
      },
      {
        "name": "PartitionedCall/model_37/tf.compat.v1.transpose_47/transpose",
        "op": "Transpose",
        "input": [
          "PartitionedCall/model_37/tf.compat.v1.transpose_46/transpose",
          "PartitionedCall/model_37/tf.compat.v1.transpose_47/transpose/perm"
        ],
        "attr": { "Tperm": { "type": "DT_INT32" }, "T": { "type": "DT_FLOAT" } }
      },
      {
        "name": "PartitionedCall/model_37/tf.nn.softmax_2//model.23/dfl/Softmax",
        "op": "Softmax",
        "input": [
          "PartitionedCall/model_37/tf.compat.v1.transpose_47/transpose"
        ],
        "attr": { "T": { "type": "DT_FLOAT" } }
      },
      {
        "name": "PartitionedCall/model_37/tf.nn.convolution_212/convolution",
        "op": "Conv2D",
        "input": [
          "PartitionedCall/model_37/tf.nn.softmax_2//model.23/dfl/Softmax",
          "29644"
        ],
        "device": "/device:CPU:0",
        "attr": {
          "strides": { "list": { "i": ["1", "1", "1", "1"] } },
          "data_format": { "s": "TkhXQw==" },
          "dilations": { "list": { "i": ["1", "1", "1", "1"] } },
          "padding": { "s": "U0FNRQ==" },
          "use_cudnn_on_gpu": { "b": true },
          "T": { "type": "DT_FLOAT" },
          "explicit_paddings": { "list": {} }
        }
      },
      {
        "name": "PartitionedCall/model_37/tf.compat.v1.transpose_52/transpose",
        "op": "Transpose",
        "input": [
          "PartitionedCall/model_37/tf.nn.convolution_212/convolution",
          "PartitionedCall/model_37/tf.compat.v1.transpose_52/transpose/perm"
        ],
        "attr": { "T": { "type": "DT_FLOAT" }, "Tperm": { "type": "DT_INT32" } }
      },
      {
        "name": "PartitionedCall/model_37/tf.reshape_23/Reshape",
        "op": "Reshape",
        "input": [
          "PartitionedCall/model_37/tf.compat.v1.transpose_52/transpose",
          "PartitionedCall/model_37/tf.reshape_23/Reshape/shape"
        ],
        "attr": {
          "Tshape": { "type": "DT_INT32" },
          "T": { "type": "DT_FLOAT" }
        }
      },
      {
        "name": "PartitionedCall/model_37/tf.strided_slice_21/StridedSlice",
        "op": "StridedSlice",
        "input": [
          "PartitionedCall/model_37/tf.reshape_23/Reshape",
          "29650",
          "29652",
          "PartitionedCall/model_37/tf.strided_slice_21/ones_like"
        ],
        "attr": {
          "shrink_axis_mask": { "i": "0" },
          "ellipsis_mask": { "i": "0" },
          "new_axis_mask": { "i": "0" },
          "Index": { "type": "DT_INT64" },
          "begin_mask": { "i": "7" },
          "end_mask": { "i": "5" },
          "T": { "type": "DT_FLOAT" }
        }
      },
      {
        "name": "PartitionedCall/model_37/tf.strided_slice_22/StridedSlice",
        "op": "StridedSlice",
        "input": [
          "PartitionedCall/model_37/tf.reshape_23/Reshape",
          "29646",
          "29648",
          "PartitionedCall/model_37/tf.strided_slice_22/ones_like"
        ],
        "attr": {
          "T": { "type": "DT_FLOAT" },
          "ellipsis_mask": { "i": "0" },
          "Index": { "type": "DT_INT64" },
          "begin_mask": { "i": "5" },
          "shrink_axis_mask": { "i": "0" },
          "end_mask": { "i": "5" },
          "new_axis_mask": { "i": "0" }
        }
      },
      {
        "name": "PartitionedCall/model_37/tf.math.subtract/Sub",
        "op": "Sub",
        "input": [
          "29656",
          "PartitionedCall/model_37/tf.strided_slice_21/StridedSlice"
        ],
        "attr": { "T": { "type": "DT_FLOAT" } }
      },
      {
        "name": "PartitionedCall/model_37/tf.math.add_121/Add",
        "op": "AddV2",
        "input": [
          "29654",
          "PartitionedCall/model_37/tf.strided_slice_22/StridedSlice"
        ],
        "attr": { "T": { "type": "DT_FLOAT" } }
      },
      {
        "name": "PartitionedCall/model_37/tf.math.add_122/Add",
        "op": "AddV2",
        "input": [
          "PartitionedCall/model_37/tf.math.subtract/Sub",
          "PartitionedCall/model_37/tf.math.add_121/Add"
        ],
        "attr": { "T": { "type": "DT_FLOAT" } }
      },
      {
        "name": "PartitionedCall/model_37/tf.math.subtract_1/Sub",
        "op": "Sub",
        "input": [
          "PartitionedCall/model_37/tf.math.add_121/Add",
          "PartitionedCall/model_37/tf.math.subtract/Sub"
        ],
        "attr": { "T": { "type": "DT_FLOAT" } }
      },
      {
        "name": "PartitionedCall/model_37/tf.math.divide/truediv",
        "op": "Mul",
        "input": [
          "PartitionedCall/model_37/tf.math.add_122/Add",
          "ConstantFolding/PartitionedCall/model_37/tf.math.divide/truediv_recip"
        ],
        "attr": { "T": { "type": "DT_FLOAT" } }
      },
      {
        "name": "PartitionedCall/model_37/tf.concat_27/concat",
        "op": "ConcatV2",
        "input": [
          "PartitionedCall/model_37/tf.math.divide/truediv",
          "PartitionedCall/model_37/tf.math.subtract_1/Sub",
          "PartitionedCall/model_37/tf.concat_27/concat/axis"
        ],
        "attr": {
          "N": { "i": "2" },
          "T": { "type": "DT_FLOAT" },
          "Tidx": { "type": "DT_INT32" }
        }
      },
      {
        "name": "PartitionedCall/model_37/tf.math.multiply_350/Mul",
        "op": "Mul",
        "input": [
          "PartitionedCall/model_37/tf.concat_27/concat",
          "PartitionedCall/model_37/tf.math.multiply_350/Mul/y"
        ],
        "attr": { "T": { "type": "DT_FLOAT" } }
      },
      {
        "name": "PartitionedCall/model_37/output0/concat",
        "op": "ConcatV2",
        "input": [
          "PartitionedCall/model_37/tf.math.multiply_350/Mul",
          "PartitionedCall/model_37/tf.math.sigmoid_77/Sigmoid",
          "PartitionedCall/model_37/output0/concat/axis"
        ],
        "attr": {
          "Tidx": { "type": "DT_INT32" },
          "N": { "i": "2" },
          "T": { "type": "DT_FLOAT" }
        }
      },
      {
        "name": "Identity",
        "op": "Identity",
        "input": ["PartitionedCall/model_37/output0/concat"],
        "attr": { "T": { "type": "DT_FLOAT" } }
      }
    ],
    "library": {},
    "versions": { "producer": 1882 }
  },
  "weightsManifest": [
    {
      "paths": [
        "group1-shard1of3.bin",
        "group1-shard2of3.bin",
        "group1-shard3of3.bin"
      ],
      "weights": [
        {
          "name": "ConstantFolding/PartitionedCall/model_37/tf.math.divide/truediv_recip",
          "shape": [1, 1, 1],
          "dtype": "float32"
        },
        { "name": "29654", "shape": [1, 2, 8400], "dtype": "float32" },
        { "name": "29646", "shape": [3], "dtype": "int32" },
        { "name": "29648", "shape": [3], "dtype": "int32" },
        {
          "name": "PartitionedCall/model_37/tf.strided_slice_22/ones_like",
          "shape": [3],
          "dtype": "int32"
        },
        { "name": "29656", "shape": [1, 2, 8400], "dtype": "float32" },
        { "name": "29640", "shape": [3], "dtype": "int32" },
        { "name": "29642", "shape": [3], "dtype": "int32" },
        {
          "name": "PartitionedCall/model_37/tf.strided_slice_19/StridedSlice/strides",
          "shape": [3],
          "dtype": "int32"
        },
        {
          "name": "PartitionedCall/model_37/tf.reshape_20/Reshape/shape",
          "shape": [4],
          "dtype": "int32"
        },
        {
          "name": "PartitionedCall/model_37/tf.compat.v1.transpose_46/transpose/perm",
          "shape": [4],
          "dtype": "int32"
        },
        {
          "name": "PartitionedCall/model_37/tf.compat.v1.transpose_47/transpose/perm",
          "shape": [4],
          "dtype": "int32"
        },
        { "name": "29644", "shape": [1, 1, 16, 1], "dtype": "float32" },
        {
          "name": "PartitionedCall/model_37/tf.compat.v1.transpose_52/transpose/perm",
          "shape": [4],
          "dtype": "int32"
        },
        {
          "name": "PartitionedCall/model_37/tf.reshape_23/Reshape/shape",
          "shape": [3],
          "dtype": "int32"
        },
        { "name": "29650", "shape": [3], "dtype": "int32" },
        { "name": "29652", "shape": [3], "dtype": "int32" },
        {
          "name": "PartitionedCall/model_37/tf.strided_slice_21/ones_like",
          "shape": [3],
          "dtype": "int32"
        },
        {
          "name": "PartitionedCall/model_37/tf.concat_27/concat/axis",
          "shape": [],
          "dtype": "int32"
        },
        {
          "name": "PartitionedCall/model_37/tf.math.multiply_350/Mul/y",
          "shape": [1, 1, 8400],
          "dtype": "float32"
        },
        { "name": "29580", "shape": [3, 3, 64, 64], "dtype": "float32" },
        { "name": "29590", "shape": [64], "dtype": "float32" },
        { "name": "29604", "shape": [3, 3, 64, 64], "dtype": "float32" },
        { "name": "29614", "shape": [64], "dtype": "float32" },
        { "name": "29626", "shape": [1, 1, 64, 64], "dtype": "float32" },
        { "name": "29636", "shape": [64], "dtype": "float32" },
        { "name": "29540", "shape": [3, 3, 64, 1], "dtype": "float32" },
        { "name": "29542", "shape": [64], "dtype": "float32" },
        { "name": "29548", "shape": [1, 1, 64, 80], "dtype": "float32" },
        { "name": "29550", "shape": [80], "dtype": "float32" },
        { "name": "29564", "shape": [3, 3, 80, 1], "dtype": "float32" },
        { "name": "29570", "shape": [80], "dtype": "float32" },
        { "name": "29592", "shape": [1, 1, 80, 80], "dtype": "float32" },
        { "name": "29594", "shape": [80], "dtype": "float32" },
        { "name": "29624", "shape": [1, 1, 80, 80], "dtype": "float32" },
        { "name": "29638", "shape": [80], "dtype": "float32" },
        {
          "name": "PartitionedCall/model_37/tf.concat_16/concat/axis",
          "shape": [],
          "dtype": "int32"
        },
        {
          "name": "PartitionedCall/model_37/tf.compat.v1.transpose_29/transpose/perm",
          "shape": [4],
          "dtype": "int32"
        },
        {
          "name": "PartitionedCall/model_37/tf.reshape_11/Reshape/shape",
          "shape": [3],
          "dtype": "int32"
        },
        { "name": "29578", "shape": [3, 3, 128, 64], "dtype": "float32" },
        { "name": "29588", "shape": [64], "dtype": "float32" },
        { "name": "29602", "shape": [3, 3, 64, 64], "dtype": "float32" },
        { "name": "29612", "shape": [64], "dtype": "float32" },
        { "name": "29622", "shape": [1, 1, 64, 64], "dtype": "float32" },
        { "name": "29632", "shape": [64], "dtype": "float32" },
        { "name": "29554", "shape": [3, 3, 128, 1], "dtype": "float32" },
        { "name": "29558", "shape": [128], "dtype": "float32" },
        { "name": "29562", "shape": [1, 1, 128, 80], "dtype": "float32" },
        { "name": "29568", "shape": [80], "dtype": "float32" },
        { "name": "29576", "shape": [3, 3, 80, 1], "dtype": "float32" },
        { "name": "29586", "shape": [80], "dtype": "float32" },
        { "name": "29600", "shape": [1, 1, 80, 80], "dtype": "float32" },
        { "name": "29610", "shape": [80], "dtype": "float32" },
        { "name": "29620", "shape": [1, 1, 80, 80], "dtype": "float32" },
        { "name": "29634", "shape": [80], "dtype": "float32" },
        {
          "name": "PartitionedCall/model_37/tf.concat_19/concat/axis",
          "shape": [],
          "dtype": "int32"
        },
        {
          "name": "PartitionedCall/model_37/tf.compat.v1.transpose_34/transpose/perm",
          "shape": [4],
          "dtype": "int32"
        },
        {
          "name": "PartitionedCall/model_37/tf.reshape_14/Reshape/shape",
          "shape": [3],
          "dtype": "int32"
        },
        { "name": "29574", "shape": [3, 3, 256, 64], "dtype": "float32" },
        { "name": "29584", "shape": [64], "dtype": "float32" },
        { "name": "29598", "shape": [3, 3, 64, 64], "dtype": "float32" },
        { "name": "29608", "shape": [64], "dtype": "float32" },
        { "name": "29618", "shape": [1, 1, 64, 64], "dtype": "float32" },
        { "name": "29628", "shape": [64], "dtype": "float32" },
        { "name": "29536", "shape": [4], "dtype": "int32" },
        { "name": "29538", "shape": [4], "dtype": "int32" },
        {
          "name": "PartitionedCall/model_37/tf.strided_slice_17/ones_like",
          "shape": [4],
          "dtype": "int32"
        },
        { "name": "29508", "shape": [1, 1, 128, 64], "dtype": "float32" },
        { "name": "29510", "shape": [64], "dtype": "float32" },
        { "name": "29512", "shape": [3, 3, 64, 64], "dtype": "float32" },
        { "name": "29514", "shape": [64], "dtype": "float32" },
        { "name": "29516", "shape": [3, 3, 64, 64], "dtype": "float32" },
        { "name": "29518", "shape": [64], "dtype": "float32" },
        { "name": "29520", "shape": [3, 3, 64, 64], "dtype": "float32" },
        { "name": "29522", "shape": [64], "dtype": "float32" },
        { "name": "29524", "shape": [3, 3, 64, 64], "dtype": "float32" },
        { "name": "29528", "shape": [64], "dtype": "float32" },
        { "name": "29486", "shape": [4], "dtype": "int32" },
        { "name": "29488", "shape": [4], "dtype": "int32" },
        {
          "name": "PartitionedCall/model_37/tf.strided_slice_15/ones_like",
          "shape": [4],
          "dtype": "int32"
        },
        { "name": "29456", "shape": [4], "dtype": "int32" },
        { "name": "29458", "shape": [4], "dtype": "int32" },
        {
          "name": "PartitionedCall/model_37/tf.strided_slice_13/ones_like",
          "shape": [4],
          "dtype": "int32"
        },
        {
          "name": "PartitionedCall/model_37/tf.image.resize_1/resize/size",
          "shape": [2],
          "dtype": "int32"
        },
        {
          "name": "PartitionedCall/model_37/tf.concat_11/concat/axis",
          "shape": [],
          "dtype": "int32"
        },
        { "name": "29440", "shape": [1, 1, 256, 64], "dtype": "float32" },
        { "name": "29442", "shape": [64], "dtype": "float32" },
        { "name": "29444", "shape": [4], "dtype": "int32" },
        { "name": "29446", "shape": [4], "dtype": "int32" },
        {
          "name": "PartitionedCall/model_37/tf.strided_slice_14/ones_like",
          "shape": [4],
          "dtype": "int32"
        },
        { "name": "29448", "shape": [3, 3, 32, 16], "dtype": "float32" },
        { "name": "29450", "shape": [16], "dtype": "float32" },
        { "name": "29452", "shape": [3, 3, 16, 32], "dtype": "float32" },
        { "name": "29454", "shape": [32], "dtype": "float32" },
        {
          "name": "PartitionedCall/model_37/tf.concat_12/concat/axis",
          "shape": [],
          "dtype": "int32"
        },
        { "name": "29460", "shape": [1, 1, 96, 64], "dtype": "float32" },
        { "name": "29462", "shape": [64], "dtype": "float32" },
        { "name": "29464", "shape": [4, 2], "dtype": "int32" },
        { "name": "29466", "shape": [3, 3, 64, 64], "dtype": "float32" },
        { "name": "29468", "shape": [64], "dtype": "float32" },
        { "name": "29432", "shape": [4], "dtype": "int32" },
        { "name": "29434", "shape": [4], "dtype": "int32" },
        {
          "name": "PartitionedCall/model_37/tf.strided_slice_11/ones_like",
          "shape": [4],
          "dtype": "int32"
        },
        {
          "name": "PartitionedCall/model_37/tf.image.resize/resize/size",
          "shape": [2],
          "dtype": "int32"
        },
        {
          "name": "PartitionedCall/model_37/tf.concat_9/concat/axis",
          "shape": [],
          "dtype": "int32"
        },
        { "name": "29416", "shape": [1, 1, 384, 128], "dtype": "float32" },
        { "name": "29418", "shape": [128], "dtype": "float32" },
        { "name": "29420", "shape": [4], "dtype": "int32" },
        { "name": "29422", "shape": [4], "dtype": "int32" },
        {
          "name": "PartitionedCall/model_37/tf.strided_slice_12/ones_like",
          "shape": [4],
          "dtype": "int32"
        },
        { "name": "29424", "shape": [3, 3, 64, 32], "dtype": "float32" },
        { "name": "29426", "shape": [32], "dtype": "float32" },
        { "name": "29428", "shape": [3, 3, 32, 64], "dtype": "float32" },
        { "name": "29430", "shape": [64], "dtype": "float32" },
        {
          "name": "PartitionedCall/model_37/tf.concat_10/concat/axis",
          "shape": [],
          "dtype": "int32"
        },
        { "name": "29436", "shape": [1, 1, 192, 128], "dtype": "float32" },
        { "name": "29438", "shape": [128], "dtype": "float32" },
        {
          "name": "PartitionedCall/model_37/tf.concat_13/concat/axis",
          "shape": [],
          "dtype": "int32"
        },
        { "name": "29470", "shape": [1, 1, 192, 128], "dtype": "float32" },
        { "name": "29472", "shape": [128], "dtype": "float32" },
        { "name": "29474", "shape": [4], "dtype": "int32" },
        { "name": "29476", "shape": [4], "dtype": "int32" },
        {
          "name": "PartitionedCall/model_37/tf.strided_slice_16/ones_like",
          "shape": [4],
          "dtype": "int32"
        },
        { "name": "29478", "shape": [3, 3, 64, 32], "dtype": "float32" },
        { "name": "29480", "shape": [32], "dtype": "float32" },
        { "name": "29482", "shape": [3, 3, 32, 64], "dtype": "float32" },
        { "name": "29484", "shape": [64], "dtype": "float32" },
        {
          "name": "PartitionedCall/model_37/tf.concat_17/concat/axis",
          "shape": [],
          "dtype": "int32"
        },
        { "name": "29490", "shape": [1, 1, 192, 128], "dtype": "float32" },
        { "name": "29492", "shape": [128], "dtype": "float32" },
        { "name": "29494", "shape": [4, 2], "dtype": "int32" },
        { "name": "29496", "shape": [3, 3, 128, 128], "dtype": "float32" },
        { "name": "29498", "shape": [128], "dtype": "float32" },
        { "name": "29410", "shape": [128], "dtype": "float32" },
        { "name": "29402", "shape": [128], "dtype": "float32" },
        { "name": "29398", "shape": [128], "dtype": "float32" },
        {
          "name": "PartitionedCall/model_37/tf.strided_slice_8/StridedSlice/begin",
          "shape": [4],
          "dtype": "int32"
        },
        {
          "name": "PartitionedCall/model_37/tf.strided_slice_8/StridedSlice/end",
          "shape": [4],
          "dtype": "int32"
        },
        {
          "name": "PartitionedCall/model_37/tf.strided_slice_8/ones_like",
          "shape": [4],
          "dtype": "int32"
        },
        {
          "name": "PartitionedCall/model_37/tf.strided_slice_9/StridedSlice/begin",
          "shape": [4],
          "dtype": "int32"
        },
        {
          "name": "PartitionedCall/model_37/tf.strided_slice_9/StridedSlice/end",
          "shape": [4],
          "dtype": "int32"
        },
        {
          "name": "PartitionedCall/model_37/tf.strided_slice_9/ones_like",
          "shape": [4],
          "dtype": "int32"
        },
        { "name": "29140", "shape": [1, 1, 1, 1], "dtype": "float32" },
        {
          "name": "PartitionedCall/model_37/tf.reshape_8/Reshape/shape",
          "shape": [4],
          "dtype": "int32"
        },
        {
          "name": "PartitionedCall/model_37/tf.compat.v1.transpose_17/transpose/perm",
          "shape": [4],
          "dtype": "int32"
        },
        { "name": "29142", "shape": [3, 3, 1, 1], "dtype": "float32" },
        { "name": "29144", "shape": [3, 3, 1, 1], "dtype": "float32" },
        { "name": "29146", "shape": [3, 3, 1, 1], "dtype": "float32" },
        { "name": "29148", "shape": [3, 3, 1, 1], "dtype": "float32" },
        { "name": "29150", "shape": [3, 3, 1, 1], "dtype": "float32" },
        { "name": "29152", "shape": [3, 3, 1, 1], "dtype": "float32" },
        { "name": "29154", "shape": [3, 3, 1, 1], "dtype": "float32" },
        { "name": "29156", "shape": [3, 3, 1, 1], "dtype": "float32" },
        { "name": "29158", "shape": [3, 3, 1, 1], "dtype": "float32" },
        { "name": "29160", "shape": [3, 3, 1, 1], "dtype": "float32" },
        { "name": "29162", "shape": [3, 3, 1, 1], "dtype": "float32" },
        { "name": "29164", "shape": [3, 3, 1, 1], "dtype": "float32" },
        { "name": "29166", "shape": [3, 3, 1, 1], "dtype": "float32" },
        { "name": "29168", "shape": [3, 3, 1, 1], "dtype": "float32" },
        { "name": "29170", "shape": [3, 3, 1, 1], "dtype": "float32" },
        { "name": "29172", "shape": [3, 3, 1, 1], "dtype": "float32" },
        { "name": "29174", "shape": [3, 3, 1, 1], "dtype": "float32" },
        { "name": "29176", "shape": [3, 3, 1, 1], "dtype": "float32" },
        { "name": "29178", "shape": [3, 3, 1, 1], "dtype": "float32" },
        { "name": "29180", "shape": [3, 3, 1, 1], "dtype": "float32" },
        { "name": "29182", "shape": [3, 3, 1, 1], "dtype": "float32" },
        { "name": "29184", "shape": [3, 3, 1, 1], "dtype": "float32" },
        { "name": "29186", "shape": [3, 3, 1, 1], "dtype": "float32" },
        { "name": "29188", "shape": [3, 3, 1, 1], "dtype": "float32" },
        { "name": "29190", "shape": [3, 3, 1, 1], "dtype": "float32" },
        { "name": "29192", "shape": [3, 3, 1, 1], "dtype": "float32" },
        { "name": "29194", "shape": [3, 3, 1, 1], "dtype": "float32" },
        { "name": "29196", "shape": [3, 3, 1, 1], "dtype": "float32" },
        { "name": "29198", "shape": [3, 3, 1, 1], "dtype": "float32" },
        { "name": "29200", "shape": [3, 3, 1, 1], "dtype": "float32" },
        { "name": "29202", "shape": [3, 3, 1, 1], "dtype": "float32" },
        { "name": "29204", "shape": [3, 3, 1, 1], "dtype": "float32" },
        { "name": "29206", "shape": [3, 3, 1, 1], "dtype": "float32" },
        { "name": "29208", "shape": [3, 3, 1, 1], "dtype": "float32" },
        { "name": "29210", "shape": [3, 3, 1, 1], "dtype": "float32" },
        { "name": "29212", "shape": [3, 3, 1, 1], "dtype": "float32" },
        { "name": "29214", "shape": [3, 3, 1, 1], "dtype": "float32" },
        { "name": "29216", "shape": [3, 3, 1, 1], "dtype": "float32" },
        { "name": "29218", "shape": [3, 3, 1, 1], "dtype": "float32" },
        { "name": "29220", "shape": [3, 3, 1, 1], "dtype": "float32" },
        { "name": "29222", "shape": [3, 3, 1, 1], "dtype": "float32" },
        { "name": "29224", "shape": [3, 3, 1, 1], "dtype": "float32" },
        { "name": "29226", "shape": [3, 3, 1, 1], "dtype": "float32" },
        { "name": "29228", "shape": [3, 3, 1, 1], "dtype": "float32" },
        { "name": "29230", "shape": [3, 3, 1, 1], "dtype": "float32" },
        { "name": "29232", "shape": [3, 3, 1, 1], "dtype": "float32" },
        { "name": "29234", "shape": [3, 3, 1, 1], "dtype": "float32" },
        { "name": "29236", "shape": [3, 3, 1, 1], "dtype": "float32" },
        { "name": "29238", "shape": [3, 3, 1, 1], "dtype": "float32" },
        { "name": "29240", "shape": [3, 3, 1, 1], "dtype": "float32" },
        { "name": "29242", "shape": [3, 3, 1, 1], "dtype": "float32" },
        { "name": "29244", "shape": [3, 3, 1, 1], "dtype": "float32" },
        { "name": "29246", "shape": [3, 3, 1, 1], "dtype": "float32" },
        { "name": "29248", "shape": [3, 3, 1, 1], "dtype": "float32" },
        { "name": "29250", "shape": [3, 3, 1, 1], "dtype": "float32" },
        { "name": "29252", "shape": [3, 3, 1, 1], "dtype": "float32" },
        { "name": "29254", "shape": [3, 3, 1, 1], "dtype": "float32" },
        { "name": "29256", "shape": [3, 3, 1, 1], "dtype": "float32" },
        { "name": "29258", "shape": [3, 3, 1, 1], "dtype": "float32" },
        { "name": "29260", "shape": [3, 3, 1, 1], "dtype": "float32" },
        { "name": "29262", "shape": [3, 3, 1, 1], "dtype": "float32" },
        { "name": "29264", "shape": [3, 3, 1, 1], "dtype": "float32" },
        { "name": "29266", "shape": [3, 3, 1, 1], "dtype": "float32" },
        { "name": "29268", "shape": [3, 3, 1, 1], "dtype": "float32" },
        { "name": "29270", "shape": [3, 3, 1, 1], "dtype": "float32" },
        { "name": "29272", "shape": [3, 3, 1, 1], "dtype": "float32" },
        { "name": "29274", "shape": [3, 3, 1, 1], "dtype": "float32" },
        { "name": "29276", "shape": [3, 3, 1, 1], "dtype": "float32" },
        { "name": "29278", "shape": [3, 3, 1, 1], "dtype": "float32" },
        { "name": "29280", "shape": [3, 3, 1, 1], "dtype": "float32" },
        { "name": "29282", "shape": [3, 3, 1, 1], "dtype": "float32" },
        { "name": "29284", "shape": [3, 3, 1, 1], "dtype": "float32" },
        { "name": "29286", "shape": [3, 3, 1, 1], "dtype": "float32" },
        { "name": "29288", "shape": [3, 3, 1, 1], "dtype": "float32" },
        { "name": "29290", "shape": [3, 3, 1, 1], "dtype": "float32" },
        { "name": "29292", "shape": [3, 3, 1, 1], "dtype": "float32" },
        { "name": "29294", "shape": [3, 3, 1, 1], "dtype": "float32" },
        { "name": "29296", "shape": [3, 3, 1, 1], "dtype": "float32" },
        { "name": "29298", "shape": [3, 3, 1, 1], "dtype": "float32" },
        { "name": "29300", "shape": [3, 3, 1, 1], "dtype": "float32" },
        { "name": "29302", "shape": [3, 3, 1, 1], "dtype": "float32" },
        { "name": "29304", "shape": [3, 3, 1, 1], "dtype": "float32" },
        { "name": "29306", "shape": [3, 3, 1, 1], "dtype": "float32" },
        { "name": "29308", "shape": [3, 3, 1, 1], "dtype": "float32" },
        { "name": "29310", "shape": [3, 3, 1, 1], "dtype": "float32" },
        { "name": "29312", "shape": [3, 3, 1, 1], "dtype": "float32" },
        { "name": "29314", "shape": [3, 3, 1, 1], "dtype": "float32" },
        { "name": "29316", "shape": [3, 3, 1, 1], "dtype": "float32" },
        { "name": "29318", "shape": [3, 3, 1, 1], "dtype": "float32" },
        { "name": "29320", "shape": [3, 3, 1, 1], "dtype": "float32" },
        { "name": "29322", "shape": [3, 3, 1, 1], "dtype": "float32" },
        { "name": "29324", "shape": [3, 3, 1, 1], "dtype": "float32" },
        { "name": "29326", "shape": [3, 3, 1, 1], "dtype": "float32" },
        { "name": "29328", "shape": [3, 3, 1, 1], "dtype": "float32" },
        { "name": "29330", "shape": [3, 3, 1, 1], "dtype": "float32" },
        { "name": "29332", "shape": [3, 3, 1, 1], "dtype": "float32" },
        { "name": "29334", "shape": [3, 3, 1, 1], "dtype": "float32" },
        { "name": "29336", "shape": [3, 3, 1, 1], "dtype": "float32" },
        { "name": "29338", "shape": [3, 3, 1, 1], "dtype": "float32" },
        { "name": "29340", "shape": [3, 3, 1, 1], "dtype": "float32" },
        { "name": "29342", "shape": [3, 3, 1, 1], "dtype": "float32" },
        { "name": "29344", "shape": [3, 3, 1, 1], "dtype": "float32" },
        { "name": "29346", "shape": [3, 3, 1, 1], "dtype": "float32" },
        { "name": "29348", "shape": [3, 3, 1, 1], "dtype": "float32" },
        { "name": "29350", "shape": [3, 3, 1, 1], "dtype": "float32" },
        { "name": "29352", "shape": [3, 3, 1, 1], "dtype": "float32" },
        { "name": "29354", "shape": [3, 3, 1, 1], "dtype": "float32" },
        { "name": "29356", "shape": [3, 3, 1, 1], "dtype": "float32" },
        { "name": "29358", "shape": [3, 3, 1, 1], "dtype": "float32" },
        { "name": "29360", "shape": [3, 3, 1, 1], "dtype": "float32" },
        { "name": "29362", "shape": [3, 3, 1, 1], "dtype": "float32" },
        { "name": "29364", "shape": [3, 3, 1, 1], "dtype": "float32" },
        { "name": "29366", "shape": [3, 3, 1, 1], "dtype": "float32" },
        { "name": "29368", "shape": [3, 3, 1, 1], "dtype": "float32" },
        { "name": "29370", "shape": [3, 3, 1, 1], "dtype": "float32" },
        { "name": "29372", "shape": [3, 3, 1, 1], "dtype": "float32" },
        { "name": "29374", "shape": [3, 3, 1, 1], "dtype": "float32" },
        { "name": "29376", "shape": [3, 3, 1, 1], "dtype": "float32" },
        { "name": "29378", "shape": [3, 3, 1, 1], "dtype": "float32" },
        { "name": "29380", "shape": [3, 3, 1, 1], "dtype": "float32" },
        { "name": "29382", "shape": [3, 3, 1, 1], "dtype": "float32" },
        { "name": "29384", "shape": [3, 3, 1, 1], "dtype": "float32" },
        { "name": "29386", "shape": [3, 3, 1, 1], "dtype": "float32" },
        { "name": "29388", "shape": [3, 3, 1, 1], "dtype": "float32" },
        { "name": "29390", "shape": [3, 3, 1, 1], "dtype": "float32" },
        { "name": "29392", "shape": [3, 3, 1, 1], "dtype": "float32" },
        { "name": "29394", "shape": [3, 3, 1, 1], "dtype": "float32" },
        {
          "name": "PartitionedCall/model_37/tf.split_1/split/split_dim",
          "shape": [],
          "dtype": "int32"
        },
        {
          "name": "PartitionedCall/model_37/tf.split/split/split_dim",
          "shape": [],
          "dtype": "int32"
        },
        { "name": "29116", "shape": [4], "dtype": "int32" },
        { "name": "29118", "shape": [4], "dtype": "int32" },
        {
          "name": "PartitionedCall/model_37/tf.strided_slice_6/ones_like",
          "shape": [4],
          "dtype": "int32"
        },
        { "name": "29088", "shape": [1, 1, 128, 64], "dtype": "float32" },
        { "name": "29090", "shape": [64], "dtype": "float32" },
        { "name": "29092", "shape": [3, 3, 64, 64], "dtype": "float32" },
        { "name": "29094", "shape": [64], "dtype": "float32" },
        { "name": "29096", "shape": [3, 3, 64, 64], "dtype": "float32" },
        { "name": "29098", "shape": [64], "dtype": "float32" },
        { "name": "29100", "shape": [3, 3, 64, 64], "dtype": "float32" },
        { "name": "29102", "shape": [64], "dtype": "float32" },
        { "name": "29104", "shape": [3, 3, 64, 64], "dtype": "float32" },
        { "name": "29108", "shape": [64], "dtype": "float32" },
        { "name": "29066", "shape": [4], "dtype": "int32" },
        { "name": "29068", "shape": [4], "dtype": "int32" },
        {
          "name": "PartitionedCall/model_37/tf.strided_slice_4/ones_like",
          "shape": [4],
          "dtype": "int32"
        },
        { "name": "29038", "shape": [1, 1, 64, 32], "dtype": "float32" },
        { "name": "29040", "shape": [32], "dtype": "float32" },
        { "name": "29042", "shape": [3, 3, 32, 32], "dtype": "float32" },
        { "name": "29044", "shape": [32], "dtype": "float32" },
        { "name": "29046", "shape": [3, 3, 32, 32], "dtype": "float32" },
        { "name": "29048", "shape": [32], "dtype": "float32" },
        { "name": "29050", "shape": [3, 3, 32, 32], "dtype": "float32" },
        { "name": "29052", "shape": [32], "dtype": "float32" },
        { "name": "29054", "shape": [3, 3, 32, 32], "dtype": "float32" },
        { "name": "29058", "shape": [32], "dtype": "float32" },
        { "name": "29016", "shape": [4], "dtype": "int32" },
        { "name": "29018", "shape": [4], "dtype": "int32" },
        {
          "name": "PartitionedCall/model_37/tf.strided_slice_2/ones_like",
          "shape": [4],
          "dtype": "int32"
        },
        { "name": "28986", "shape": [4], "dtype": "int32" },
        { "name": "28988", "shape": [4], "dtype": "int32" },
        {
          "name": "PartitionedCall/model_37/tf.strided_slice/ones_like",
          "shape": [4],
          "dtype": "int32"
        },
        { "name": "28958", "shape": [4, 2], "dtype": "int32" },
        { "name": "28960", "shape": [3, 3, 3, 16], "dtype": "float32" },
        { "name": "28962", "shape": [16], "dtype": "float32" },
        { "name": "28964", "shape": [4, 2], "dtype": "int32" },
        { "name": "28966", "shape": [3, 3, 16, 32], "dtype": "float32" },
        { "name": "28968", "shape": [32], "dtype": "float32" },
        { "name": "28970", "shape": [1, 1, 32, 32], "dtype": "float32" },
        { "name": "28972", "shape": [32], "dtype": "float32" },
        { "name": "28974", "shape": [4], "dtype": "int32" },
        { "name": "28976", "shape": [4], "dtype": "int32" },
        {
          "name": "PartitionedCall/model_37/tf.strided_slice_1/ones_like",
          "shape": [4],
          "dtype": "int32"
        },
        { "name": "28978", "shape": [3, 3, 16, 8], "dtype": "float32" },
        { "name": "28980", "shape": [8], "dtype": "float32" },
        { "name": "28982", "shape": [3, 3, 8, 16], "dtype": "float32" },
        { "name": "28984", "shape": [16], "dtype": "float32" },
        {
          "name": "PartitionedCall/model_37/tf.concat/concat/axis",
          "shape": [],
          "dtype": "int32"
        },
        { "name": "28990", "shape": [1, 1, 48, 64], "dtype": "float32" },
        { "name": "28992", "shape": [64], "dtype": "float32" },
        { "name": "28994", "shape": [4, 2], "dtype": "int32" },
        { "name": "28996", "shape": [3, 3, 64, 64], "dtype": "float32" },
        { "name": "28998", "shape": [64], "dtype": "float32" },
        { "name": "29000", "shape": [1, 1, 64, 64], "dtype": "float32" },
        { "name": "29002", "shape": [64], "dtype": "float32" },
        { "name": "29004", "shape": [4], "dtype": "int32" },
        { "name": "29006", "shape": [4], "dtype": "int32" },
        {
          "name": "PartitionedCall/model_37/tf.strided_slice_3/ones_like",
          "shape": [4],
          "dtype": "int32"
        },
        { "name": "29008", "shape": [3, 3, 32, 16], "dtype": "float32" },
        { "name": "29010", "shape": [16], "dtype": "float32" },
        { "name": "29012", "shape": [3, 3, 16, 32], "dtype": "float32" },
        { "name": "29014", "shape": [32], "dtype": "float32" },
        {
          "name": "PartitionedCall/model_37/tf.concat_1/concat/axis",
          "shape": [],
          "dtype": "int32"
        },
        { "name": "29020", "shape": [1, 1, 96, 128], "dtype": "float32" },
        { "name": "29022", "shape": [128], "dtype": "float32" },
        { "name": "29024", "shape": [4, 2], "dtype": "int32" },
        { "name": "29026", "shape": [3, 3, 128, 128], "dtype": "float32" },
        { "name": "29028", "shape": [128], "dtype": "float32" },
        { "name": "29030", "shape": [1, 1, 128, 128], "dtype": "float32" },
        { "name": "29032", "shape": [128], "dtype": "float32" },
        { "name": "29034", "shape": [4], "dtype": "int32" },
        { "name": "29036", "shape": [4], "dtype": "int32" },
        {
          "name": "PartitionedCall/model_37/tf.strided_slice_5/ones_like",
          "shape": [4],
          "dtype": "int32"
        },
        { "name": "29056", "shape": [1, 1, 64, 32], "dtype": "float32" },
        { "name": "29060", "shape": [32], "dtype": "float32" },
        {
          "name": "PartitionedCall/model_37/tf.concat_2/concat/axis",
          "shape": [],
          "dtype": "int32"
        },
        { "name": "29062", "shape": [1, 1, 64, 64], "dtype": "float32" },
        { "name": "29064", "shape": [64], "dtype": "float32" },
        {
          "name": "PartitionedCall/model_37/tf.concat_3/concat/axis",
          "shape": [],
          "dtype": "int32"
        },
        { "name": "29070", "shape": [1, 1, 192, 128], "dtype": "float32" },
        { "name": "29072", "shape": [128], "dtype": "float32" },
        { "name": "29074", "shape": [4, 2], "dtype": "int32" },
        { "name": "29076", "shape": [3, 3, 128, 256], "dtype": "float32" },
        { "name": "29078", "shape": [256], "dtype": "float32" },
        { "name": "29080", "shape": [1, 1, 256, 256], "dtype": "float32" },
        { "name": "29082", "shape": [256], "dtype": "float32" },
        { "name": "29084", "shape": [4], "dtype": "int32" },
        { "name": "29086", "shape": [4], "dtype": "int32" },
        {
          "name": "PartitionedCall/model_37/tf.strided_slice_7/ones_like",
          "shape": [4],
          "dtype": "int32"
        },
        { "name": "29106", "shape": [1, 1, 128, 64], "dtype": "float32" },
        { "name": "29110", "shape": [64], "dtype": "float32" },
        {
          "name": "PartitionedCall/model_37/tf.concat_4/concat/axis",
          "shape": [],
          "dtype": "int32"
        },
        { "name": "29112", "shape": [1, 1, 128, 128], "dtype": "float32" },
        { "name": "29114", "shape": [128], "dtype": "float32" },
        {
          "name": "PartitionedCall/model_37/tf.concat_5/concat/axis",
          "shape": [],
          "dtype": "int32"
        },
        { "name": "29120", "shape": [1, 1, 384, 256], "dtype": "float32" },
        { "name": "29122", "shape": [256], "dtype": "float32" },
        { "name": "29124", "shape": [1, 1, 256, 128], "dtype": "float32" },
        { "name": "29126", "shape": [128], "dtype": "float32" },
        {
          "name": "PartitionedCall/model_37/tf.concat_6/concat/axis",
          "shape": [],
          "dtype": "int32"
        },
        { "name": "29128", "shape": [1, 1, 512, 256], "dtype": "float32" },
        { "name": "29130", "shape": [256], "dtype": "float32" },
        { "name": "29132", "shape": [1, 1, 256, 256], "dtype": "float32" },
        { "name": "29134", "shape": [256], "dtype": "float32" },
        { "name": "29136", "shape": [1, 1, 128, 256], "dtype": "float32" },
        { "name": "29138", "shape": [256], "dtype": "float32" },
        {
          "name": "PartitionedCall/model_37/tf.compat.v1.transpose_2/transpose/perm",
          "shape": [4],
          "dtype": "int32"
        },
        {
          "name": "PartitionedCall/model_37/tf.reshape_2/Reshape/shape",
          "shape": [4],
          "dtype": "int32"
        },
        {
          "name": "PartitionedCall/model_37/tf.strided_slice_10/StridedSlice/begin",
          "shape": [4],
          "dtype": "int32"
        },
        {
          "name": "PartitionedCall/model_37/tf.strided_slice_10/StridedSlice/end",
          "shape": [4],
          "dtype": "int32"
        },
        {
          "name": "PartitionedCall/model_37/tf.strided_slice_10/ones_like",
          "shape": [4],
          "dtype": "int32"
        },
        {
          "name": "PartitionedCall/model_37/tf.reshape_5/Reshape/shape",
          "shape": [4],
          "dtype": "int32"
        },
        {
          "name": "PartitionedCall/model_37/tf.compat.v1.transpose_10/transpose/perm",
          "shape": [4],
          "dtype": "int32"
        },
        { "name": "29396", "shape": [3, 3, 1, 1], "dtype": "float32" },
        {
          "name": "PartitionedCall/model_37/tf.concat_7/concat/axis",
          "shape": [],
          "dtype": "int32"
        },
        { "name": "29400", "shape": [1, 1, 128, 128], "dtype": "float32" },
        { "name": "29404", "shape": [1, 1, 128, 256], "dtype": "float32" },
        { "name": "29406", "shape": [256], "dtype": "float32" },
        { "name": "29408", "shape": [1, 1, 256, 128], "dtype": "float32" },
        {
          "name": "PartitionedCall/model_37/tf.concat_8/concat/axis",
          "shape": [],
          "dtype": "int32"
        },
        { "name": "29412", "shape": [1, 1, 256, 256], "dtype": "float32" },
        { "name": "29414", "shape": [256], "dtype": "float32" },
        {
          "name": "PartitionedCall/model_37/tf.concat_18/concat/axis",
          "shape": [],
          "dtype": "int32"
        },
        { "name": "29500", "shape": [1, 1, 384, 256], "dtype": "float32" },
        { "name": "29502", "shape": [256], "dtype": "float32" },
        { "name": "29504", "shape": [4], "dtype": "int32" },
        { "name": "29506", "shape": [4], "dtype": "int32" },
        {
          "name": "PartitionedCall/model_37/tf.strided_slice_18/ones_like",
          "shape": [4],
          "dtype": "int32"
        },
        { "name": "29526", "shape": [1, 1, 128, 64], "dtype": "float32" },
        { "name": "29530", "shape": [64], "dtype": "float32" },
        {
          "name": "PartitionedCall/model_37/tf.concat_20/concat/axis",
          "shape": [],
          "dtype": "int32"
        },
        { "name": "29532", "shape": [1, 1, 128, 128], "dtype": "float32" },
        { "name": "29534", "shape": [128], "dtype": "float32" },
        {
          "name": "PartitionedCall/model_37/tf.concat_21/concat/axis",
          "shape": [],
          "dtype": "int32"
        },
        { "name": "29544", "shape": [1, 1, 384, 256], "dtype": "float32" },
        { "name": "29546", "shape": [256], "dtype": "float32" },
        { "name": "29552", "shape": [3, 3, 256, 1], "dtype": "float32" },
        { "name": "29556", "shape": [256], "dtype": "float32" },
        { "name": "29560", "shape": [1, 1, 256, 80], "dtype": "float32" },
        { "name": "29566", "shape": [80], "dtype": "float32" },
        { "name": "29572", "shape": [3, 3, 80, 1], "dtype": "float32" },
        { "name": "29582", "shape": [80], "dtype": "float32" },
        { "name": "29596", "shape": [1, 1, 80, 80], "dtype": "float32" },
        { "name": "29606", "shape": [80], "dtype": "float32" },
        { "name": "29616", "shape": [1, 1, 80, 80], "dtype": "float32" },
        { "name": "29630", "shape": [80], "dtype": "float32" },
        {
          "name": "PartitionedCall/model_37/tf.concat_22/concat/axis",
          "shape": [],
          "dtype": "int32"
        },
        {
          "name": "PartitionedCall/model_37/tf.compat.v1.transpose_39/transpose/perm",
          "shape": [4],
          "dtype": "int32"
        },
        {
          "name": "PartitionedCall/model_37/tf.reshape_17/Reshape/shape",
          "shape": [3],
          "dtype": "int32"
        },
        {
          "name": "PartitionedCall/model_37/tf.concat_23/concat/axis",
          "shape": [],
          "dtype": "int32"
        },
        { "name": "29660", "shape": [3], "dtype": "int32" },
        { "name": "29662", "shape": [3], "dtype": "int32" },
        {
          "name": "PartitionedCall/model_37/tf.strided_slice_20/StridedSlice/strides",
          "shape": [3],
          "dtype": "int32"
        },
        {
          "name": "PartitionedCall/model_37/output0/concat/axis",
          "shape": [],
          "dtype": "int32"
        }
      ]
    }
  ]
}
