{
  "format": "graph-model",
  "generatedBy": "2.18.0",
  "convertedBy": "TensorFlow.js Converter v4.22.0",
  "signature": { "outputs": { "Identity:0": { "name": "Identity:0" } } },
  "modelTopology": {
    "node": [
      {
        "name": "ConstantFolding/model_144/tf.math.divide/truediv_recip",
        "op": "Const",
        "attr": {
          "value": { "tensor": { "dtype": "DT_FLOAT", "tensorShape": {} } },
          "dtype": { "type": "DT_FLOAT" }
        }
      },
      {
        "name": "model_144/tf.strided_slice_9/ones_like/tensor",
        "op": "Const",
        "attr": {
          "value": {
            "tensor": {
              "dtype": "DT_INT64",
              "tensorShape": { "dim": [{ "size": "3" }] }
            }
          },
          "dtype": { "type": "DT_INT64" }
        }
      },
      {
        "name": "model_144/tf.strided_slice_9/StridedSlice/end",
        "op": "Const",
        "attr": {
          "value": {
            "tensor": {
              "dtype": "DT_INT64",
              "tensorShape": { "dim": [{ "size": "3" }] }
            }
          },
          "dtype": { "type": "DT_INT64" }
        }
      },
      {
        "name": "model_144/tf.strided_slice_9/ones_like",
        "op": "Const",
        "attr": {
          "value": {
            "tensor": {
              "dtype": "DT_INT64",
              "tensorShape": { "dim": [{ "size": "3" }] }
            }
          },
          "dtype": { "type": "DT_INT64" }
        }
      },
      {
        "name": "model_144/tf.math.add_193/Add/y",
        "op": "Const",
        "attr": {
          "value": {
            "tensor": {
              "dtype": "DT_FLOAT",
              "tensorShape": {
                "dim": [{ "size": "1" }, { "size": "2" }, { "size": "8400" }]
              }
            }
          },
          "dtype": { "type": "DT_FLOAT" }
        }
      },
      {
        "name": "model_144/143734",
        "op": "Const",
        "attr": {
          "value": {
            "tensor": {
              "dtype": "DT_FLOAT",
              "tensorShape": {
                "dim": [{ "size": "1" }, { "size": "2" }, { "size": "8400" }]
              }
            }
          },
          "dtype": { "type": "DT_FLOAT" }
        }
      },
      {
        "name": "model_144/tf.strided_slice_6/StridedSlice/begin",
        "op": "Const",
        "attr": {
          "value": {
            "tensor": {
              "dtype": "DT_INT64",
              "tensorShape": { "dim": [{ "size": "3" }] }
            }
          },
          "dtype": { "type": "DT_INT64" }
        }
      },
      {
        "name": "model_144/tf.strided_slice_6/StridedSlice/end",
        "op": "Const",
        "attr": {
          "value": {
            "tensor": {
              "dtype": "DT_INT64",
              "tensorShape": { "dim": [{ "size": "3" }] }
            }
          },
          "dtype": { "type": "DT_INT64" }
        }
      },
      {
        "name": "model_144/tf.strided_slice_6/StridedSlice/strides",
        "op": "Const",
        "attr": {
          "value": {
            "tensor": {
              "dtype": "DT_INT64",
              "tensorShape": { "dim": [{ "size": "3" }] }
            }
          },
          "dtype": { "type": "DT_INT64" }
        }
      },
      {
        "name": "model_144/tf.reshape_107/Reshape/shape",
        "op": "Const",
        "attr": {
          "value": {
            "tensor": {
              "dtype": "DT_INT32",
              "tensorShape": { "dim": [{ "size": "4" }] }
            }
          },
          "dtype": { "type": "DT_INT32" }
        }
      },
      {
        "name": "model_144/tf.compat.v1.transpose_367/transpose/perm",
        "op": "Const",
        "attr": {
          "value": {
            "tensor": {
              "dtype": "DT_INT32",
              "tensorShape": { "dim": [{ "size": "4" }] }
            }
          },
          "dtype": { "type": "DT_INT32" }
        }
      },
      {
        "name": "model_144/tf.compat.v1.transpose_368/transpose/perm",
        "op": "Const",
        "attr": {
          "value": {
            "tensor": {
              "dtype": "DT_INT32",
              "tensorShape": { "dim": [{ "size": "4" }] }
            }
          },
          "dtype": { "type": "DT_INT32" }
        }
      },
      {
        "name": "model_144/tf.nn.convolution_877/convolution/filter",
        "op": "Const",
        "attr": {
          "value": {
            "tensor": {
              "dtype": "DT_FLOAT",
              "tensorShape": {
                "dim": [
                  { "size": "1" },
                  { "size": "1" },
                  { "size": "16" },
                  { "size": "1" }
                ]
              }
            }
          },
          "dtype": { "type": "DT_FLOAT" }
        }
      },
      {
        "name": "model_144/tf.compat.v1.transpose_373/transpose/perm",
        "op": "Const",
        "attr": {
          "value": {
            "tensor": {
              "dtype": "DT_INT32",
              "tensorShape": { "dim": [{ "size": "4" }] }
            }
          },
          "dtype": { "type": "DT_INT32" }
        }
      },
      {
        "name": "model_144/tf.reshape_110/Reshape/shape",
        "op": "Const",
        "attr": {
          "value": {
            "tensor": {
              "dtype": "DT_INT32",
              "tensorShape": { "dim": [{ "size": "3" }] }
            }
          },
          "dtype": { "type": "DT_INT32" }
        }
      },
      {
        "name": "model_144/tf.strided_slice_8/ones_like/tensor",
        "op": "Const",
        "attr": {
          "value": {
            "tensor": {
              "dtype": "DT_INT64",
              "tensorShape": { "dim": [{ "size": "3" }] }
            }
          },
          "dtype": { "type": "DT_INT64" }
        }
      },
      {
        "name": "model_144/tf.strided_slice_8/StridedSlice/end",
        "op": "Const",
        "attr": {
          "value": {
            "tensor": {
              "dtype": "DT_INT64",
              "tensorShape": { "dim": [{ "size": "3" }] }
            }
          },
          "dtype": { "type": "DT_INT64" }
        }
      },
      {
        "name": "model_144/tf.strided_slice_8/ones_like",
        "op": "Const",
        "attr": {
          "value": {
            "tensor": {
              "dtype": "DT_INT64",
              "tensorShape": { "dim": [{ "size": "3" }] }
            }
          },
          "dtype": { "type": "DT_INT64" }
        }
      },
      {
        "name": "model_144/tf.concat_33/concat/axis",
        "op": "Const",
        "attr": {
          "value": { "tensor": { "dtype": "DT_INT32", "tensorShape": {} } },
          "dtype": { "type": "DT_INT32" }
        }
      },
      {
        "name": "model_144/tf.math.multiply_428/Mul/y",
        "op": "Const",
        "attr": {
          "value": {
            "tensor": {
              "dtype": "DT_FLOAT",
              "tensorShape": {
                "dim": [{ "size": "1" }, { "size": "1" }, { "size": "8400" }]
              }
            }
          },
          "dtype": { "type": "DT_FLOAT" }
        }
      },
      {
        "name": "model_144/tf.nn.convolution_836/convolution/filter",
        "op": "Const",
        "attr": {
          "value": {
            "tensor": {
              "dtype": "DT_FLOAT",
              "tensorShape": {
                "dim": [
                  { "size": "3" },
                  { "size": "3" },
                  { "size": "64" },
                  { "size": "64" }
                ]
              }
            }
          },
          "dtype": { "type": "DT_FLOAT" }
        }
      },
      {
        "name": "model_144/tf.math.add_136/Add/y",
        "op": "Const",
        "attr": {
          "value": {
            "tensor": {
              "dtype": "DT_FLOAT",
              "tensorShape": { "dim": [{ "size": "64" }] }
            }
          },
          "dtype": { "type": "DT_FLOAT" }
        }
      },
      {
        "name": "model_144/tf.nn.convolution_837/convolution/filter",
        "op": "Const",
        "attr": {
          "value": {
            "tensor": {
              "dtype": "DT_FLOAT",
              "tensorShape": {
                "dim": [
                  { "size": "3" },
                  { "size": "3" },
                  { "size": "64" },
                  { "size": "64" }
                ]
              }
            }
          },
          "dtype": { "type": "DT_FLOAT" }
        }
      },
      {
        "name": "model_144/tf.math.add_138/Add/y",
        "op": "Const",
        "attr": {
          "value": {
            "tensor": {
              "dtype": "DT_FLOAT",
              "tensorShape": { "dim": [{ "size": "64" }] }
            }
          },
          "dtype": { "type": "DT_FLOAT" }
        }
      },
      {
        "name": "model_144/tf.nn.convolution_840/convolution/filter",
        "op": "Const",
        "attr": {
          "value": {
            "tensor": {
              "dtype": "DT_FLOAT",
              "tensorShape": {
                "dim": [
                  { "size": "1" },
                  { "size": "1" },
                  { "size": "64" },
                  { "size": "64" }
                ]
              }
            }
          },
          "dtype": { "type": "DT_FLOAT" }
        }
      },
      {
        "name": "model_144/tf.math.add_141/Add/y",
        "op": "Const",
        "attr": {
          "value": {
            "tensor": {
              "dtype": "DT_FLOAT",
              "tensorShape": { "dim": [{ "size": "64" }] }
            }
          },
          "dtype": { "type": "DT_FLOAT" }
        }
      },
      {
        "name": "model_144/tf.compat.v1.nn.depthwise_conv2d/depthwise/filter_in",
        "op": "Const",
        "attr": {
          "value": {
            "tensor": {
              "dtype": "DT_FLOAT",
              "tensorShape": {
                "dim": [
                  { "size": "3" },
                  { "size": "3" },
                  { "size": "64" },
                  { "size": "1" }
                ]
              }
            }
          },
          "dtype": { "type": "DT_FLOAT" }
        }
      },
      {
        "name": "model_144/tf.math.add_137/Add/y",
        "op": "Const",
        "attr": {
          "value": {
            "tensor": {
              "dtype": "DT_FLOAT",
              "tensorShape": { "dim": [{ "size": "64" }] }
            }
          },
          "dtype": { "type": "DT_FLOAT" }
        }
      },
      {
        "name": "model_144/tf.nn.convolution_838/convolution/filter",
        "op": "Const",
        "attr": {
          "value": {
            "tensor": {
              "dtype": "DT_FLOAT",
              "tensorShape": {
                "dim": [
                  { "size": "1" },
                  { "size": "1" },
                  { "size": "64" },
                  { "size": "80" }
                ]
              }
            }
          },
          "dtype": { "type": "DT_FLOAT" }
        }
      },
      {
        "name": "model_144/tf.math.add_139/Add/y",
        "op": "Const",
        "attr": {
          "value": {
            "tensor": {
              "dtype": "DT_FLOAT",
              "tensorShape": { "dim": [{ "size": "80" }] }
            }
          },
          "dtype": { "type": "DT_FLOAT" }
        }
      },
      {
        "name": "model_144/tf.compat.v1.nn.depthwise_conv2d_3/depthwise/filter_in",
        "op": "Const",
        "attr": {
          "value": {
            "tensor": {
              "dtype": "DT_FLOAT",
              "tensorShape": {
                "dim": [
                  { "size": "3" },
                  { "size": "3" },
                  { "size": "80" },
                  { "size": "1" }
                ]
              }
            }
          },
          "dtype": { "type": "DT_FLOAT" }
        }
      },
      {
        "name": "model_144/tf.math.add_144/Add/y",
        "op": "Const",
        "attr": {
          "value": {
            "tensor": {
              "dtype": "DT_FLOAT",
              "tensorShape": { "dim": [{ "size": "80" }] }
            }
          },
          "dtype": { "type": "DT_FLOAT" }
        }
      },
      {
        "name": "model_144/tf.nn.convolution_845/convolution/filter",
        "op": "Const",
        "attr": {
          "value": {
            "tensor": {
              "dtype": "DT_FLOAT",
              "tensorShape": {
                "dim": [
                  { "size": "1" },
                  { "size": "1" },
                  { "size": "80" },
                  { "size": "80" }
                ]
              }
            }
          },
          "dtype": { "type": "DT_FLOAT" }
        }
      },
      {
        "name": "model_144/tf.math.add_149/Add/y",
        "op": "Const",
        "attr": {
          "value": {
            "tensor": {
              "dtype": "DT_FLOAT",
              "tensorShape": { "dim": [{ "size": "80" }] }
            }
          },
          "dtype": { "type": "DT_FLOAT" }
        }
      },
      {
        "name": "model_144/tf.nn.convolution_849/convolution/filter",
        "op": "Const",
        "attr": {
          "value": {
            "tensor": {
              "dtype": "DT_FLOAT",
              "tensorShape": {
                "dim": [
                  { "size": "1" },
                  { "size": "1" },
                  { "size": "80" },
                  { "size": "80" }
                ]
              }
            }
          },
          "dtype": { "type": "DT_FLOAT" }
        }
      },
      {
        "name": "model_144/tf.math.add_153/Add/y",
        "op": "Const",
        "attr": {
          "value": {
            "tensor": {
              "dtype": "DT_FLOAT",
              "tensorShape": { "dim": [{ "size": "80" }] }
            }
          },
          "dtype": { "type": "DT_FLOAT" }
        }
      },
      {
        "name": "model_144/tf.concat_21/concat/axis",
        "op": "Const",
        "attr": {
          "value": { "tensor": { "dtype": "DT_INT32", "tensorShape": {} } },
          "dtype": { "type": "DT_INT32" }
        }
      },
      {
        "name": "model_144/tf.compat.v1.transpose_319/transpose/perm",
        "op": "Const",
        "attr": {
          "value": {
            "tensor": {
              "dtype": "DT_INT32",
              "tensorShape": { "dim": [{ "size": "4" }] }
            }
          },
          "dtype": { "type": "DT_INT32" }
        }
      },
      {
        "name": "model_144/tf.reshape_98/Reshape/shape",
        "op": "Const",
        "attr": {
          "value": {
            "tensor": {
              "dtype": "DT_INT32",
              "tensorShape": { "dim": [{ "size": "3" }] }
            }
          },
          "dtype": { "type": "DT_INT32" }
        }
      },
      {
        "name": "model_144/tf.nn.convolution_856/convolution/filter",
        "op": "Const",
        "attr": {
          "value": {
            "tensor": {
              "dtype": "DT_FLOAT",
              "tensorShape": {
                "dim": [
                  { "size": "3" },
                  { "size": "3" },
                  { "size": "128" },
                  { "size": "64" }
                ]
              }
            }
          },
          "dtype": { "type": "DT_FLOAT" }
        }
      },
      {
        "name": "model_144/tf.math.add_164/Add/y",
        "op": "Const",
        "attr": {
          "value": {
            "tensor": {
              "dtype": "DT_FLOAT",
              "tensorShape": { "dim": [{ "size": "64" }] }
            }
          },
          "dtype": { "type": "DT_FLOAT" }
        }
      },
      {
        "name": "model_144/tf.nn.convolution_857/convolution/filter",
        "op": "Const",
        "attr": {
          "value": {
            "tensor": {
              "dtype": "DT_FLOAT",
              "tensorShape": {
                "dim": [
                  { "size": "3" },
                  { "size": "3" },
                  { "size": "64" },
                  { "size": "64" }
                ]
              }
            }
          },
          "dtype": { "type": "DT_FLOAT" }
        }
      },
      {
        "name": "model_144/tf.math.add_166/Add/y",
        "op": "Const",
        "attr": {
          "value": {
            "tensor": {
              "dtype": "DT_FLOAT",
              "tensorShape": { "dim": [{ "size": "64" }] }
            }
          },
          "dtype": { "type": "DT_FLOAT" }
        }
      },
      {
        "name": "model_144/tf.nn.convolution_860/convolution/filter",
        "op": "Const",
        "attr": {
          "value": {
            "tensor": {
              "dtype": "DT_FLOAT",
              "tensorShape": {
                "dim": [
                  { "size": "1" },
                  { "size": "1" },
                  { "size": "64" },
                  { "size": "64" }
                ]
              }
            }
          },
          "dtype": { "type": "DT_FLOAT" }
        }
      },
      {
        "name": "model_144/tf.math.add_169/Add/y",
        "op": "Const",
        "attr": {
          "value": {
            "tensor": {
              "dtype": "DT_FLOAT",
              "tensorShape": { "dim": [{ "size": "64" }] }
            }
          },
          "dtype": { "type": "DT_FLOAT" }
        }
      },
      {
        "name": "model_144/tf.compat.v1.nn.depthwise_conv2d_4/depthwise/filter_in",
        "op": "Const",
        "attr": {
          "value": {
            "tensor": {
              "dtype": "DT_FLOAT",
              "tensorShape": {
                "dim": [
                  { "size": "3" },
                  { "size": "3" },
                  { "size": "128" },
                  { "size": "1" }
                ]
              }
            }
          },
          "dtype": { "type": "DT_FLOAT" }
        }
      },
      {
        "name": "model_144/tf.math.add_165/Add/y",
        "op": "Const",
        "attr": {
          "value": {
            "tensor": {
              "dtype": "DT_FLOAT",
              "tensorShape": { "dim": [{ "size": "128" }] }
            }
          },
          "dtype": { "type": "DT_FLOAT" }
        }
      },
      {
        "name": "model_144/tf.nn.convolution_858/convolution/filter",
        "op": "Const",
        "attr": {
          "value": {
            "tensor": {
              "dtype": "DT_FLOAT",
              "tensorShape": {
                "dim": [
                  { "size": "1" },
                  { "size": "1" },
                  { "size": "128" },
                  { "size": "80" }
                ]
              }
            }
          },
          "dtype": { "type": "DT_FLOAT" }
        }
      },
      {
        "name": "model_144/tf.math.add_167/Add/y",
        "op": "Const",
        "attr": {
          "value": {
            "tensor": {
              "dtype": "DT_FLOAT",
              "tensorShape": { "dim": [{ "size": "80" }] }
            }
          },
          "dtype": { "type": "DT_FLOAT" }
        }
      },
      {
        "name": "model_144/tf.compat.v1.nn.depthwise_conv2d_5/depthwise/filter_in",
        "op": "Const",
        "attr": {
          "value": {
            "tensor": {
              "dtype": "DT_FLOAT",
              "tensorShape": {
                "dim": [
                  { "size": "3" },
                  { "size": "3" },
                  { "size": "80" },
                  { "size": "1" }
                ]
              }
            }
          },
          "dtype": { "type": "DT_FLOAT" }
        }
      },
      {
        "name": "model_144/tf.math.add_170/Add/y",
        "op": "Const",
        "attr": {
          "value": {
            "tensor": {
              "dtype": "DT_FLOAT",
              "tensorShape": { "dim": [{ "size": "80" }] }
            }
          },
          "dtype": { "type": "DT_FLOAT" }
        }
      },
      {
        "name": "model_144/tf.nn.convolution_863/convolution/filter",
        "op": "Const",
        "attr": {
          "value": {
            "tensor": {
              "dtype": "DT_FLOAT",
              "tensorShape": {
                "dim": [
                  { "size": "1" },
                  { "size": "1" },
                  { "size": "80" },
                  { "size": "80" }
                ]
              }
            }
          },
          "dtype": { "type": "DT_FLOAT" }
        }
      },
      {
        "name": "model_144/tf.math.add_173/Add/y",
        "op": "Const",
        "attr": {
          "value": {
            "tensor": {
              "dtype": "DT_FLOAT",
              "tensorShape": { "dim": [{ "size": "80" }] }
            }
          },
          "dtype": { "type": "DT_FLOAT" }
        }
      },
      {
        "name": "model_144/tf.nn.convolution_865/convolution/filter",
        "op": "Const",
        "attr": {
          "value": {
            "tensor": {
              "dtype": "DT_FLOAT",
              "tensorShape": {
                "dim": [
                  { "size": "1" },
                  { "size": "1" },
                  { "size": "80" },
                  { "size": "80" }
                ]
              }
            }
          },
          "dtype": { "type": "DT_FLOAT" }
        }
      },
      {
        "name": "model_144/tf.math.add_175/Add/y",
        "op": "Const",
        "attr": {
          "value": {
            "tensor": {
              "dtype": "DT_FLOAT",
              "tensorShape": { "dim": [{ "size": "80" }] }
            }
          },
          "dtype": { "type": "DT_FLOAT" }
        }
      },
      {
        "name": "model_144/tf.concat_25/concat/axis",
        "op": "Const",
        "attr": {
          "value": { "tensor": { "dtype": "DT_INT32", "tensorShape": {} } },
          "dtype": { "type": "DT_INT32" }
        }
      },
      {
        "name": "model_144/tf.compat.v1.transpose_342/transpose/perm",
        "op": "Const",
        "attr": {
          "value": {
            "tensor": {
              "dtype": "DT_INT32",
              "tensorShape": { "dim": [{ "size": "4" }] }
            }
          },
          "dtype": { "type": "DT_INT32" }
        }
      },
      {
        "name": "model_144/tf.reshape_101/Reshape/shape",
        "op": "Const",
        "attr": {
          "value": {
            "tensor": {
              "dtype": "DT_INT32",
              "tensorShape": { "dim": [{ "size": "3" }] }
            }
          },
          "dtype": { "type": "DT_INT32" }
        }
      },
      {
        "name": "model_144/tf.nn.convolution_871/convolution/filter",
        "op": "Const",
        "attr": {
          "value": {
            "tensor": {
              "dtype": "DT_FLOAT",
              "tensorShape": {
                "dim": [
                  { "size": "3" },
                  { "size": "3" },
                  { "size": "256" },
                  { "size": "64" }
                ]
              }
            }
          },
          "dtype": { "type": "DT_FLOAT" }
        }
      },
      {
        "name": "model_144/tf.math.add_185/Add/y",
        "op": "Const",
        "attr": {
          "value": {
            "tensor": {
              "dtype": "DT_FLOAT",
              "tensorShape": { "dim": [{ "size": "64" }] }
            }
          },
          "dtype": { "type": "DT_FLOAT" }
        }
      },
      {
        "name": "model_144/tf.nn.convolution_872/convolution/filter",
        "op": "Const",
        "attr": {
          "value": {
            "tensor": {
              "dtype": "DT_FLOAT",
              "tensorShape": {
                "dim": [
                  { "size": "3" },
                  { "size": "3" },
                  { "size": "64" },
                  { "size": "64" }
                ]
              }
            }
          },
          "dtype": { "type": "DT_FLOAT" }
        }
      },
      {
        "name": "model_144/tf.math.add_187/Add/y",
        "op": "Const",
        "attr": {
          "value": {
            "tensor": {
              "dtype": "DT_FLOAT",
              "tensorShape": { "dim": [{ "size": "64" }] }
            }
          },
          "dtype": { "type": "DT_FLOAT" }
        }
      },
      {
        "name": "model_144/tf.nn.convolution_874/convolution/filter",
        "op": "Const",
        "attr": {
          "value": {
            "tensor": {
              "dtype": "DT_FLOAT",
              "tensorShape": {
                "dim": [
                  { "size": "1" },
                  { "size": "1" },
                  { "size": "64" },
                  { "size": "64" }
                ]
              }
            }
          },
          "dtype": { "type": "DT_FLOAT" }
        }
      },
      {
        "name": "model_144/tf.math.add_189/Add/y",
        "op": "Const",
        "attr": {
          "value": {
            "tensor": {
              "dtype": "DT_FLOAT",
              "tensorShape": { "dim": [{ "size": "64" }] }
            }
          },
          "dtype": { "type": "DT_FLOAT" }
        }
      },
      {
        "name": "model_144/tf.strided_slice_4/ones_like/tensor",
        "op": "Const",
        "attr": {
          "value": {
            "tensor": {
              "dtype": "DT_INT64",
              "tensorShape": { "dim": [{ "size": "4" }] }
            }
          },
          "dtype": { "type": "DT_INT64" }
        }
      },
      {
        "name": "model_144/tf.strided_slice_4/StridedSlice/end",
        "op": "Const",
        "attr": {
          "value": {
            "tensor": {
              "dtype": "DT_INT64",
              "tensorShape": { "dim": [{ "size": "4" }] }
            }
          },
          "dtype": { "type": "DT_INT64" }
        }
      },
      {
        "name": "model_144/tf.strided_slice_4/ones_like",
        "op": "Const",
        "attr": {
          "value": {
            "tensor": {
              "dtype": "DT_INT64",
              "tensorShape": { "dim": [{ "size": "4" }] }
            }
          },
          "dtype": { "type": "DT_INT64" }
        }
      },
      {
        "name": "model_144/tf.nn.convolution_861/convolution/filter",
        "op": "Const",
        "attr": {
          "value": {
            "tensor": {
              "dtype": "DT_FLOAT",
              "tensorShape": {
                "dim": [
                  { "size": "1" },
                  { "size": "1" },
                  { "size": "128" },
                  { "size": "64" }
                ]
              }
            }
          },
          "dtype": { "type": "DT_FLOAT" }
        }
      },
      {
        "name": "model_144/tf.math.add_171/Add/y",
        "op": "Const",
        "attr": {
          "value": {
            "tensor": {
              "dtype": "DT_FLOAT",
              "tensorShape": { "dim": [{ "size": "64" }] }
            }
          },
          "dtype": { "type": "DT_FLOAT" }
        }
      },
      {
        "name": "model_144/tf.nn.convolution_864/convolution/filter",
        "op": "Const",
        "attr": {
          "value": {
            "tensor": {
              "dtype": "DT_FLOAT",
              "tensorShape": {
                "dim": [
                  { "size": "3" },
                  { "size": "3" },
                  { "size": "64" },
                  { "size": "64" }
                ]
              }
            }
          },
          "dtype": { "type": "DT_FLOAT" }
        }
      },
      {
        "name": "model_144/tf.math.add_174/Add/y",
        "op": "Const",
        "attr": {
          "value": {
            "tensor": {
              "dtype": "DT_FLOAT",
              "tensorShape": { "dim": [{ "size": "64" }] }
            }
          },
          "dtype": { "type": "DT_FLOAT" }
        }
      },
      {
        "name": "model_144/tf.nn.convolution_866/convolution/filter",
        "op": "Const",
        "attr": {
          "value": {
            "tensor": {
              "dtype": "DT_FLOAT",
              "tensorShape": {
                "dim": [
                  { "size": "3" },
                  { "size": "3" },
                  { "size": "64" },
                  { "size": "64" }
                ]
              }
            }
          },
          "dtype": { "type": "DT_FLOAT" }
        }
      },
      {
        "name": "model_144/tf.math.add_176/Add/y",
        "op": "Const",
        "attr": {
          "value": {
            "tensor": {
              "dtype": "DT_FLOAT",
              "tensorShape": { "dim": [{ "size": "64" }] }
            }
          },
          "dtype": { "type": "DT_FLOAT" }
        }
      },
      {
        "name": "model_144/tf.nn.convolution_867/convolution/filter",
        "op": "Const",
        "attr": {
          "value": {
            "tensor": {
              "dtype": "DT_FLOAT",
              "tensorShape": {
                "dim": [
                  { "size": "3" },
                  { "size": "3" },
                  { "size": "64" },
                  { "size": "64" }
                ]
              }
            }
          },
          "dtype": { "type": "DT_FLOAT" }
        }
      },
      {
        "name": "model_144/tf.math.add_179/Add/y",
        "op": "Const",
        "attr": {
          "value": {
            "tensor": {
              "dtype": "DT_FLOAT",
              "tensorShape": { "dim": [{ "size": "64" }] }
            }
          },
          "dtype": { "type": "DT_FLOAT" }
        }
      },
      {
        "name": "model_144/tf.nn.convolution_868/convolution/filter",
        "op": "Const",
        "attr": {
          "value": {
            "tensor": {
              "dtype": "DT_FLOAT",
              "tensorShape": {
                "dim": [
                  { "size": "3" },
                  { "size": "3" },
                  { "size": "64" },
                  { "size": "64" }
                ]
              }
            }
          },
          "dtype": { "type": "DT_FLOAT" }
        }
      },
      {
        "name": "model_144/tf.math.add_180/Add/y",
        "op": "Const",
        "attr": {
          "value": {
            "tensor": {
              "dtype": "DT_FLOAT",
              "tensorShape": { "dim": [{ "size": "64" }] }
            }
          },
          "dtype": { "type": "DT_FLOAT" }
        }
      },
      {
        "name": "model_144/tf.nn.convolution_841/convolution/filter",
        "op": "Const",
        "attr": {
          "value": {
            "tensor": {
              "dtype": "DT_FLOAT",
              "tensorShape": {
                "dim": [
                  { "size": "1" },
                  { "size": "1" },
                  { "size": "64" },
                  { "size": "32" }
                ]
              }
            }
          },
          "dtype": { "type": "DT_FLOAT" }
        }
      },
      {
        "name": "model_144/tf.math.add_145/Add/y",
        "op": "Const",
        "attr": {
          "value": {
            "tensor": {
              "dtype": "DT_FLOAT",
              "tensorShape": { "dim": [{ "size": "32" }] }
            }
          },
          "dtype": { "type": "DT_FLOAT" }
        }
      },
      {
        "name": "model_144/tf.nn.convolution_846/convolution/filter",
        "op": "Const",
        "attr": {
          "value": {
            "tensor": {
              "dtype": "DT_FLOAT",
              "tensorShape": {
                "dim": [
                  { "size": "3" },
                  { "size": "3" },
                  { "size": "32" },
                  { "size": "32" }
                ]
              }
            }
          },
          "dtype": { "type": "DT_FLOAT" }
        }
      },
      {
        "name": "model_144/tf.math.add_150/Add/y",
        "op": "Const",
        "attr": {
          "value": {
            "tensor": {
              "dtype": "DT_FLOAT",
              "tensorShape": { "dim": [{ "size": "32" }] }
            }
          },
          "dtype": { "type": "DT_FLOAT" }
        }
      },
      {
        "name": "model_144/tf.nn.convolution_850/convolution/filter",
        "op": "Const",
        "attr": {
          "value": {
            "tensor": {
              "dtype": "DT_FLOAT",
              "tensorShape": {
                "dim": [
                  { "size": "3" },
                  { "size": "3" },
                  { "size": "32" },
                  { "size": "32" }
                ]
              }
            }
          },
          "dtype": { "type": "DT_FLOAT" }
        }
      },
      {
        "name": "model_144/tf.math.add_154/Add/y",
        "op": "Const",
        "attr": {
          "value": {
            "tensor": {
              "dtype": "DT_FLOAT",
              "tensorShape": { "dim": [{ "size": "32" }] }
            }
          },
          "dtype": { "type": "DT_FLOAT" }
        }
      },
      {
        "name": "model_144/tf.nn.convolution_851/convolution/filter",
        "op": "Const",
        "attr": {
          "value": {
            "tensor": {
              "dtype": "DT_FLOAT",
              "tensorShape": {
                "dim": [
                  { "size": "3" },
                  { "size": "3" },
                  { "size": "32" },
                  { "size": "32" }
                ]
              }
            }
          },
          "dtype": { "type": "DT_FLOAT" }
        }
      },
      {
        "name": "model_144/tf.math.add_157/Add/y",
        "op": "Const",
        "attr": {
          "value": {
            "tensor": {
              "dtype": "DT_FLOAT",
              "tensorShape": { "dim": [{ "size": "32" }] }
            }
          },
          "dtype": { "type": "DT_FLOAT" }
        }
      },
      {
        "name": "model_144/tf.nn.convolution_852/convolution/filter",
        "op": "Const",
        "attr": {
          "value": {
            "tensor": {
              "dtype": "DT_FLOAT",
              "tensorShape": {
                "dim": [
                  { "size": "3" },
                  { "size": "3" },
                  { "size": "32" },
                  { "size": "32" }
                ]
              }
            }
          },
          "dtype": { "type": "DT_FLOAT" }
        }
      },
      {
        "name": "model_144/tf.math.add_158/Add/y",
        "op": "Const",
        "attr": {
          "value": {
            "tensor": {
              "dtype": "DT_FLOAT",
              "tensorShape": { "dim": [{ "size": "32" }] }
            }
          },
          "dtype": { "type": "DT_FLOAT" }
        }
      },
      {
        "name": "model_144/tf.nn.convolution_827/convolution/filter",
        "op": "Const",
        "attr": {
          "value": {
            "tensor": {
              "dtype": "DT_FLOAT",
              "tensorShape": {
                "dim": [
                  { "size": "1" },
                  { "size": "1" },
                  { "size": "32" },
                  { "size": "16" }
                ]
              }
            }
          },
          "dtype": { "type": "DT_FLOAT" }
        }
      },
      {
        "name": "model_144/tf.math.add_123/Add/y",
        "op": "Const",
        "attr": {
          "value": {
            "tensor": {
              "dtype": "DT_FLOAT",
              "tensorShape": { "dim": [{ "size": "16" }] }
            }
          },
          "dtype": { "type": "DT_FLOAT" }
        }
      },
      {
        "name": "model_144/tf.nn.convolution_829/convolution/filter",
        "op": "Const",
        "attr": {
          "value": {
            "tensor": {
              "dtype": "DT_FLOAT",
              "tensorShape": {
                "dim": [
                  { "size": "3" },
                  { "size": "3" },
                  { "size": "16" },
                  { "size": "16" }
                ]
              }
            }
          },
          "dtype": { "type": "DT_FLOAT" }
        }
      },
      {
        "name": "model_144/tf.math.add_125/Add/y",
        "op": "Const",
        "attr": {
          "value": {
            "tensor": {
              "dtype": "DT_FLOAT",
              "tensorShape": { "dim": [{ "size": "16" }] }
            }
          },
          "dtype": { "type": "DT_FLOAT" }
        }
      },
      {
        "name": "model_144/tf.nn.convolution_830/convolution/filter",
        "op": "Const",
        "attr": {
          "value": {
            "tensor": {
              "dtype": "DT_FLOAT",
              "tensorShape": {
                "dim": [
                  { "size": "3" },
                  { "size": "3" },
                  { "size": "16" },
                  { "size": "16" }
                ]
              }
            }
          },
          "dtype": { "type": "DT_FLOAT" }
        }
      },
      {
        "name": "model_144/tf.math.add_126/Add/y",
        "op": "Const",
        "attr": {
          "value": {
            "tensor": {
              "dtype": "DT_FLOAT",
              "tensorShape": { "dim": [{ "size": "16" }] }
            }
          },
          "dtype": { "type": "DT_FLOAT" }
        }
      },
      {
        "name": "model_144/tf.nn.convolution_831/convolution/filter",
        "op": "Const",
        "attr": {
          "value": {
            "tensor": {
              "dtype": "DT_FLOAT",
              "tensorShape": {
                "dim": [
                  { "size": "3" },
                  { "size": "3" },
                  { "size": "16" },
                  { "size": "16" }
                ]
              }
            }
          },
          "dtype": { "type": "DT_FLOAT" }
        }
      },
      {
        "name": "model_144/tf.math.add_129/Add/y",
        "op": "Const",
        "attr": {
          "value": {
            "tensor": {
              "dtype": "DT_FLOAT",
              "tensorShape": { "dim": [{ "size": "16" }] }
            }
          },
          "dtype": { "type": "DT_FLOAT" }
        }
      },
      {
        "name": "model_144/tf.nn.convolution_832/convolution/filter",
        "op": "Const",
        "attr": {
          "value": {
            "tensor": {
              "dtype": "DT_FLOAT",
              "tensorShape": {
                "dim": [
                  { "size": "3" },
                  { "size": "3" },
                  { "size": "16" },
                  { "size": "16" }
                ]
              }
            }
          },
          "dtype": { "type": "DT_FLOAT" }
        }
      },
      {
        "name": "model_144/tf.math.add_130/Add/y",
        "op": "Const",
        "attr": {
          "value": {
            "tensor": {
              "dtype": "DT_FLOAT",
              "tensorShape": { "dim": [{ "size": "16" }] }
            }
          },
          "dtype": { "type": "DT_FLOAT" }
        }
      },
      {
        "name": "model_144/tf.image.resize_1/resize/size",
        "op": "Const",
        "attr": {
          "value": {
            "tensor": {
              "dtype": "DT_INT32",
              "tensorShape": { "dim": [{ "size": "2" }] }
            }
          },
          "dtype": { "type": "DT_INT32" }
        }
      },
      {
        "name": "model_144/tf.concat_15/concat/axis",
        "op": "Const",
        "attr": {
          "value": { "tensor": { "dtype": "DT_INT32", "tensorShape": {} } },
          "dtype": { "type": "DT_INT32" }
        }
      },
      {
        "name": "model_144/tf.nn.convolution_826/convolution/filter",
        "op": "Const",
        "attr": {
          "value": {
            "tensor": {
              "dtype": "DT_FLOAT",
              "tensorShape": {
                "dim": [
                  { "size": "1" },
                  { "size": "1" },
                  { "size": "256" },
                  { "size": "32" }
                ]
              }
            }
          },
          "dtype": { "type": "DT_FLOAT" }
        }
      },
      {
        "name": "model_144/tf.math.add_122/Add/y",
        "op": "Const",
        "attr": {
          "value": {
            "tensor": {
              "dtype": "DT_FLOAT",
              "tensorShape": { "dim": [{ "size": "32" }] }
            }
          },
          "dtype": { "type": "DT_FLOAT" }
        }
      },
      {
        "name": "model_144/tf.nn.convolution_828/convolution/filter",
        "op": "Const",
        "attr": {
          "value": {
            "tensor": {
              "dtype": "DT_FLOAT",
              "tensorShape": {
                "dim": [
                  { "size": "1" },
                  { "size": "1" },
                  { "size": "32" },
                  { "size": "16" }
                ]
              }
            }
          },
          "dtype": { "type": "DT_FLOAT" }
        }
      },
      {
        "name": "model_144/tf.math.add_124/Add/y",
        "op": "Const",
        "attr": {
          "value": {
            "tensor": {
              "dtype": "DT_FLOAT",
              "tensorShape": { "dim": [{ "size": "16" }] }
            }
          },
          "dtype": { "type": "DT_FLOAT" }
        }
      },
      {
        "name": "model_144/tf.concat_16/concat/axis",
        "op": "Const",
        "attr": {
          "value": { "tensor": { "dtype": "DT_INT32", "tensorShape": {} } },
          "dtype": { "type": "DT_INT32" }
        }
      },
      {
        "name": "model_144/tf.nn.convolution_833/convolution/filter",
        "op": "Const",
        "attr": {
          "value": {
            "tensor": {
              "dtype": "DT_FLOAT",
              "tensorShape": {
                "dim": [
                  { "size": "1" },
                  { "size": "1" },
                  { "size": "32" },
                  { "size": "32" }
                ]
              }
            }
          },
          "dtype": { "type": "DT_FLOAT" }
        }
      },
      {
        "name": "model_144/tf.math.add_133/Add/y",
        "op": "Const",
        "attr": {
          "value": {
            "tensor": {
              "dtype": "DT_FLOAT",
              "tensorShape": { "dim": [{ "size": "32" }] }
            }
          },
          "dtype": { "type": "DT_FLOAT" }
        }
      },
      {
        "name": "model_144/tf.concat_17/concat/axis",
        "op": "Const",
        "attr": {
          "value": { "tensor": { "dtype": "DT_INT32", "tensorShape": {} } },
          "dtype": { "type": "DT_INT32" }
        }
      },
      {
        "name": "model_144/tf.nn.convolution_834/convolution/filter",
        "op": "Const",
        "attr": {
          "value": {
            "tensor": {
              "dtype": "DT_FLOAT",
              "tensorShape": {
                "dim": [
                  { "size": "1" },
                  { "size": "1" },
                  { "size": "64" },
                  { "size": "64" }
                ]
              }
            }
          },
          "dtype": { "type": "DT_FLOAT" }
        }
      },
      {
        "name": "model_144/tf.math.add_134/Add/y",
        "op": "Const",
        "attr": {
          "value": {
            "tensor": {
              "dtype": "DT_FLOAT",
              "tensorShape": { "dim": [{ "size": "64" }] }
            }
          },
          "dtype": { "type": "DT_FLOAT" }
        }
      },
      {
        "name": "model_144/tf.compat.v1.pad_5/Pad/paddings",
        "op": "Const",
        "attr": {
          "value": {
            "tensor": {
              "dtype": "DT_INT32",
              "tensorShape": { "dim": [{ "size": "4" }, { "size": "2" }] }
            }
          },
          "dtype": { "type": "DT_INT32" }
        }
      },
      {
        "name": "model_144/tf.nn.convolution_835/convolution/filter",
        "op": "Const",
        "attr": {
          "value": {
            "tensor": {
              "dtype": "DT_FLOAT",
              "tensorShape": {
                "dim": [
                  { "size": "3" },
                  { "size": "3" },
                  { "size": "64" },
                  { "size": "64" }
                ]
              }
            }
          },
          "dtype": { "type": "DT_FLOAT" }
        }
      },
      {
        "name": "model_144/tf.math.add_135/Add/y",
        "op": "Const",
        "attr": {
          "value": {
            "tensor": {
              "dtype": "DT_FLOAT",
              "tensorShape": { "dim": [{ "size": "64" }] }
            }
          },
          "dtype": { "type": "DT_FLOAT" }
        }
      },
      {
        "name": "model_144/tf.nn.convolution_818/convolution/filter",
        "op": "Const",
        "attr": {
          "value": {
            "tensor": {
              "dtype": "DT_FLOAT",
              "tensorShape": {
                "dim": [
                  { "size": "1" },
                  { "size": "1" },
                  { "size": "64" },
                  { "size": "32" }
                ]
              }
            }
          },
          "dtype": { "type": "DT_FLOAT" }
        }
      },
      {
        "name": "model_144/tf.math.add_110/Add/y",
        "op": "Const",
        "attr": {
          "value": {
            "tensor": {
              "dtype": "DT_FLOAT",
              "tensorShape": { "dim": [{ "size": "32" }] }
            }
          },
          "dtype": { "type": "DT_FLOAT" }
        }
      },
      {
        "name": "model_144/tf.nn.convolution_820/convolution/filter",
        "op": "Const",
        "attr": {
          "value": {
            "tensor": {
              "dtype": "DT_FLOAT",
              "tensorShape": {
                "dim": [
                  { "size": "3" },
                  { "size": "3" },
                  { "size": "32" },
                  { "size": "32" }
                ]
              }
            }
          },
          "dtype": { "type": "DT_FLOAT" }
        }
      },
      {
        "name": "model_144/tf.math.add_112/Add/y",
        "op": "Const",
        "attr": {
          "value": {
            "tensor": {
              "dtype": "DT_FLOAT",
              "tensorShape": { "dim": [{ "size": "32" }] }
            }
          },
          "dtype": { "type": "DT_FLOAT" }
        }
      },
      {
        "name": "model_144/tf.nn.convolution_821/convolution/filter",
        "op": "Const",
        "attr": {
          "value": {
            "tensor": {
              "dtype": "DT_FLOAT",
              "tensorShape": {
                "dim": [
                  { "size": "3" },
                  { "size": "3" },
                  { "size": "32" },
                  { "size": "32" }
                ]
              }
            }
          },
          "dtype": { "type": "DT_FLOAT" }
        }
      },
      {
        "name": "model_144/tf.math.add_113/Add/y",
        "op": "Const",
        "attr": {
          "value": {
            "tensor": {
              "dtype": "DT_FLOAT",
              "tensorShape": { "dim": [{ "size": "32" }] }
            }
          },
          "dtype": { "type": "DT_FLOAT" }
        }
      },
      {
        "name": "model_144/tf.nn.convolution_822/convolution/filter",
        "op": "Const",
        "attr": {
          "value": {
            "tensor": {
              "dtype": "DT_FLOAT",
              "tensorShape": {
                "dim": [
                  { "size": "3" },
                  { "size": "3" },
                  { "size": "32" },
                  { "size": "32" }
                ]
              }
            }
          },
          "dtype": { "type": "DT_FLOAT" }
        }
      },
      {
        "name": "model_144/tf.math.add_116/Add/y",
        "op": "Const",
        "attr": {
          "value": {
            "tensor": {
              "dtype": "DT_FLOAT",
              "tensorShape": { "dim": [{ "size": "32" }] }
            }
          },
          "dtype": { "type": "DT_FLOAT" }
        }
      },
      {
        "name": "model_144/tf.nn.convolution_823/convolution/filter",
        "op": "Const",
        "attr": {
          "value": {
            "tensor": {
              "dtype": "DT_FLOAT",
              "tensorShape": {
                "dim": [
                  { "size": "3" },
                  { "size": "3" },
                  { "size": "32" },
                  { "size": "32" }
                ]
              }
            }
          },
          "dtype": { "type": "DT_FLOAT" }
        }
      },
      {
        "name": "model_144/tf.math.add_117/Add/y",
        "op": "Const",
        "attr": {
          "value": {
            "tensor": {
              "dtype": "DT_FLOAT",
              "tensorShape": { "dim": [{ "size": "32" }] }
            }
          },
          "dtype": { "type": "DT_FLOAT" }
        }
      },
      {
        "name": "model_144/tf.image.resize/resize/size",
        "op": "Const",
        "attr": {
          "value": {
            "tensor": {
              "dtype": "DT_INT32",
              "tensorShape": { "dim": [{ "size": "2" }] }
            }
          },
          "dtype": { "type": "DT_INT32" }
        }
      },
      {
        "name": "model_144/tf.concat_12/concat/axis",
        "op": "Const",
        "attr": {
          "value": { "tensor": { "dtype": "DT_INT32", "tensorShape": {} } },
          "dtype": { "type": "DT_INT32" }
        }
      },
      {
        "name": "model_144/tf.nn.convolution_817/convolution/filter",
        "op": "Const",
        "attr": {
          "value": {
            "tensor": {
              "dtype": "DT_FLOAT",
              "tensorShape": {
                "dim": [
                  { "size": "1" },
                  { "size": "1" },
                  { "size": "384" },
                  { "size": "64" }
                ]
              }
            }
          },
          "dtype": { "type": "DT_FLOAT" }
        }
      },
      {
        "name": "model_144/tf.math.add_109/Add/y",
        "op": "Const",
        "attr": {
          "value": {
            "tensor": {
              "dtype": "DT_FLOAT",
              "tensorShape": { "dim": [{ "size": "64" }] }
            }
          },
          "dtype": { "type": "DT_FLOAT" }
        }
      },
      {
        "name": "model_144/tf.nn.convolution_819/convolution/filter",
        "op": "Const",
        "attr": {
          "value": {
            "tensor": {
              "dtype": "DT_FLOAT",
              "tensorShape": {
                "dim": [
                  { "size": "1" },
                  { "size": "1" },
                  { "size": "64" },
                  { "size": "32" }
                ]
              }
            }
          },
          "dtype": { "type": "DT_FLOAT" }
        }
      },
      {
        "name": "model_144/tf.math.add_111/Add/y",
        "op": "Const",
        "attr": {
          "value": {
            "tensor": {
              "dtype": "DT_FLOAT",
              "tensorShape": { "dim": [{ "size": "32" }] }
            }
          },
          "dtype": { "type": "DT_FLOAT" }
        }
      },
      {
        "name": "model_144/tf.concat_13/concat/axis",
        "op": "Const",
        "attr": {
          "value": { "tensor": { "dtype": "DT_INT32", "tensorShape": {} } },
          "dtype": { "type": "DT_INT32" }
        }
      },
      {
        "name": "model_144/tf.nn.convolution_824/convolution/filter",
        "op": "Const",
        "attr": {
          "value": {
            "tensor": {
              "dtype": "DT_FLOAT",
              "tensorShape": {
                "dim": [
                  { "size": "1" },
                  { "size": "1" },
                  { "size": "64" },
                  { "size": "64" }
                ]
              }
            }
          },
          "dtype": { "type": "DT_FLOAT" }
        }
      },
      {
        "name": "model_144/tf.math.add_120/Add/y",
        "op": "Const",
        "attr": {
          "value": {
            "tensor": {
              "dtype": "DT_FLOAT",
              "tensorShape": { "dim": [{ "size": "64" }] }
            }
          },
          "dtype": { "type": "DT_FLOAT" }
        }
      },
      {
        "name": "model_144/tf.concat_14/concat/axis",
        "op": "Const",
        "attr": {
          "value": { "tensor": { "dtype": "DT_INT32", "tensorShape": {} } },
          "dtype": { "type": "DT_INT32" }
        }
      },
      {
        "name": "model_144/tf.nn.convolution_825/convolution/filter",
        "op": "Const",
        "attr": {
          "value": {
            "tensor": {
              "dtype": "DT_FLOAT",
              "tensorShape": {
                "dim": [
                  { "size": "1" },
                  { "size": "1" },
                  { "size": "128" },
                  { "size": "128" }
                ]
              }
            }
          },
          "dtype": { "type": "DT_FLOAT" }
        }
      },
      {
        "name": "model_144/tf.math.add_121/Add/y",
        "op": "Const",
        "attr": {
          "value": {
            "tensor": {
              "dtype": "DT_FLOAT",
              "tensorShape": { "dim": [{ "size": "128" }] }
            }
          },
          "dtype": { "type": "DT_FLOAT" }
        }
      },
      {
        "name": "model_144/tf.concat_18/concat/axis",
        "op": "Const",
        "attr": {
          "value": { "tensor": { "dtype": "DT_INT32", "tensorShape": {} } },
          "dtype": { "type": "DT_INT32" }
        }
      },
      {
        "name": "model_144/tf.nn.convolution_839/convolution/filter",
        "op": "Const",
        "attr": {
          "value": {
            "tensor": {
              "dtype": "DT_FLOAT",
              "tensorShape": {
                "dim": [
                  { "size": "1" },
                  { "size": "1" },
                  { "size": "192" },
                  { "size": "64" }
                ]
              }
            }
          },
          "dtype": { "type": "DT_FLOAT" }
        }
      },
      {
        "name": "model_144/tf.math.add_140/Add/y",
        "op": "Const",
        "attr": {
          "value": {
            "tensor": {
              "dtype": "DT_FLOAT",
              "tensorShape": { "dim": [{ "size": "64" }] }
            }
          },
          "dtype": { "type": "DT_FLOAT" }
        }
      },
      {
        "name": "model_144/tf.nn.convolution_842/convolution/filter",
        "op": "Const",
        "attr": {
          "value": {
            "tensor": {
              "dtype": "DT_FLOAT",
              "tensorShape": {
                "dim": [
                  { "size": "1" },
                  { "size": "1" },
                  { "size": "64" },
                  { "size": "32" }
                ]
              }
            }
          },
          "dtype": { "type": "DT_FLOAT" }
        }
      },
      {
        "name": "model_144/tf.math.add_146/Add/y",
        "op": "Const",
        "attr": {
          "value": {
            "tensor": {
              "dtype": "DT_FLOAT",
              "tensorShape": { "dim": [{ "size": "32" }] }
            }
          },
          "dtype": { "type": "DT_FLOAT" }
        }
      },
      {
        "name": "model_144/tf.concat_22/concat/axis",
        "op": "Const",
        "attr": {
          "value": { "tensor": { "dtype": "DT_INT32", "tensorShape": {} } },
          "dtype": { "type": "DT_INT32" }
        }
      },
      {
        "name": "model_144/tf.nn.convolution_853/convolution/filter",
        "op": "Const",
        "attr": {
          "value": {
            "tensor": {
              "dtype": "DT_FLOAT",
              "tensorShape": {
                "dim": [
                  { "size": "1" },
                  { "size": "1" },
                  { "size": "64" },
                  { "size": "64" }
                ]
              }
            }
          },
          "dtype": { "type": "DT_FLOAT" }
        }
      },
      {
        "name": "model_144/tf.math.add_161/Add/y",
        "op": "Const",
        "attr": {
          "value": {
            "tensor": {
              "dtype": "DT_FLOAT",
              "tensorShape": { "dim": [{ "size": "64" }] }
            }
          },
          "dtype": { "type": "DT_FLOAT" }
        }
      },
      {
        "name": "model_144/tf.concat_23/concat/axis",
        "op": "Const",
        "attr": {
          "value": { "tensor": { "dtype": "DT_INT32", "tensorShape": {} } },
          "dtype": { "type": "DT_INT32" }
        }
      },
      {
        "name": "model_144/tf.nn.convolution_854/convolution/filter",
        "op": "Const",
        "attr": {
          "value": {
            "tensor": {
              "dtype": "DT_FLOAT",
              "tensorShape": {
                "dim": [
                  { "size": "1" },
                  { "size": "1" },
                  { "size": "128" },
                  { "size": "128" }
                ]
              }
            }
          },
          "dtype": { "type": "DT_FLOAT" }
        }
      },
      {
        "name": "model_144/tf.math.add_162/Add/y",
        "op": "Const",
        "attr": {
          "value": {
            "tensor": {
              "dtype": "DT_FLOAT",
              "tensorShape": { "dim": [{ "size": "128" }] }
            }
          },
          "dtype": { "type": "DT_FLOAT" }
        }
      },
      {
        "name": "model_144/tf.compat.v1.pad_6/Pad/paddings",
        "op": "Const",
        "attr": {
          "value": {
            "tensor": {
              "dtype": "DT_INT32",
              "tensorShape": { "dim": [{ "size": "4" }, { "size": "2" }] }
            }
          },
          "dtype": { "type": "DT_INT32" }
        }
      },
      {
        "name": "model_144/tf.nn.convolution_855/convolution/filter",
        "op": "Const",
        "attr": {
          "value": {
            "tensor": {
              "dtype": "DT_FLOAT",
              "tensorShape": {
                "dim": [
                  { "size": "3" },
                  { "size": "3" },
                  { "size": "128" },
                  { "size": "128" }
                ]
              }
            }
          },
          "dtype": { "type": "DT_FLOAT" }
        }
      },
      {
        "name": "model_144/tf.math.add_163/Add/y",
        "op": "Const",
        "attr": {
          "value": {
            "tensor": {
              "dtype": "DT_FLOAT",
              "tensorShape": { "dim": [{ "size": "128" }] }
            }
          },
          "dtype": { "type": "DT_FLOAT" }
        }
      },
      {
        "name": "model_144/tf.math.add_105/Add/y",
        "op": "Const",
        "attr": {
          "value": {
            "tensor": {
              "dtype": "DT_FLOAT",
              "tensorShape": { "dim": [{ "size": "128" }] }
            }
          },
          "dtype": { "type": "DT_FLOAT" }
        }
      },
      {
        "name": "model_144/tf.math.add_101/Add/y",
        "op": "Const",
        "attr": {
          "value": {
            "tensor": {
              "dtype": "DT_FLOAT",
              "tensorShape": { "dim": [{ "size": "128" }] }
            }
          },
          "dtype": { "type": "DT_FLOAT" }
        }
      },
      {
        "name": "model_144/tf.math.add_98/Add/y",
        "op": "Const",
        "attr": {
          "value": {
            "tensor": {
              "dtype": "DT_FLOAT",
              "tensorShape": { "dim": [{ "size": "128" }] }
            }
          },
          "dtype": { "type": "DT_FLOAT" }
        }
      },
      {
        "name": "model_144/tf.nn.convolution_685/convolution/filter",
        "op": "Const",
        "attr": {
          "value": {
            "tensor": {
              "dtype": "DT_FLOAT",
              "tensorShape": {
                "dim": [
                  { "size": "7" },
                  { "size": "7" },
                  { "size": "1" },
                  { "size": "1" }
                ]
              }
            }
          },
          "dtype": { "type": "DT_FLOAT" }
        }
      },
      {
        "name": "model_144/tf.nn.convolution_686/convolution/filter",
        "op": "Const",
        "attr": {
          "value": {
            "tensor": {
              "dtype": "DT_FLOAT",
              "tensorShape": {
                "dim": [
                  { "size": "7" },
                  { "size": "7" },
                  { "size": "1" },
                  { "size": "1" }
                ]
              }
            }
          },
          "dtype": { "type": "DT_FLOAT" }
        }
      },
      {
        "name": "model_144/tf.nn.convolution_687/convolution/filter",
        "op": "Const",
        "attr": {
          "value": {
            "tensor": {
              "dtype": "DT_FLOAT",
              "tensorShape": {
                "dim": [
                  { "size": "7" },
                  { "size": "7" },
                  { "size": "1" },
                  { "size": "1" }
                ]
              }
            }
          },
          "dtype": { "type": "DT_FLOAT" }
        }
      },
      {
        "name": "model_144/tf.nn.convolution_688/convolution/filter",
        "op": "Const",
        "attr": {
          "value": {
            "tensor": {
              "dtype": "DT_FLOAT",
              "tensorShape": {
                "dim": [
                  { "size": "7" },
                  { "size": "7" },
                  { "size": "1" },
                  { "size": "1" }
                ]
              }
            }
          },
          "dtype": { "type": "DT_FLOAT" }
        }
      },
      {
        "name": "model_144/tf.nn.convolution_689/convolution/filter",
        "op": "Const",
        "attr": {
          "value": {
            "tensor": {
              "dtype": "DT_FLOAT",
              "tensorShape": {
                "dim": [
                  { "size": "7" },
                  { "size": "7" },
                  { "size": "1" },
                  { "size": "1" }
                ]
              }
            }
          },
          "dtype": { "type": "DT_FLOAT" }
        }
      },
      {
        "name": "model_144/tf.nn.convolution_690/convolution/filter",
        "op": "Const",
        "attr": {
          "value": {
            "tensor": {
              "dtype": "DT_FLOAT",
              "tensorShape": {
                "dim": [
                  { "size": "7" },
                  { "size": "7" },
                  { "size": "1" },
                  { "size": "1" }
                ]
              }
            }
          },
          "dtype": { "type": "DT_FLOAT" }
        }
      },
      {
        "name": "model_144/tf.nn.convolution_691/convolution/filter",
        "op": "Const",
        "attr": {
          "value": {
            "tensor": {
              "dtype": "DT_FLOAT",
              "tensorShape": {
                "dim": [
                  { "size": "7" },
                  { "size": "7" },
                  { "size": "1" },
                  { "size": "1" }
                ]
              }
            }
          },
          "dtype": { "type": "DT_FLOAT" }
        }
      },
      {
        "name": "model_144/tf.nn.convolution_692/convolution/filter",
        "op": "Const",
        "attr": {
          "value": {
            "tensor": {
              "dtype": "DT_FLOAT",
              "tensorShape": {
                "dim": [
                  { "size": "7" },
                  { "size": "7" },
                  { "size": "1" },
                  { "size": "1" }
                ]
              }
            }
          },
          "dtype": { "type": "DT_FLOAT" }
        }
      },
      {
        "name": "model_144/tf.nn.convolution_693/convolution/filter",
        "op": "Const",
        "attr": {
          "value": {
            "tensor": {
              "dtype": "DT_FLOAT",
              "tensorShape": {
                "dim": [
                  { "size": "7" },
                  { "size": "7" },
                  { "size": "1" },
                  { "size": "1" }
                ]
              }
            }
          },
          "dtype": { "type": "DT_FLOAT" }
        }
      },
      {
        "name": "model_144/tf.nn.convolution_694/convolution/filter",
        "op": "Const",
        "attr": {
          "value": {
            "tensor": {
              "dtype": "DT_FLOAT",
              "tensorShape": {
                "dim": [
                  { "size": "7" },
                  { "size": "7" },
                  { "size": "1" },
                  { "size": "1" }
                ]
              }
            }
          },
          "dtype": { "type": "DT_FLOAT" }
        }
      },
      {
        "name": "model_144/tf.nn.convolution_695/convolution/filter",
        "op": "Const",
        "attr": {
          "value": {
            "tensor": {
              "dtype": "DT_FLOAT",
              "tensorShape": {
                "dim": [
                  { "size": "7" },
                  { "size": "7" },
                  { "size": "1" },
                  { "size": "1" }
                ]
              }
            }
          },
          "dtype": { "type": "DT_FLOAT" }
        }
      },
      {
        "name": "model_144/tf.nn.convolution_696/convolution/filter",
        "op": "Const",
        "attr": {
          "value": {
            "tensor": {
              "dtype": "DT_FLOAT",
              "tensorShape": {
                "dim": [
                  { "size": "7" },
                  { "size": "7" },
                  { "size": "1" },
                  { "size": "1" }
                ]
              }
            }
          },
          "dtype": { "type": "DT_FLOAT" }
        }
      },
      {
        "name": "model_144/tf.nn.convolution_697/convolution/filter",
        "op": "Const",
        "attr": {
          "value": {
            "tensor": {
              "dtype": "DT_FLOAT",
              "tensorShape": {
                "dim": [
                  { "size": "7" },
                  { "size": "7" },
                  { "size": "1" },
                  { "size": "1" }
                ]
              }
            }
          },
          "dtype": { "type": "DT_FLOAT" }
        }
      },
      {
        "name": "model_144/tf.nn.convolution_698/convolution/filter",
        "op": "Const",
        "attr": {
          "value": {
            "tensor": {
              "dtype": "DT_FLOAT",
              "tensorShape": {
                "dim": [
                  { "size": "7" },
                  { "size": "7" },
                  { "size": "1" },
                  { "size": "1" }
                ]
              }
            }
          },
          "dtype": { "type": "DT_FLOAT" }
        }
      },
      {
        "name": "model_144/tf.nn.convolution_699/convolution/filter",
        "op": "Const",
        "attr": {
          "value": {
            "tensor": {
              "dtype": "DT_FLOAT",
              "tensorShape": {
                "dim": [
                  { "size": "7" },
                  { "size": "7" },
                  { "size": "1" },
                  { "size": "1" }
                ]
              }
            }
          },
          "dtype": { "type": "DT_FLOAT" }
        }
      },
      {
        "name": "model_144/tf.nn.convolution_700/convolution/filter",
        "op": "Const",
        "attr": {
          "value": {
            "tensor": {
              "dtype": "DT_FLOAT",
              "tensorShape": {
                "dim": [
                  { "size": "7" },
                  { "size": "7" },
                  { "size": "1" },
                  { "size": "1" }
                ]
              }
            }
          },
          "dtype": { "type": "DT_FLOAT" }
        }
      },
      {
        "name": "model_144/tf.nn.convolution_701/convolution/filter",
        "op": "Const",
        "attr": {
          "value": {
            "tensor": {
              "dtype": "DT_FLOAT",
              "tensorShape": {
                "dim": [
                  { "size": "7" },
                  { "size": "7" },
                  { "size": "1" },
                  { "size": "1" }
                ]
              }
            }
          },
          "dtype": { "type": "DT_FLOAT" }
        }
      },
      {
        "name": "model_144/tf.nn.convolution_702/convolution/filter",
        "op": "Const",
        "attr": {
          "value": {
            "tensor": {
              "dtype": "DT_FLOAT",
              "tensorShape": {
                "dim": [
                  { "size": "7" },
                  { "size": "7" },
                  { "size": "1" },
                  { "size": "1" }
                ]
              }
            }
          },
          "dtype": { "type": "DT_FLOAT" }
        }
      },
      {
        "name": "model_144/tf.nn.convolution_703/convolution/filter",
        "op": "Const",
        "attr": {
          "value": {
            "tensor": {
              "dtype": "DT_FLOAT",
              "tensorShape": {
                "dim": [
                  { "size": "7" },
                  { "size": "7" },
                  { "size": "1" },
                  { "size": "1" }
                ]
              }
            }
          },
          "dtype": { "type": "DT_FLOAT" }
        }
      },
      {
        "name": "model_144/tf.nn.convolution_704/convolution/filter",
        "op": "Const",
        "attr": {
          "value": {
            "tensor": {
              "dtype": "DT_FLOAT",
              "tensorShape": {
                "dim": [
                  { "size": "7" },
                  { "size": "7" },
                  { "size": "1" },
                  { "size": "1" }
                ]
              }
            }
          },
          "dtype": { "type": "DT_FLOAT" }
        }
      },
      {
        "name": "model_144/tf.nn.convolution_705/convolution/filter",
        "op": "Const",
        "attr": {
          "value": {
            "tensor": {
              "dtype": "DT_FLOAT",
              "tensorShape": {
                "dim": [
                  { "size": "7" },
                  { "size": "7" },
                  { "size": "1" },
                  { "size": "1" }
                ]
              }
            }
          },
          "dtype": { "type": "DT_FLOAT" }
        }
      },
      {
        "name": "model_144/tf.nn.convolution_706/convolution/filter",
        "op": "Const",
        "attr": {
          "value": {
            "tensor": {
              "dtype": "DT_FLOAT",
              "tensorShape": {
                "dim": [
                  { "size": "7" },
                  { "size": "7" },
                  { "size": "1" },
                  { "size": "1" }
                ]
              }
            }
          },
          "dtype": { "type": "DT_FLOAT" }
        }
      },
      {
        "name": "model_144/tf.nn.convolution_707/convolution/filter",
        "op": "Const",
        "attr": {
          "value": {
            "tensor": {
              "dtype": "DT_FLOAT",
              "tensorShape": {
                "dim": [
                  { "size": "7" },
                  { "size": "7" },
                  { "size": "1" },
                  { "size": "1" }
                ]
              }
            }
          },
          "dtype": { "type": "DT_FLOAT" }
        }
      },
      {
        "name": "model_144/tf.nn.convolution_708/convolution/filter",
        "op": "Const",
        "attr": {
          "value": {
            "tensor": {
              "dtype": "DT_FLOAT",
              "tensorShape": {
                "dim": [
                  { "size": "7" },
                  { "size": "7" },
                  { "size": "1" },
                  { "size": "1" }
                ]
              }
            }
          },
          "dtype": { "type": "DT_FLOAT" }
        }
      },
      {
        "name": "model_144/tf.nn.convolution_709/convolution/filter",
        "op": "Const",
        "attr": {
          "value": {
            "tensor": {
              "dtype": "DT_FLOAT",
              "tensorShape": {
                "dim": [
                  { "size": "7" },
                  { "size": "7" },
                  { "size": "1" },
                  { "size": "1" }
                ]
              }
            }
          },
          "dtype": { "type": "DT_FLOAT" }
        }
      },
      {
        "name": "model_144/tf.nn.convolution_710/convolution/filter",
        "op": "Const",
        "attr": {
          "value": {
            "tensor": {
              "dtype": "DT_FLOAT",
              "tensorShape": {
                "dim": [
                  { "size": "7" },
                  { "size": "7" },
                  { "size": "1" },
                  { "size": "1" }
                ]
              }
            }
          },
          "dtype": { "type": "DT_FLOAT" }
        }
      },
      {
        "name": "model_144/tf.nn.convolution_711/convolution/filter",
        "op": "Const",
        "attr": {
          "value": {
            "tensor": {
              "dtype": "DT_FLOAT",
              "tensorShape": {
                "dim": [
                  { "size": "7" },
                  { "size": "7" },
                  { "size": "1" },
                  { "size": "1" }
                ]
              }
            }
          },
          "dtype": { "type": "DT_FLOAT" }
        }
      },
      {
        "name": "model_144/tf.nn.convolution_712/convolution/filter",
        "op": "Const",
        "attr": {
          "value": {
            "tensor": {
              "dtype": "DT_FLOAT",
              "tensorShape": {
                "dim": [
                  { "size": "7" },
                  { "size": "7" },
                  { "size": "1" },
                  { "size": "1" }
                ]
              }
            }
          },
          "dtype": { "type": "DT_FLOAT" }
        }
      },
      {
        "name": "model_144/tf.nn.convolution_713/convolution/filter",
        "op": "Const",
        "attr": {
          "value": {
            "tensor": {
              "dtype": "DT_FLOAT",
              "tensorShape": {
                "dim": [
                  { "size": "7" },
                  { "size": "7" },
                  { "size": "1" },
                  { "size": "1" }
                ]
              }
            }
          },
          "dtype": { "type": "DT_FLOAT" }
        }
      },
      {
        "name": "model_144/tf.nn.convolution_714/convolution/filter",
        "op": "Const",
        "attr": {
          "value": {
            "tensor": {
              "dtype": "DT_FLOAT",
              "tensorShape": {
                "dim": [
                  { "size": "7" },
                  { "size": "7" },
                  { "size": "1" },
                  { "size": "1" }
                ]
              }
            }
          },
          "dtype": { "type": "DT_FLOAT" }
        }
      },
      {
        "name": "model_144/tf.nn.convolution_715/convolution/filter",
        "op": "Const",
        "attr": {
          "value": {
            "tensor": {
              "dtype": "DT_FLOAT",
              "tensorShape": {
                "dim": [
                  { "size": "7" },
                  { "size": "7" },
                  { "size": "1" },
                  { "size": "1" }
                ]
              }
            }
          },
          "dtype": { "type": "DT_FLOAT" }
        }
      },
      {
        "name": "model_144/tf.nn.convolution_716/convolution/filter",
        "op": "Const",
        "attr": {
          "value": {
            "tensor": {
              "dtype": "DT_FLOAT",
              "tensorShape": {
                "dim": [
                  { "size": "7" },
                  { "size": "7" },
                  { "size": "1" },
                  { "size": "1" }
                ]
              }
            }
          },
          "dtype": { "type": "DT_FLOAT" }
        }
      },
      {
        "name": "model_144/tf.nn.convolution_717/convolution/filter",
        "op": "Const",
        "attr": {
          "value": {
            "tensor": {
              "dtype": "DT_FLOAT",
              "tensorShape": {
                "dim": [
                  { "size": "7" },
                  { "size": "7" },
                  { "size": "1" },
                  { "size": "1" }
                ]
              }
            }
          },
          "dtype": { "type": "DT_FLOAT" }
        }
      },
      {
        "name": "model_144/tf.nn.convolution_718/convolution/filter",
        "op": "Const",
        "attr": {
          "value": {
            "tensor": {
              "dtype": "DT_FLOAT",
              "tensorShape": {
                "dim": [
                  { "size": "7" },
                  { "size": "7" },
                  { "size": "1" },
                  { "size": "1" }
                ]
              }
            }
          },
          "dtype": { "type": "DT_FLOAT" }
        }
      },
      {
        "name": "model_144/tf.nn.convolution_719/convolution/filter",
        "op": "Const",
        "attr": {
          "value": {
            "tensor": {
              "dtype": "DT_FLOAT",
              "tensorShape": {
                "dim": [
                  { "size": "7" },
                  { "size": "7" },
                  { "size": "1" },
                  { "size": "1" }
                ]
              }
            }
          },
          "dtype": { "type": "DT_FLOAT" }
        }
      },
      {
        "name": "model_144/tf.nn.convolution_720/convolution/filter",
        "op": "Const",
        "attr": {
          "value": {
            "tensor": {
              "dtype": "DT_FLOAT",
              "tensorShape": {
                "dim": [
                  { "size": "7" },
                  { "size": "7" },
                  { "size": "1" },
                  { "size": "1" }
                ]
              }
            }
          },
          "dtype": { "type": "DT_FLOAT" }
        }
      },
      {
        "name": "model_144/tf.nn.convolution_721/convolution/filter",
        "op": "Const",
        "attr": {
          "value": {
            "tensor": {
              "dtype": "DT_FLOAT",
              "tensorShape": {
                "dim": [
                  { "size": "7" },
                  { "size": "7" },
                  { "size": "1" },
                  { "size": "1" }
                ]
              }
            }
          },
          "dtype": { "type": "DT_FLOAT" }
        }
      },
      {
        "name": "model_144/tf.nn.convolution_722/convolution/filter",
        "op": "Const",
        "attr": {
          "value": {
            "tensor": {
              "dtype": "DT_FLOAT",
              "tensorShape": {
                "dim": [
                  { "size": "7" },
                  { "size": "7" },
                  { "size": "1" },
                  { "size": "1" }
                ]
              }
            }
          },
          "dtype": { "type": "DT_FLOAT" }
        }
      },
      {
        "name": "model_144/tf.nn.convolution_723/convolution/filter",
        "op": "Const",
        "attr": {
          "value": {
            "tensor": {
              "dtype": "DT_FLOAT",
              "tensorShape": {
                "dim": [
                  { "size": "7" },
                  { "size": "7" },
                  { "size": "1" },
                  { "size": "1" }
                ]
              }
            }
          },
          "dtype": { "type": "DT_FLOAT" }
        }
      },
      {
        "name": "model_144/tf.nn.convolution_724/convolution/filter",
        "op": "Const",
        "attr": {
          "value": {
            "tensor": {
              "dtype": "DT_FLOAT",
              "tensorShape": {
                "dim": [
                  { "size": "7" },
                  { "size": "7" },
                  { "size": "1" },
                  { "size": "1" }
                ]
              }
            }
          },
          "dtype": { "type": "DT_FLOAT" }
        }
      },
      {
        "name": "model_144/tf.nn.convolution_725/convolution/filter",
        "op": "Const",
        "attr": {
          "value": {
            "tensor": {
              "dtype": "DT_FLOAT",
              "tensorShape": {
                "dim": [
                  { "size": "7" },
                  { "size": "7" },
                  { "size": "1" },
                  { "size": "1" }
                ]
              }
            }
          },
          "dtype": { "type": "DT_FLOAT" }
        }
      },
      {
        "name": "model_144/tf.nn.convolution_726/convolution/filter",
        "op": "Const",
        "attr": {
          "value": {
            "tensor": {
              "dtype": "DT_FLOAT",
              "tensorShape": {
                "dim": [
                  { "size": "7" },
                  { "size": "7" },
                  { "size": "1" },
                  { "size": "1" }
                ]
              }
            }
          },
          "dtype": { "type": "DT_FLOAT" }
        }
      },
      {
        "name": "model_144/tf.nn.convolution_727/convolution/filter",
        "op": "Const",
        "attr": {
          "value": {
            "tensor": {
              "dtype": "DT_FLOAT",
              "tensorShape": {
                "dim": [
                  { "size": "7" },
                  { "size": "7" },
                  { "size": "1" },
                  { "size": "1" }
                ]
              }
            }
          },
          "dtype": { "type": "DT_FLOAT" }
        }
      },
      {
        "name": "model_144/tf.nn.convolution_728/convolution/filter",
        "op": "Const",
        "attr": {
          "value": {
            "tensor": {
              "dtype": "DT_FLOAT",
              "tensorShape": {
                "dim": [
                  { "size": "7" },
                  { "size": "7" },
                  { "size": "1" },
                  { "size": "1" }
                ]
              }
            }
          },
          "dtype": { "type": "DT_FLOAT" }
        }
      },
      {
        "name": "model_144/tf.nn.convolution_729/convolution/filter",
        "op": "Const",
        "attr": {
          "value": {
            "tensor": {
              "dtype": "DT_FLOAT",
              "tensorShape": {
                "dim": [
                  { "size": "7" },
                  { "size": "7" },
                  { "size": "1" },
                  { "size": "1" }
                ]
              }
            }
          },
          "dtype": { "type": "DT_FLOAT" }
        }
      },
      {
        "name": "model_144/tf.nn.convolution_730/convolution/filter",
        "op": "Const",
        "attr": {
          "value": {
            "tensor": {
              "dtype": "DT_FLOAT",
              "tensorShape": {
                "dim": [
                  { "size": "7" },
                  { "size": "7" },
                  { "size": "1" },
                  { "size": "1" }
                ]
              }
            }
          },
          "dtype": { "type": "DT_FLOAT" }
        }
      },
      {
        "name": "model_144/tf.nn.convolution_731/convolution/filter",
        "op": "Const",
        "attr": {
          "value": {
            "tensor": {
              "dtype": "DT_FLOAT",
              "tensorShape": {
                "dim": [
                  { "size": "7" },
                  { "size": "7" },
                  { "size": "1" },
                  { "size": "1" }
                ]
              }
            }
          },
          "dtype": { "type": "DT_FLOAT" }
        }
      },
      {
        "name": "model_144/tf.nn.convolution_732/convolution/filter",
        "op": "Const",
        "attr": {
          "value": {
            "tensor": {
              "dtype": "DT_FLOAT",
              "tensorShape": {
                "dim": [
                  { "size": "7" },
                  { "size": "7" },
                  { "size": "1" },
                  { "size": "1" }
                ]
              }
            }
          },
          "dtype": { "type": "DT_FLOAT" }
        }
      },
      {
        "name": "model_144/tf.nn.convolution_733/convolution/filter",
        "op": "Const",
        "attr": {
          "value": {
            "tensor": {
              "dtype": "DT_FLOAT",
              "tensorShape": {
                "dim": [
                  { "size": "7" },
                  { "size": "7" },
                  { "size": "1" },
                  { "size": "1" }
                ]
              }
            }
          },
          "dtype": { "type": "DT_FLOAT" }
        }
      },
      {
        "name": "model_144/tf.nn.convolution_734/convolution/filter",
        "op": "Const",
        "attr": {
          "value": {
            "tensor": {
              "dtype": "DT_FLOAT",
              "tensorShape": {
                "dim": [
                  { "size": "7" },
                  { "size": "7" },
                  { "size": "1" },
                  { "size": "1" }
                ]
              }
            }
          },
          "dtype": { "type": "DT_FLOAT" }
        }
      },
      {
        "name": "model_144/tf.nn.convolution_735/convolution/filter",
        "op": "Const",
        "attr": {
          "value": {
            "tensor": {
              "dtype": "DT_FLOAT",
              "tensorShape": {
                "dim": [
                  { "size": "7" },
                  { "size": "7" },
                  { "size": "1" },
                  { "size": "1" }
                ]
              }
            }
          },
          "dtype": { "type": "DT_FLOAT" }
        }
      },
      {
        "name": "model_144/tf.nn.convolution_736/convolution/filter",
        "op": "Const",
        "attr": {
          "value": {
            "tensor": {
              "dtype": "DT_FLOAT",
              "tensorShape": {
                "dim": [
                  { "size": "7" },
                  { "size": "7" },
                  { "size": "1" },
                  { "size": "1" }
                ]
              }
            }
          },
          "dtype": { "type": "DT_FLOAT" }
        }
      },
      {
        "name": "model_144/tf.nn.convolution_737/convolution/filter",
        "op": "Const",
        "attr": {
          "value": {
            "tensor": {
              "dtype": "DT_FLOAT",
              "tensorShape": {
                "dim": [
                  { "size": "7" },
                  { "size": "7" },
                  { "size": "1" },
                  { "size": "1" }
                ]
              }
            }
          },
          "dtype": { "type": "DT_FLOAT" }
        }
      },
      {
        "name": "model_144/tf.nn.convolution_738/convolution/filter",
        "op": "Const",
        "attr": {
          "value": {
            "tensor": {
              "dtype": "DT_FLOAT",
              "tensorShape": {
                "dim": [
                  { "size": "7" },
                  { "size": "7" },
                  { "size": "1" },
                  { "size": "1" }
                ]
              }
            }
          },
          "dtype": { "type": "DT_FLOAT" }
        }
      },
      {
        "name": "model_144/tf.nn.convolution_739/convolution/filter",
        "op": "Const",
        "attr": {
          "value": {
            "tensor": {
              "dtype": "DT_FLOAT",
              "tensorShape": {
                "dim": [
                  { "size": "7" },
                  { "size": "7" },
                  { "size": "1" },
                  { "size": "1" }
                ]
              }
            }
          },
          "dtype": { "type": "DT_FLOAT" }
        }
      },
      {
        "name": "model_144/tf.nn.convolution_740/convolution/filter",
        "op": "Const",
        "attr": {
          "value": {
            "tensor": {
              "dtype": "DT_FLOAT",
              "tensorShape": {
                "dim": [
                  { "size": "7" },
                  { "size": "7" },
                  { "size": "1" },
                  { "size": "1" }
                ]
              }
            }
          },
          "dtype": { "type": "DT_FLOAT" }
        }
      },
      {
        "name": "model_144/tf.nn.convolution_741/convolution/filter",
        "op": "Const",
        "attr": {
          "value": {
            "tensor": {
              "dtype": "DT_FLOAT",
              "tensorShape": {
                "dim": [
                  { "size": "7" },
                  { "size": "7" },
                  { "size": "1" },
                  { "size": "1" }
                ]
              }
            }
          },
          "dtype": { "type": "DT_FLOAT" }
        }
      },
      {
        "name": "model_144/tf.nn.convolution_742/convolution/filter",
        "op": "Const",
        "attr": {
          "value": {
            "tensor": {
              "dtype": "DT_FLOAT",
              "tensorShape": {
                "dim": [
                  { "size": "7" },
                  { "size": "7" },
                  { "size": "1" },
                  { "size": "1" }
                ]
              }
            }
          },
          "dtype": { "type": "DT_FLOAT" }
        }
      },
      {
        "name": "model_144/tf.nn.convolution_743/convolution/filter",
        "op": "Const",
        "attr": {
          "value": {
            "tensor": {
              "dtype": "DT_FLOAT",
              "tensorShape": {
                "dim": [
                  { "size": "7" },
                  { "size": "7" },
                  { "size": "1" },
                  { "size": "1" }
                ]
              }
            }
          },
          "dtype": { "type": "DT_FLOAT" }
        }
      },
      {
        "name": "model_144/tf.nn.convolution_744/convolution/filter",
        "op": "Const",
        "attr": {
          "value": {
            "tensor": {
              "dtype": "DT_FLOAT",
              "tensorShape": {
                "dim": [
                  { "size": "7" },
                  { "size": "7" },
                  { "size": "1" },
                  { "size": "1" }
                ]
              }
            }
          },
          "dtype": { "type": "DT_FLOAT" }
        }
      },
      {
        "name": "model_144/tf.nn.convolution_745/convolution/filter",
        "op": "Const",
        "attr": {
          "value": {
            "tensor": {
              "dtype": "DT_FLOAT",
              "tensorShape": {
                "dim": [
                  { "size": "7" },
                  { "size": "7" },
                  { "size": "1" },
                  { "size": "1" }
                ]
              }
            }
          },
          "dtype": { "type": "DT_FLOAT" }
        }
      },
      {
        "name": "model_144/tf.nn.convolution_746/convolution/filter",
        "op": "Const",
        "attr": {
          "value": {
            "tensor": {
              "dtype": "DT_FLOAT",
              "tensorShape": {
                "dim": [
                  { "size": "7" },
                  { "size": "7" },
                  { "size": "1" },
                  { "size": "1" }
                ]
              }
            }
          },
          "dtype": { "type": "DT_FLOAT" }
        }
      },
      {
        "name": "model_144/tf.nn.convolution_747/convolution/filter",
        "op": "Const",
        "attr": {
          "value": {
            "tensor": {
              "dtype": "DT_FLOAT",
              "tensorShape": {
                "dim": [
                  { "size": "7" },
                  { "size": "7" },
                  { "size": "1" },
                  { "size": "1" }
                ]
              }
            }
          },
          "dtype": { "type": "DT_FLOAT" }
        }
      },
      {
        "name": "model_144/tf.nn.convolution_748/convolution/filter",
        "op": "Const",
        "attr": {
          "value": {
            "tensor": {
              "dtype": "DT_FLOAT",
              "tensorShape": {
                "dim": [
                  { "size": "7" },
                  { "size": "7" },
                  { "size": "1" },
                  { "size": "1" }
                ]
              }
            }
          },
          "dtype": { "type": "DT_FLOAT" }
        }
      },
      {
        "name": "model_144/tf.nn.convolution_749/convolution/filter",
        "op": "Const",
        "attr": {
          "value": {
            "tensor": {
              "dtype": "DT_FLOAT",
              "tensorShape": {
                "dim": [
                  { "size": "7" },
                  { "size": "7" },
                  { "size": "1" },
                  { "size": "1" }
                ]
              }
            }
          },
          "dtype": { "type": "DT_FLOAT" }
        }
      },
      {
        "name": "model_144/tf.nn.convolution_750/convolution/filter",
        "op": "Const",
        "attr": {
          "value": {
            "tensor": {
              "dtype": "DT_FLOAT",
              "tensorShape": {
                "dim": [
                  { "size": "7" },
                  { "size": "7" },
                  { "size": "1" },
                  { "size": "1" }
                ]
              }
            }
          },
          "dtype": { "type": "DT_FLOAT" }
        }
      },
      {
        "name": "model_144/tf.nn.convolution_751/convolution/filter",
        "op": "Const",
        "attr": {
          "value": {
            "tensor": {
              "dtype": "DT_FLOAT",
              "tensorShape": {
                "dim": [
                  { "size": "7" },
                  { "size": "7" },
                  { "size": "1" },
                  { "size": "1" }
                ]
              }
            }
          },
          "dtype": { "type": "DT_FLOAT" }
        }
      },
      {
        "name": "model_144/tf.nn.convolution_752/convolution/filter",
        "op": "Const",
        "attr": {
          "value": {
            "tensor": {
              "dtype": "DT_FLOAT",
              "tensorShape": {
                "dim": [
                  { "size": "7" },
                  { "size": "7" },
                  { "size": "1" },
                  { "size": "1" }
                ]
              }
            }
          },
          "dtype": { "type": "DT_FLOAT" }
        }
      },
      {
        "name": "model_144/tf.nn.convolution_753/convolution/filter",
        "op": "Const",
        "attr": {
          "value": {
            "tensor": {
              "dtype": "DT_FLOAT",
              "tensorShape": {
                "dim": [
                  { "size": "7" },
                  { "size": "7" },
                  { "size": "1" },
                  { "size": "1" }
                ]
              }
            }
          },
          "dtype": { "type": "DT_FLOAT" }
        }
      },
      {
        "name": "model_144/tf.nn.convolution_754/convolution/filter",
        "op": "Const",
        "attr": {
          "value": {
            "tensor": {
              "dtype": "DT_FLOAT",
              "tensorShape": {
                "dim": [
                  { "size": "7" },
                  { "size": "7" },
                  { "size": "1" },
                  { "size": "1" }
                ]
              }
            }
          },
          "dtype": { "type": "DT_FLOAT" }
        }
      },
      {
        "name": "model_144/tf.nn.convolution_755/convolution/filter",
        "op": "Const",
        "attr": {
          "value": {
            "tensor": {
              "dtype": "DT_FLOAT",
              "tensorShape": {
                "dim": [
                  { "size": "7" },
                  { "size": "7" },
                  { "size": "1" },
                  { "size": "1" }
                ]
              }
            }
          },
          "dtype": { "type": "DT_FLOAT" }
        }
      },
      {
        "name": "model_144/tf.nn.convolution_756/convolution/filter",
        "op": "Const",
        "attr": {
          "value": {
            "tensor": {
              "dtype": "DT_FLOAT",
              "tensorShape": {
                "dim": [
                  { "size": "7" },
                  { "size": "7" },
                  { "size": "1" },
                  { "size": "1" }
                ]
              }
            }
          },
          "dtype": { "type": "DT_FLOAT" }
        }
      },
      {
        "name": "model_144/tf.nn.convolution_757/convolution/filter",
        "op": "Const",
        "attr": {
          "value": {
            "tensor": {
              "dtype": "DT_FLOAT",
              "tensorShape": {
                "dim": [
                  { "size": "7" },
                  { "size": "7" },
                  { "size": "1" },
                  { "size": "1" }
                ]
              }
            }
          },
          "dtype": { "type": "DT_FLOAT" }
        }
      },
      {
        "name": "model_144/tf.nn.convolution_758/convolution/filter",
        "op": "Const",
        "attr": {
          "value": {
            "tensor": {
              "dtype": "DT_FLOAT",
              "tensorShape": {
                "dim": [
                  { "size": "7" },
                  { "size": "7" },
                  { "size": "1" },
                  { "size": "1" }
                ]
              }
            }
          },
          "dtype": { "type": "DT_FLOAT" }
        }
      },
      {
        "name": "model_144/tf.nn.convolution_759/convolution/filter",
        "op": "Const",
        "attr": {
          "value": {
            "tensor": {
              "dtype": "DT_FLOAT",
              "tensorShape": {
                "dim": [
                  { "size": "7" },
                  { "size": "7" },
                  { "size": "1" },
                  { "size": "1" }
                ]
              }
            }
          },
          "dtype": { "type": "DT_FLOAT" }
        }
      },
      {
        "name": "model_144/tf.nn.convolution_760/convolution/filter",
        "op": "Const",
        "attr": {
          "value": {
            "tensor": {
              "dtype": "DT_FLOAT",
              "tensorShape": {
                "dim": [
                  { "size": "7" },
                  { "size": "7" },
                  { "size": "1" },
                  { "size": "1" }
                ]
              }
            }
          },
          "dtype": { "type": "DT_FLOAT" }
        }
      },
      {
        "name": "model_144/tf.nn.convolution_761/convolution/filter",
        "op": "Const",
        "attr": {
          "value": {
            "tensor": {
              "dtype": "DT_FLOAT",
              "tensorShape": {
                "dim": [
                  { "size": "7" },
                  { "size": "7" },
                  { "size": "1" },
                  { "size": "1" }
                ]
              }
            }
          },
          "dtype": { "type": "DT_FLOAT" }
        }
      },
      {
        "name": "model_144/tf.nn.convolution_762/convolution/filter",
        "op": "Const",
        "attr": {
          "value": {
            "tensor": {
              "dtype": "DT_FLOAT",
              "tensorShape": {
                "dim": [
                  { "size": "7" },
                  { "size": "7" },
                  { "size": "1" },
                  { "size": "1" }
                ]
              }
            }
          },
          "dtype": { "type": "DT_FLOAT" }
        }
      },
      {
        "name": "model_144/tf.nn.convolution_763/convolution/filter",
        "op": "Const",
        "attr": {
          "value": {
            "tensor": {
              "dtype": "DT_FLOAT",
              "tensorShape": {
                "dim": [
                  { "size": "7" },
                  { "size": "7" },
                  { "size": "1" },
                  { "size": "1" }
                ]
              }
            }
          },
          "dtype": { "type": "DT_FLOAT" }
        }
      },
      {
        "name": "model_144/tf.nn.convolution_764/convolution/filter",
        "op": "Const",
        "attr": {
          "value": {
            "tensor": {
              "dtype": "DT_FLOAT",
              "tensorShape": {
                "dim": [
                  { "size": "7" },
                  { "size": "7" },
                  { "size": "1" },
                  { "size": "1" }
                ]
              }
            }
          },
          "dtype": { "type": "DT_FLOAT" }
        }
      },
      {
        "name": "model_144/tf.nn.convolution_765/convolution/filter",
        "op": "Const",
        "attr": {
          "value": {
            "tensor": {
              "dtype": "DT_FLOAT",
              "tensorShape": {
                "dim": [
                  { "size": "7" },
                  { "size": "7" },
                  { "size": "1" },
                  { "size": "1" }
                ]
              }
            }
          },
          "dtype": { "type": "DT_FLOAT" }
        }
      },
      {
        "name": "model_144/tf.nn.convolution_766/convolution/filter",
        "op": "Const",
        "attr": {
          "value": {
            "tensor": {
              "dtype": "DT_FLOAT",
              "tensorShape": {
                "dim": [
                  { "size": "7" },
                  { "size": "7" },
                  { "size": "1" },
                  { "size": "1" }
                ]
              }
            }
          },
          "dtype": { "type": "DT_FLOAT" }
        }
      },
      {
        "name": "model_144/tf.nn.convolution_767/convolution/filter",
        "op": "Const",
        "attr": {
          "value": {
            "tensor": {
              "dtype": "DT_FLOAT",
              "tensorShape": {
                "dim": [
                  { "size": "7" },
                  { "size": "7" },
                  { "size": "1" },
                  { "size": "1" }
                ]
              }
            }
          },
          "dtype": { "type": "DT_FLOAT" }
        }
      },
      {
        "name": "model_144/tf.nn.convolution_768/convolution/filter",
        "op": "Const",
        "attr": {
          "value": {
            "tensor": {
              "dtype": "DT_FLOAT",
              "tensorShape": {
                "dim": [
                  { "size": "7" },
                  { "size": "7" },
                  { "size": "1" },
                  { "size": "1" }
                ]
              }
            }
          },
          "dtype": { "type": "DT_FLOAT" }
        }
      },
      {
        "name": "model_144/tf.nn.convolution_769/convolution/filter",
        "op": "Const",
        "attr": {
          "value": {
            "tensor": {
              "dtype": "DT_FLOAT",
              "tensorShape": {
                "dim": [
                  { "size": "7" },
                  { "size": "7" },
                  { "size": "1" },
                  { "size": "1" }
                ]
              }
            }
          },
          "dtype": { "type": "DT_FLOAT" }
        }
      },
      {
        "name": "model_144/tf.nn.convolution_770/convolution/filter",
        "op": "Const",
        "attr": {
          "value": {
            "tensor": {
              "dtype": "DT_FLOAT",
              "tensorShape": {
                "dim": [
                  { "size": "7" },
                  { "size": "7" },
                  { "size": "1" },
                  { "size": "1" }
                ]
              }
            }
          },
          "dtype": { "type": "DT_FLOAT" }
        }
      },
      {
        "name": "model_144/tf.nn.convolution_771/convolution/filter",
        "op": "Const",
        "attr": {
          "value": {
            "tensor": {
              "dtype": "DT_FLOAT",
              "tensorShape": {
                "dim": [
                  { "size": "7" },
                  { "size": "7" },
                  { "size": "1" },
                  { "size": "1" }
                ]
              }
            }
          },
          "dtype": { "type": "DT_FLOAT" }
        }
      },
      {
        "name": "model_144/tf.nn.convolution_772/convolution/filter",
        "op": "Const",
        "attr": {
          "value": {
            "tensor": {
              "dtype": "DT_FLOAT",
              "tensorShape": {
                "dim": [
                  { "size": "7" },
                  { "size": "7" },
                  { "size": "1" },
                  { "size": "1" }
                ]
              }
            }
          },
          "dtype": { "type": "DT_FLOAT" }
        }
      },
      {
        "name": "model_144/tf.nn.convolution_773/convolution/filter",
        "op": "Const",
        "attr": {
          "value": {
            "tensor": {
              "dtype": "DT_FLOAT",
              "tensorShape": {
                "dim": [
                  { "size": "7" },
                  { "size": "7" },
                  { "size": "1" },
                  { "size": "1" }
                ]
              }
            }
          },
          "dtype": { "type": "DT_FLOAT" }
        }
      },
      {
        "name": "model_144/tf.nn.convolution_774/convolution/filter",
        "op": "Const",
        "attr": {
          "value": {
            "tensor": {
              "dtype": "DT_FLOAT",
              "tensorShape": {
                "dim": [
                  { "size": "7" },
                  { "size": "7" },
                  { "size": "1" },
                  { "size": "1" }
                ]
              }
            }
          },
          "dtype": { "type": "DT_FLOAT" }
        }
      },
      {
        "name": "model_144/tf.nn.convolution_775/convolution/filter",
        "op": "Const",
        "attr": {
          "value": {
            "tensor": {
              "dtype": "DT_FLOAT",
              "tensorShape": {
                "dim": [
                  { "size": "7" },
                  { "size": "7" },
                  { "size": "1" },
                  { "size": "1" }
                ]
              }
            }
          },
          "dtype": { "type": "DT_FLOAT" }
        }
      },
      {
        "name": "model_144/tf.nn.convolution_776/convolution/filter",
        "op": "Const",
        "attr": {
          "value": {
            "tensor": {
              "dtype": "DT_FLOAT",
              "tensorShape": {
                "dim": [
                  { "size": "7" },
                  { "size": "7" },
                  { "size": "1" },
                  { "size": "1" }
                ]
              }
            }
          },
          "dtype": { "type": "DT_FLOAT" }
        }
      },
      {
        "name": "model_144/tf.nn.convolution_777/convolution/filter",
        "op": "Const",
        "attr": {
          "value": {
            "tensor": {
              "dtype": "DT_FLOAT",
              "tensorShape": {
                "dim": [
                  { "size": "7" },
                  { "size": "7" },
                  { "size": "1" },
                  { "size": "1" }
                ]
              }
            }
          },
          "dtype": { "type": "DT_FLOAT" }
        }
      },
      {
        "name": "model_144/tf.nn.convolution_778/convolution/filter",
        "op": "Const",
        "attr": {
          "value": {
            "tensor": {
              "dtype": "DT_FLOAT",
              "tensorShape": {
                "dim": [
                  { "size": "7" },
                  { "size": "7" },
                  { "size": "1" },
                  { "size": "1" }
                ]
              }
            }
          },
          "dtype": { "type": "DT_FLOAT" }
        }
      },
      {
        "name": "model_144/tf.nn.convolution_779/convolution/filter",
        "op": "Const",
        "attr": {
          "value": {
            "tensor": {
              "dtype": "DT_FLOAT",
              "tensorShape": {
                "dim": [
                  { "size": "7" },
                  { "size": "7" },
                  { "size": "1" },
                  { "size": "1" }
                ]
              }
            }
          },
          "dtype": { "type": "DT_FLOAT" }
        }
      },
      {
        "name": "model_144/tf.nn.convolution_780/convolution/filter",
        "op": "Const",
        "attr": {
          "value": {
            "tensor": {
              "dtype": "DT_FLOAT",
              "tensorShape": {
                "dim": [
                  { "size": "7" },
                  { "size": "7" },
                  { "size": "1" },
                  { "size": "1" }
                ]
              }
            }
          },
          "dtype": { "type": "DT_FLOAT" }
        }
      },
      {
        "name": "model_144/tf.nn.convolution_781/convolution/filter",
        "op": "Const",
        "attr": {
          "value": {
            "tensor": {
              "dtype": "DT_FLOAT",
              "tensorShape": {
                "dim": [
                  { "size": "7" },
                  { "size": "7" },
                  { "size": "1" },
                  { "size": "1" }
                ]
              }
            }
          },
          "dtype": { "type": "DT_FLOAT" }
        }
      },
      {
        "name": "model_144/tf.nn.convolution_782/convolution/filter",
        "op": "Const",
        "attr": {
          "value": {
            "tensor": {
              "dtype": "DT_FLOAT",
              "tensorShape": {
                "dim": [
                  { "size": "7" },
                  { "size": "7" },
                  { "size": "1" },
                  { "size": "1" }
                ]
              }
            }
          },
          "dtype": { "type": "DT_FLOAT" }
        }
      },
      {
        "name": "model_144/tf.nn.convolution_783/convolution/filter",
        "op": "Const",
        "attr": {
          "value": {
            "tensor": {
              "dtype": "DT_FLOAT",
              "tensorShape": {
                "dim": [
                  { "size": "7" },
                  { "size": "7" },
                  { "size": "1" },
                  { "size": "1" }
                ]
              }
            }
          },
          "dtype": { "type": "DT_FLOAT" }
        }
      },
      {
        "name": "model_144/tf.nn.convolution_784/convolution/filter",
        "op": "Const",
        "attr": {
          "value": {
            "tensor": {
              "dtype": "DT_FLOAT",
              "tensorShape": {
                "dim": [
                  { "size": "7" },
                  { "size": "7" },
                  { "size": "1" },
                  { "size": "1" }
                ]
              }
            }
          },
          "dtype": { "type": "DT_FLOAT" }
        }
      },
      {
        "name": "model_144/tf.nn.convolution_785/convolution/filter",
        "op": "Const",
        "attr": {
          "value": {
            "tensor": {
              "dtype": "DT_FLOAT",
              "tensorShape": {
                "dim": [
                  { "size": "7" },
                  { "size": "7" },
                  { "size": "1" },
                  { "size": "1" }
                ]
              }
            }
          },
          "dtype": { "type": "DT_FLOAT" }
        }
      },
      {
        "name": "model_144/tf.nn.convolution_786/convolution/filter",
        "op": "Const",
        "attr": {
          "value": {
            "tensor": {
              "dtype": "DT_FLOAT",
              "tensorShape": {
                "dim": [
                  { "size": "7" },
                  { "size": "7" },
                  { "size": "1" },
                  { "size": "1" }
                ]
              }
            }
          },
          "dtype": { "type": "DT_FLOAT" }
        }
      },
      {
        "name": "model_144/tf.nn.convolution_787/convolution/filter",
        "op": "Const",
        "attr": {
          "value": {
            "tensor": {
              "dtype": "DT_FLOAT",
              "tensorShape": {
                "dim": [
                  { "size": "7" },
                  { "size": "7" },
                  { "size": "1" },
                  { "size": "1" }
                ]
              }
            }
          },
          "dtype": { "type": "DT_FLOAT" }
        }
      },
      {
        "name": "model_144/tf.nn.convolution_788/convolution/filter",
        "op": "Const",
        "attr": {
          "value": {
            "tensor": {
              "dtype": "DT_FLOAT",
              "tensorShape": {
                "dim": [
                  { "size": "7" },
                  { "size": "7" },
                  { "size": "1" },
                  { "size": "1" }
                ]
              }
            }
          },
          "dtype": { "type": "DT_FLOAT" }
        }
      },
      {
        "name": "model_144/tf.nn.convolution_789/convolution/filter",
        "op": "Const",
        "attr": {
          "value": {
            "tensor": {
              "dtype": "DT_FLOAT",
              "tensorShape": {
                "dim": [
                  { "size": "7" },
                  { "size": "7" },
                  { "size": "1" },
                  { "size": "1" }
                ]
              }
            }
          },
          "dtype": { "type": "DT_FLOAT" }
        }
      },
      {
        "name": "model_144/tf.nn.convolution_790/convolution/filter",
        "op": "Const",
        "attr": {
          "value": {
            "tensor": {
              "dtype": "DT_FLOAT",
              "tensorShape": {
                "dim": [
                  { "size": "7" },
                  { "size": "7" },
                  { "size": "1" },
                  { "size": "1" }
                ]
              }
            }
          },
          "dtype": { "type": "DT_FLOAT" }
        }
      },
      {
        "name": "model_144/tf.nn.convolution_791/convolution/filter",
        "op": "Const",
        "attr": {
          "value": {
            "tensor": {
              "dtype": "DT_FLOAT",
              "tensorShape": {
                "dim": [
                  { "size": "7" },
                  { "size": "7" },
                  { "size": "1" },
                  { "size": "1" }
                ]
              }
            }
          },
          "dtype": { "type": "DT_FLOAT" }
        }
      },
      {
        "name": "model_144/tf.nn.convolution_792/convolution/filter",
        "op": "Const",
        "attr": {
          "value": {
            "tensor": {
              "dtype": "DT_FLOAT",
              "tensorShape": {
                "dim": [
                  { "size": "7" },
                  { "size": "7" },
                  { "size": "1" },
                  { "size": "1" }
                ]
              }
            }
          },
          "dtype": { "type": "DT_FLOAT" }
        }
      },
      {
        "name": "model_144/tf.nn.convolution_793/convolution/filter",
        "op": "Const",
        "attr": {
          "value": {
            "tensor": {
              "dtype": "DT_FLOAT",
              "tensorShape": {
                "dim": [
                  { "size": "7" },
                  { "size": "7" },
                  { "size": "1" },
                  { "size": "1" }
                ]
              }
            }
          },
          "dtype": { "type": "DT_FLOAT" }
        }
      },
      {
        "name": "model_144/tf.nn.convolution_794/convolution/filter",
        "op": "Const",
        "attr": {
          "value": {
            "tensor": {
              "dtype": "DT_FLOAT",
              "tensorShape": {
                "dim": [
                  { "size": "7" },
                  { "size": "7" },
                  { "size": "1" },
                  { "size": "1" }
                ]
              }
            }
          },
          "dtype": { "type": "DT_FLOAT" }
        }
      },
      {
        "name": "model_144/tf.nn.convolution_795/convolution/filter",
        "op": "Const",
        "attr": {
          "value": {
            "tensor": {
              "dtype": "DT_FLOAT",
              "tensorShape": {
                "dim": [
                  { "size": "7" },
                  { "size": "7" },
                  { "size": "1" },
                  { "size": "1" }
                ]
              }
            }
          },
          "dtype": { "type": "DT_FLOAT" }
        }
      },
      {
        "name": "model_144/tf.nn.convolution_796/convolution/filter",
        "op": "Const",
        "attr": {
          "value": {
            "tensor": {
              "dtype": "DT_FLOAT",
              "tensorShape": {
                "dim": [
                  { "size": "7" },
                  { "size": "7" },
                  { "size": "1" },
                  { "size": "1" }
                ]
              }
            }
          },
          "dtype": { "type": "DT_FLOAT" }
        }
      },
      {
        "name": "model_144/tf.nn.convolution_797/convolution/filter",
        "op": "Const",
        "attr": {
          "value": {
            "tensor": {
              "dtype": "DT_FLOAT",
              "tensorShape": {
                "dim": [
                  { "size": "7" },
                  { "size": "7" },
                  { "size": "1" },
                  { "size": "1" }
                ]
              }
            }
          },
          "dtype": { "type": "DT_FLOAT" }
        }
      },
      {
        "name": "model_144/tf.nn.convolution_798/convolution/filter",
        "op": "Const",
        "attr": {
          "value": {
            "tensor": {
              "dtype": "DT_FLOAT",
              "tensorShape": {
                "dim": [
                  { "size": "7" },
                  { "size": "7" },
                  { "size": "1" },
                  { "size": "1" }
                ]
              }
            }
          },
          "dtype": { "type": "DT_FLOAT" }
        }
      },
      {
        "name": "model_144/tf.nn.convolution_799/convolution/filter",
        "op": "Const",
        "attr": {
          "value": {
            "tensor": {
              "dtype": "DT_FLOAT",
              "tensorShape": {
                "dim": [
                  { "size": "7" },
                  { "size": "7" },
                  { "size": "1" },
                  { "size": "1" }
                ]
              }
            }
          },
          "dtype": { "type": "DT_FLOAT" }
        }
      },
      {
        "name": "model_144/tf.nn.convolution_800/convolution/filter",
        "op": "Const",
        "attr": {
          "value": {
            "tensor": {
              "dtype": "DT_FLOAT",
              "tensorShape": {
                "dim": [
                  { "size": "7" },
                  { "size": "7" },
                  { "size": "1" },
                  { "size": "1" }
                ]
              }
            }
          },
          "dtype": { "type": "DT_FLOAT" }
        }
      },
      {
        "name": "model_144/tf.nn.convolution_801/convolution/filter",
        "op": "Const",
        "attr": {
          "value": {
            "tensor": {
              "dtype": "DT_FLOAT",
              "tensorShape": {
                "dim": [
                  { "size": "7" },
                  { "size": "7" },
                  { "size": "1" },
                  { "size": "1" }
                ]
              }
            }
          },
          "dtype": { "type": "DT_FLOAT" }
        }
      },
      {
        "name": "model_144/tf.nn.convolution_802/convolution/filter",
        "op": "Const",
        "attr": {
          "value": {
            "tensor": {
              "dtype": "DT_FLOAT",
              "tensorShape": {
                "dim": [
                  { "size": "7" },
                  { "size": "7" },
                  { "size": "1" },
                  { "size": "1" }
                ]
              }
            }
          },
          "dtype": { "type": "DT_FLOAT" }
        }
      },
      {
        "name": "model_144/tf.nn.convolution_803/convolution/filter",
        "op": "Const",
        "attr": {
          "value": {
            "tensor": {
              "dtype": "DT_FLOAT",
              "tensorShape": {
                "dim": [
                  { "size": "7" },
                  { "size": "7" },
                  { "size": "1" },
                  { "size": "1" }
                ]
              }
            }
          },
          "dtype": { "type": "DT_FLOAT" }
        }
      },
      {
        "name": "model_144/tf.nn.convolution_804/convolution/filter",
        "op": "Const",
        "attr": {
          "value": {
            "tensor": {
              "dtype": "DT_FLOAT",
              "tensorShape": {
                "dim": [
                  { "size": "7" },
                  { "size": "7" },
                  { "size": "1" },
                  { "size": "1" }
                ]
              }
            }
          },
          "dtype": { "type": "DT_FLOAT" }
        }
      },
      {
        "name": "model_144/tf.nn.convolution_805/convolution/filter",
        "op": "Const",
        "attr": {
          "value": {
            "tensor": {
              "dtype": "DT_FLOAT",
              "tensorShape": {
                "dim": [
                  { "size": "7" },
                  { "size": "7" },
                  { "size": "1" },
                  { "size": "1" }
                ]
              }
            }
          },
          "dtype": { "type": "DT_FLOAT" }
        }
      },
      {
        "name": "model_144/tf.nn.convolution_806/convolution/filter",
        "op": "Const",
        "attr": {
          "value": {
            "tensor": {
              "dtype": "DT_FLOAT",
              "tensorShape": {
                "dim": [
                  { "size": "7" },
                  { "size": "7" },
                  { "size": "1" },
                  { "size": "1" }
                ]
              }
            }
          },
          "dtype": { "type": "DT_FLOAT" }
        }
      },
      {
        "name": "model_144/tf.nn.convolution_807/convolution/filter",
        "op": "Const",
        "attr": {
          "value": {
            "tensor": {
              "dtype": "DT_FLOAT",
              "tensorShape": {
                "dim": [
                  { "size": "7" },
                  { "size": "7" },
                  { "size": "1" },
                  { "size": "1" }
                ]
              }
            }
          },
          "dtype": { "type": "DT_FLOAT" }
        }
      },
      {
        "name": "model_144/tf.nn.convolution_808/convolution/filter",
        "op": "Const",
        "attr": {
          "value": {
            "tensor": {
              "dtype": "DT_FLOAT",
              "tensorShape": {
                "dim": [
                  { "size": "7" },
                  { "size": "7" },
                  { "size": "1" },
                  { "size": "1" }
                ]
              }
            }
          },
          "dtype": { "type": "DT_FLOAT" }
        }
      },
      {
        "name": "model_144/tf.nn.convolution_809/convolution/filter",
        "op": "Const",
        "attr": {
          "value": {
            "tensor": {
              "dtype": "DT_FLOAT",
              "tensorShape": {
                "dim": [
                  { "size": "7" },
                  { "size": "7" },
                  { "size": "1" },
                  { "size": "1" }
                ]
              }
            }
          },
          "dtype": { "type": "DT_FLOAT" }
        }
      },
      {
        "name": "model_144/tf.nn.convolution_810/convolution/filter",
        "op": "Const",
        "attr": {
          "value": {
            "tensor": {
              "dtype": "DT_FLOAT",
              "tensorShape": {
                "dim": [
                  { "size": "7" },
                  { "size": "7" },
                  { "size": "1" },
                  { "size": "1" }
                ]
              }
            }
          },
          "dtype": { "type": "DT_FLOAT" }
        }
      },
      {
        "name": "model_144/tf.nn.convolution_811/convolution/filter",
        "op": "Const",
        "attr": {
          "value": {
            "tensor": {
              "dtype": "DT_FLOAT",
              "tensorShape": {
                "dim": [
                  { "size": "7" },
                  { "size": "7" },
                  { "size": "1" },
                  { "size": "1" }
                ]
              }
            }
          },
          "dtype": { "type": "DT_FLOAT" }
        }
      },
      {
        "name": "model_144/tf.split_15/split/split_dim",
        "op": "Const",
        "attr": {
          "value": { "tensor": { "dtype": "DT_INT32", "tensorShape": {} } },
          "dtype": { "type": "DT_INT32" }
        }
      },
      {
        "name": "model_144/tf.compat.v1.transpose_254/transpose/perm",
        "op": "Const",
        "attr": {
          "value": {
            "tensor": {
              "dtype": "DT_INT32",
              "tensorShape": { "dim": [{ "size": "4" }] }
            }
          },
          "dtype": { "type": "DT_INT32" }
        }
      },
      {
        "name": "model_144/tf.reshape_92/Reshape/shape",
        "op": "Const",
        "attr": {
          "value": {
            "tensor": {
              "dtype": "DT_INT32",
              "tensorShape": { "dim": [{ "size": "4" }] }
            }
          },
          "dtype": { "type": "DT_INT32" }
        }
      },
      {
        "name": "model_144/tf.nn.convolution_812/convolution/filter",
        "op": "Const",
        "attr": {
          "value": {
            "tensor": {
              "dtype": "DT_FLOAT",
              "tensorShape": {
                "dim": [
                  { "size": "7" },
                  { "size": "7" },
                  { "size": "1" },
                  { "size": "1" }
                ]
              }
            }
          },
          "dtype": { "type": "DT_FLOAT" }
        }
      },
      {
        "name": "model_144/tf.concat_10/concat/axis",
        "op": "Const",
        "attr": {
          "value": { "tensor": { "dtype": "DT_INT32", "tensorShape": {} } },
          "dtype": { "type": "DT_INT32" }
        }
      },
      {
        "name": "model_144/tf.split_14/split/split_dim",
        "op": "Const",
        "attr": {
          "value": { "tensor": { "dtype": "DT_INT32", "tensorShape": {} } },
          "dtype": { "type": "DT_INT32" }
        }
      },
      {
        "name": "model_144/tf.math.add_94/Add/y",
        "op": "Const",
        "attr": {
          "value": {
            "tensor": {
              "dtype": "DT_FLOAT",
              "tensorShape": { "dim": [{ "size": "128" }] }
            }
          },
          "dtype": { "type": "DT_FLOAT" }
        }
      },
      {
        "name": "model_144/tf.math.add_90/Add/y",
        "op": "Const",
        "attr": {
          "value": {
            "tensor": {
              "dtype": "DT_FLOAT",
              "tensorShape": { "dim": [{ "size": "128" }] }
            }
          },
          "dtype": { "type": "DT_FLOAT" }
        }
      },
      {
        "name": "model_144/tf.math.add_87/Add/y",
        "op": "Const",
        "attr": {
          "value": {
            "tensor": {
              "dtype": "DT_FLOAT",
              "tensorShape": { "dim": [{ "size": "128" }] }
            }
          },
          "dtype": { "type": "DT_FLOAT" }
        }
      },
      {
        "name": "model_144/tf.nn.convolution_553/convolution/filter",
        "op": "Const",
        "attr": {
          "value": {
            "tensor": {
              "dtype": "DT_FLOAT",
              "tensorShape": {
                "dim": [
                  { "size": "7" },
                  { "size": "7" },
                  { "size": "1" },
                  { "size": "1" }
                ]
              }
            }
          },
          "dtype": { "type": "DT_FLOAT" }
        }
      },
      {
        "name": "model_144/tf.nn.convolution_554/convolution/filter",
        "op": "Const",
        "attr": {
          "value": {
            "tensor": {
              "dtype": "DT_FLOAT",
              "tensorShape": {
                "dim": [
                  { "size": "7" },
                  { "size": "7" },
                  { "size": "1" },
                  { "size": "1" }
                ]
              }
            }
          },
          "dtype": { "type": "DT_FLOAT" }
        }
      },
      {
        "name": "model_144/tf.nn.convolution_555/convolution/filter",
        "op": "Const",
        "attr": {
          "value": {
            "tensor": {
              "dtype": "DT_FLOAT",
              "tensorShape": {
                "dim": [
                  { "size": "7" },
                  { "size": "7" },
                  { "size": "1" },
                  { "size": "1" }
                ]
              }
            }
          },
          "dtype": { "type": "DT_FLOAT" }
        }
      },
      {
        "name": "model_144/tf.nn.convolution_556/convolution/filter",
        "op": "Const",
        "attr": {
          "value": {
            "tensor": {
              "dtype": "DT_FLOAT",
              "tensorShape": {
                "dim": [
                  { "size": "7" },
                  { "size": "7" },
                  { "size": "1" },
                  { "size": "1" }
                ]
              }
            }
          },
          "dtype": { "type": "DT_FLOAT" }
        }
      },
      {
        "name": "model_144/tf.nn.convolution_557/convolution/filter",
        "op": "Const",
        "attr": {
          "value": {
            "tensor": {
              "dtype": "DT_FLOAT",
              "tensorShape": {
                "dim": [
                  { "size": "7" },
                  { "size": "7" },
                  { "size": "1" },
                  { "size": "1" }
                ]
              }
            }
          },
          "dtype": { "type": "DT_FLOAT" }
        }
      },
      {
        "name": "model_144/tf.nn.convolution_558/convolution/filter",
        "op": "Const",
        "attr": {
          "value": {
            "tensor": {
              "dtype": "DT_FLOAT",
              "tensorShape": {
                "dim": [
                  { "size": "7" },
                  { "size": "7" },
                  { "size": "1" },
                  { "size": "1" }
                ]
              }
            }
          },
          "dtype": { "type": "DT_FLOAT" }
        }
      },
      {
        "name": "model_144/tf.nn.convolution_559/convolution/filter",
        "op": "Const",
        "attr": {
          "value": {
            "tensor": {
              "dtype": "DT_FLOAT",
              "tensorShape": {
                "dim": [
                  { "size": "7" },
                  { "size": "7" },
                  { "size": "1" },
                  { "size": "1" }
                ]
              }
            }
          },
          "dtype": { "type": "DT_FLOAT" }
        }
      },
      {
        "name": "model_144/tf.nn.convolution_560/convolution/filter",
        "op": "Const",
        "attr": {
          "value": {
            "tensor": {
              "dtype": "DT_FLOAT",
              "tensorShape": {
                "dim": [
                  { "size": "7" },
                  { "size": "7" },
                  { "size": "1" },
                  { "size": "1" }
                ]
              }
            }
          },
          "dtype": { "type": "DT_FLOAT" }
        }
      },
      {
        "name": "model_144/tf.nn.convolution_561/convolution/filter",
        "op": "Const",
        "attr": {
          "value": {
            "tensor": {
              "dtype": "DT_FLOAT",
              "tensorShape": {
                "dim": [
                  { "size": "7" },
                  { "size": "7" },
                  { "size": "1" },
                  { "size": "1" }
                ]
              }
            }
          },
          "dtype": { "type": "DT_FLOAT" }
        }
      },
      {
        "name": "model_144/tf.nn.convolution_562/convolution/filter",
        "op": "Const",
        "attr": {
          "value": {
            "tensor": {
              "dtype": "DT_FLOAT",
              "tensorShape": {
                "dim": [
                  { "size": "7" },
                  { "size": "7" },
                  { "size": "1" },
                  { "size": "1" }
                ]
              }
            }
          },
          "dtype": { "type": "DT_FLOAT" }
        }
      },
      {
        "name": "model_144/tf.nn.convolution_563/convolution/filter",
        "op": "Const",
        "attr": {
          "value": {
            "tensor": {
              "dtype": "DT_FLOAT",
              "tensorShape": {
                "dim": [
                  { "size": "7" },
                  { "size": "7" },
                  { "size": "1" },
                  { "size": "1" }
                ]
              }
            }
          },
          "dtype": { "type": "DT_FLOAT" }
        }
      },
      {
        "name": "model_144/tf.nn.convolution_564/convolution/filter",
        "op": "Const",
        "attr": {
          "value": {
            "tensor": {
              "dtype": "DT_FLOAT",
              "tensorShape": {
                "dim": [
                  { "size": "7" },
                  { "size": "7" },
                  { "size": "1" },
                  { "size": "1" }
                ]
              }
            }
          },
          "dtype": { "type": "DT_FLOAT" }
        }
      },
      {
        "name": "model_144/tf.nn.convolution_565/convolution/filter",
        "op": "Const",
        "attr": {
          "value": {
            "tensor": {
              "dtype": "DT_FLOAT",
              "tensorShape": {
                "dim": [
                  { "size": "7" },
                  { "size": "7" },
                  { "size": "1" },
                  { "size": "1" }
                ]
              }
            }
          },
          "dtype": { "type": "DT_FLOAT" }
        }
      },
      {
        "name": "model_144/tf.nn.convolution_566/convolution/filter",
        "op": "Const",
        "attr": {
          "value": {
            "tensor": {
              "dtype": "DT_FLOAT",
              "tensorShape": {
                "dim": [
                  { "size": "7" },
                  { "size": "7" },
                  { "size": "1" },
                  { "size": "1" }
                ]
              }
            }
          },
          "dtype": { "type": "DT_FLOAT" }
        }
      },
      {
        "name": "model_144/tf.nn.convolution_567/convolution/filter",
        "op": "Const",
        "attr": {
          "value": {
            "tensor": {
              "dtype": "DT_FLOAT",
              "tensorShape": {
                "dim": [
                  { "size": "7" },
                  { "size": "7" },
                  { "size": "1" },
                  { "size": "1" }
                ]
              }
            }
          },
          "dtype": { "type": "DT_FLOAT" }
        }
      },
      {
        "name": "model_144/tf.nn.convolution_568/convolution/filter",
        "op": "Const",
        "attr": {
          "value": {
            "tensor": {
              "dtype": "DT_FLOAT",
              "tensorShape": {
                "dim": [
                  { "size": "7" },
                  { "size": "7" },
                  { "size": "1" },
                  { "size": "1" }
                ]
              }
            }
          },
          "dtype": { "type": "DT_FLOAT" }
        }
      },
      {
        "name": "model_144/tf.nn.convolution_569/convolution/filter",
        "op": "Const",
        "attr": {
          "value": {
            "tensor": {
              "dtype": "DT_FLOAT",
              "tensorShape": {
                "dim": [
                  { "size": "7" },
                  { "size": "7" },
                  { "size": "1" },
                  { "size": "1" }
                ]
              }
            }
          },
          "dtype": { "type": "DT_FLOAT" }
        }
      },
      {
        "name": "model_144/tf.nn.convolution_570/convolution/filter",
        "op": "Const",
        "attr": {
          "value": {
            "tensor": {
              "dtype": "DT_FLOAT",
              "tensorShape": {
                "dim": [
                  { "size": "7" },
                  { "size": "7" },
                  { "size": "1" },
                  { "size": "1" }
                ]
              }
            }
          },
          "dtype": { "type": "DT_FLOAT" }
        }
      },
      {
        "name": "model_144/tf.nn.convolution_571/convolution/filter",
        "op": "Const",
        "attr": {
          "value": {
            "tensor": {
              "dtype": "DT_FLOAT",
              "tensorShape": {
                "dim": [
                  { "size": "7" },
                  { "size": "7" },
                  { "size": "1" },
                  { "size": "1" }
                ]
              }
            }
          },
          "dtype": { "type": "DT_FLOAT" }
        }
      },
      {
        "name": "model_144/tf.nn.convolution_572/convolution/filter",
        "op": "Const",
        "attr": {
          "value": {
            "tensor": {
              "dtype": "DT_FLOAT",
              "tensorShape": {
                "dim": [
                  { "size": "7" },
                  { "size": "7" },
                  { "size": "1" },
                  { "size": "1" }
                ]
              }
            }
          },
          "dtype": { "type": "DT_FLOAT" }
        }
      },
      {
        "name": "model_144/tf.nn.convolution_573/convolution/filter",
        "op": "Const",
        "attr": {
          "value": {
            "tensor": {
              "dtype": "DT_FLOAT",
              "tensorShape": {
                "dim": [
                  { "size": "7" },
                  { "size": "7" },
                  { "size": "1" },
                  { "size": "1" }
                ]
              }
            }
          },
          "dtype": { "type": "DT_FLOAT" }
        }
      },
      {
        "name": "model_144/tf.nn.convolution_574/convolution/filter",
        "op": "Const",
        "attr": {
          "value": {
            "tensor": {
              "dtype": "DT_FLOAT",
              "tensorShape": {
                "dim": [
                  { "size": "7" },
                  { "size": "7" },
                  { "size": "1" },
                  { "size": "1" }
                ]
              }
            }
          },
          "dtype": { "type": "DT_FLOAT" }
        }
      },
      {
        "name": "model_144/tf.nn.convolution_575/convolution/filter",
        "op": "Const",
        "attr": {
          "value": {
            "tensor": {
              "dtype": "DT_FLOAT",
              "tensorShape": {
                "dim": [
                  { "size": "7" },
                  { "size": "7" },
                  { "size": "1" },
                  { "size": "1" }
                ]
              }
            }
          },
          "dtype": { "type": "DT_FLOAT" }
        }
      },
      {
        "name": "model_144/tf.nn.convolution_576/convolution/filter",
        "op": "Const",
        "attr": {
          "value": {
            "tensor": {
              "dtype": "DT_FLOAT",
              "tensorShape": {
                "dim": [
                  { "size": "7" },
                  { "size": "7" },
                  { "size": "1" },
                  { "size": "1" }
                ]
              }
            }
          },
          "dtype": { "type": "DT_FLOAT" }
        }
      },
      {
        "name": "model_144/tf.nn.convolution_577/convolution/filter",
        "op": "Const",
        "attr": {
          "value": {
            "tensor": {
              "dtype": "DT_FLOAT",
              "tensorShape": {
                "dim": [
                  { "size": "7" },
                  { "size": "7" },
                  { "size": "1" },
                  { "size": "1" }
                ]
              }
            }
          },
          "dtype": { "type": "DT_FLOAT" }
        }
      },
      {
        "name": "model_144/tf.nn.convolution_578/convolution/filter",
        "op": "Const",
        "attr": {
          "value": {
            "tensor": {
              "dtype": "DT_FLOAT",
              "tensorShape": {
                "dim": [
                  { "size": "7" },
                  { "size": "7" },
                  { "size": "1" },
                  { "size": "1" }
                ]
              }
            }
          },
          "dtype": { "type": "DT_FLOAT" }
        }
      },
      {
        "name": "model_144/tf.nn.convolution_579/convolution/filter",
        "op": "Const",
        "attr": {
          "value": {
            "tensor": {
              "dtype": "DT_FLOAT",
              "tensorShape": {
                "dim": [
                  { "size": "7" },
                  { "size": "7" },
                  { "size": "1" },
                  { "size": "1" }
                ]
              }
            }
          },
          "dtype": { "type": "DT_FLOAT" }
        }
      },
      {
        "name": "model_144/tf.nn.convolution_580/convolution/filter",
        "op": "Const",
        "attr": {
          "value": {
            "tensor": {
              "dtype": "DT_FLOAT",
              "tensorShape": {
                "dim": [
                  { "size": "7" },
                  { "size": "7" },
                  { "size": "1" },
                  { "size": "1" }
                ]
              }
            }
          },
          "dtype": { "type": "DT_FLOAT" }
        }
      },
      {
        "name": "model_144/tf.nn.convolution_581/convolution/filter",
        "op": "Const",
        "attr": {
          "value": {
            "tensor": {
              "dtype": "DT_FLOAT",
              "tensorShape": {
                "dim": [
                  { "size": "7" },
                  { "size": "7" },
                  { "size": "1" },
                  { "size": "1" }
                ]
              }
            }
          },
          "dtype": { "type": "DT_FLOAT" }
        }
      },
      {
        "name": "model_144/tf.nn.convolution_582/convolution/filter",
        "op": "Const",
        "attr": {
          "value": {
            "tensor": {
              "dtype": "DT_FLOAT",
              "tensorShape": {
                "dim": [
                  { "size": "7" },
                  { "size": "7" },
                  { "size": "1" },
                  { "size": "1" }
                ]
              }
            }
          },
          "dtype": { "type": "DT_FLOAT" }
        }
      },
      {
        "name": "model_144/tf.nn.convolution_583/convolution/filter",
        "op": "Const",
        "attr": {
          "value": {
            "tensor": {
              "dtype": "DT_FLOAT",
              "tensorShape": {
                "dim": [
                  { "size": "7" },
                  { "size": "7" },
                  { "size": "1" },
                  { "size": "1" }
                ]
              }
            }
          },
          "dtype": { "type": "DT_FLOAT" }
        }
      },
      {
        "name": "model_144/tf.nn.convolution_584/convolution/filter",
        "op": "Const",
        "attr": {
          "value": {
            "tensor": {
              "dtype": "DT_FLOAT",
              "tensorShape": {
                "dim": [
                  { "size": "7" },
                  { "size": "7" },
                  { "size": "1" },
                  { "size": "1" }
                ]
              }
            }
          },
          "dtype": { "type": "DT_FLOAT" }
        }
      },
      {
        "name": "model_144/tf.nn.convolution_585/convolution/filter",
        "op": "Const",
        "attr": {
          "value": {
            "tensor": {
              "dtype": "DT_FLOAT",
              "tensorShape": {
                "dim": [
                  { "size": "7" },
                  { "size": "7" },
                  { "size": "1" },
                  { "size": "1" }
                ]
              }
            }
          },
          "dtype": { "type": "DT_FLOAT" }
        }
      },
      {
        "name": "model_144/tf.nn.convolution_586/convolution/filter",
        "op": "Const",
        "attr": {
          "value": {
            "tensor": {
              "dtype": "DT_FLOAT",
              "tensorShape": {
                "dim": [
                  { "size": "7" },
                  { "size": "7" },
                  { "size": "1" },
                  { "size": "1" }
                ]
              }
            }
          },
          "dtype": { "type": "DT_FLOAT" }
        }
      },
      {
        "name": "model_144/tf.nn.convolution_587/convolution/filter",
        "op": "Const",
        "attr": {
          "value": {
            "tensor": {
              "dtype": "DT_FLOAT",
              "tensorShape": {
                "dim": [
                  { "size": "7" },
                  { "size": "7" },
                  { "size": "1" },
                  { "size": "1" }
                ]
              }
            }
          },
          "dtype": { "type": "DT_FLOAT" }
        }
      },
      {
        "name": "model_144/tf.nn.convolution_588/convolution/filter",
        "op": "Const",
        "attr": {
          "value": {
            "tensor": {
              "dtype": "DT_FLOAT",
              "tensorShape": {
                "dim": [
                  { "size": "7" },
                  { "size": "7" },
                  { "size": "1" },
                  { "size": "1" }
                ]
              }
            }
          },
          "dtype": { "type": "DT_FLOAT" }
        }
      },
      {
        "name": "model_144/tf.nn.convolution_589/convolution/filter",
        "op": "Const",
        "attr": {
          "value": {
            "tensor": {
              "dtype": "DT_FLOAT",
              "tensorShape": {
                "dim": [
                  { "size": "7" },
                  { "size": "7" },
                  { "size": "1" },
                  { "size": "1" }
                ]
              }
            }
          },
          "dtype": { "type": "DT_FLOAT" }
        }
      },
      {
        "name": "model_144/tf.nn.convolution_590/convolution/filter",
        "op": "Const",
        "attr": {
          "value": {
            "tensor": {
              "dtype": "DT_FLOAT",
              "tensorShape": {
                "dim": [
                  { "size": "7" },
                  { "size": "7" },
                  { "size": "1" },
                  { "size": "1" }
                ]
              }
            }
          },
          "dtype": { "type": "DT_FLOAT" }
        }
      },
      {
        "name": "model_144/tf.nn.convolution_591/convolution/filter",
        "op": "Const",
        "attr": {
          "value": {
            "tensor": {
              "dtype": "DT_FLOAT",
              "tensorShape": {
                "dim": [
                  { "size": "7" },
                  { "size": "7" },
                  { "size": "1" },
                  { "size": "1" }
                ]
              }
            }
          },
          "dtype": { "type": "DT_FLOAT" }
        }
      },
      {
        "name": "model_144/tf.nn.convolution_592/convolution/filter",
        "op": "Const",
        "attr": {
          "value": {
            "tensor": {
              "dtype": "DT_FLOAT",
              "tensorShape": {
                "dim": [
                  { "size": "7" },
                  { "size": "7" },
                  { "size": "1" },
                  { "size": "1" }
                ]
              }
            }
          },
          "dtype": { "type": "DT_FLOAT" }
        }
      },
      {
        "name": "model_144/tf.nn.convolution_593/convolution/filter",
        "op": "Const",
        "attr": {
          "value": {
            "tensor": {
              "dtype": "DT_FLOAT",
              "tensorShape": {
                "dim": [
                  { "size": "7" },
                  { "size": "7" },
                  { "size": "1" },
                  { "size": "1" }
                ]
              }
            }
          },
          "dtype": { "type": "DT_FLOAT" }
        }
      },
      {
        "name": "model_144/tf.nn.convolution_594/convolution/filter",
        "op": "Const",
        "attr": {
          "value": {
            "tensor": {
              "dtype": "DT_FLOAT",
              "tensorShape": {
                "dim": [
                  { "size": "7" },
                  { "size": "7" },
                  { "size": "1" },
                  { "size": "1" }
                ]
              }
            }
          },
          "dtype": { "type": "DT_FLOAT" }
        }
      },
      {
        "name": "model_144/tf.nn.convolution_595/convolution/filter",
        "op": "Const",
        "attr": {
          "value": {
            "tensor": {
              "dtype": "DT_FLOAT",
              "tensorShape": {
                "dim": [
                  { "size": "7" },
                  { "size": "7" },
                  { "size": "1" },
                  { "size": "1" }
                ]
              }
            }
          },
          "dtype": { "type": "DT_FLOAT" }
…
          "name": "model_144/tf.split_4/split/split_dim",
          "shape": [],
          "dtype": "int32"
        },
        {
          "name": "model_144/tf.math.add_36/Add/y",
          "shape": [64],
          "dtype": "float32"
        },
        {
          "name": "model_144/tf.math.add_32/Add/y",
          "shape": [64],
          "dtype": "float32"
        },
        {
          "name": "model_144/tf.math.add_29/Add/y",
          "shape": [64],
          "dtype": "float32"
        },
        {
          "name": "model_144/tf.nn.convolution_82/convolution/filter",
          "shape": [7, 7, 1, 1],
          "dtype": "float32"
        },
        {
          "name": "model_144/tf.nn.convolution_83/convolution/filter",
          "shape": [7, 7, 1, 1],
          "dtype": "float32"
        },
        {
          "name": "model_144/tf.nn.convolution_84/convolution/filter",
          "shape": [7, 7, 1, 1],
          "dtype": "float32"
        },
        {
          "name": "model_144/tf.nn.convolution_85/convolution/filter",
          "shape": [7, 7, 1, 1],
          "dtype": "float32"
        },
        {
          "name": "model_144/tf.nn.convolution_86/convolution/filter",
          "shape": [7, 7, 1, 1],
          "dtype": "float32"
        },
        {
          "name": "model_144/tf.nn.convolution_87/convolution/filter",
          "shape": [7, 7, 1, 1],
          "dtype": "float32"
        },
        {
          "name": "model_144/tf.nn.convolution_88/convolution/filter",
          "shape": [7, 7, 1, 1],
          "dtype": "float32"
        },
        {
          "name": "model_144/tf.nn.convolution_89/convolution/filter",
          "shape": [7, 7, 1, 1],
          "dtype": "float32"
        },
        {
          "name": "model_144/tf.nn.convolution_90/convolution/filter",
          "shape": [7, 7, 1, 1],
          "dtype": "float32"
        },
        {
          "name": "model_144/tf.nn.convolution_91/convolution/filter",
          "shape": [7, 7, 1, 1],
          "dtype": "float32"
        },
        {
          "name": "model_144/tf.nn.convolution_92/convolution/filter",
          "shape": [7, 7, 1, 1],
          "dtype": "float32"
        },
        {
          "name": "model_144/tf.nn.convolution_93/convolution/filter",
          "shape": [7, 7, 1, 1],
          "dtype": "float32"
        },
        {
          "name": "model_144/tf.nn.convolution_94/convolution/filter",
          "shape": [7, 7, 1, 1],
          "dtype": "float32"
        },
        {
          "name": "model_144/tf.nn.convolution_95/convolution/filter",
          "shape": [7, 7, 1, 1],
          "dtype": "float32"
        },
        {
          "name": "model_144/tf.nn.convolution_96/convolution/filter",
          "shape": [7, 7, 1, 1],
          "dtype": "float32"
        },
        {
          "name": "model_144/tf.nn.convolution_97/convolution/filter",
          "shape": [7, 7, 1, 1],
          "dtype": "float32"
        },
        {
          "name": "model_144/tf.nn.convolution_98/convolution/filter",
          "shape": [7, 7, 1, 1],
          "dtype": "float32"
        },
        {
          "name": "model_144/tf.nn.convolution_99/convolution/filter",
          "shape": [7, 7, 1, 1],
          "dtype": "float32"
        },
        {
          "name": "model_144/tf.nn.convolution_100/convolution/filter",
          "shape": [7, 7, 1, 1],
          "dtype": "float32"
        },
        {
          "name": "model_144/tf.nn.convolution_101/convolution/filter",
          "shape": [7, 7, 1, 1],
          "dtype": "float32"
        },
        {
          "name": "model_144/tf.nn.convolution_102/convolution/filter",
          "shape": [7, 7, 1, 1],
          "dtype": "float32"
        },
        {
          "name": "model_144/tf.nn.convolution_103/convolution/filter",
          "shape": [7, 7, 1, 1],
          "dtype": "float32"
        },
        {
          "name": "model_144/tf.nn.convolution_104/convolution/filter",
          "shape": [7, 7, 1, 1],
          "dtype": "float32"
        },
        {
          "name": "model_144/tf.nn.convolution_105/convolution/filter",
          "shape": [7, 7, 1, 1],
          "dtype": "float32"
        },
        {
          "name": "model_144/tf.nn.convolution_106/convolution/filter",
          "shape": [7, 7, 1, 1],
          "dtype": "float32"
        },
        {
          "name": "model_144/tf.nn.convolution_107/convolution/filter",
          "shape": [7, 7, 1, 1],
          "dtype": "float32"
        },
        {
          "name": "model_144/tf.nn.convolution_108/convolution/filter",
          "shape": [7, 7, 1, 1],
          "dtype": "float32"
        },
        {
          "name": "model_144/tf.nn.convolution_109/convolution/filter",
          "shape": [7, 7, 1, 1],
          "dtype": "float32"
        },
        {
          "name": "model_144/tf.nn.convolution_110/convolution/filter",
          "shape": [7, 7, 1, 1],
          "dtype": "float32"
        },
        {
          "name": "model_144/tf.nn.convolution_111/convolution/filter",
          "shape": [7, 7, 1, 1],
          "dtype": "float32"
        },
        {
          "name": "model_144/tf.nn.convolution_112/convolution/filter",
          "shape": [7, 7, 1, 1],
          "dtype": "float32"
        },
        {
          "name": "model_144/tf.nn.convolution_113/convolution/filter",
          "shape": [7, 7, 1, 1],
          "dtype": "float32"
        },
        {
          "name": "model_144/tf.nn.convolution_114/convolution/filter",
          "shape": [7, 7, 1, 1],
          "dtype": "float32"
        },
        {
          "name": "model_144/tf.nn.convolution_115/convolution/filter",
          "shape": [7, 7, 1, 1],
          "dtype": "float32"
        },
        {
          "name": "model_144/tf.nn.convolution_116/convolution/filter",
          "shape": [7, 7, 1, 1],
          "dtype": "float32"
        },
        {
          "name": "model_144/tf.nn.convolution_117/convolution/filter",
          "shape": [7, 7, 1, 1],
          "dtype": "float32"
        },
        {
          "name": "model_144/tf.nn.convolution_118/convolution/filter",
          "shape": [7, 7, 1, 1],
          "dtype": "float32"
        },
        {
          "name": "model_144/tf.nn.convolution_119/convolution/filter",
          "shape": [7, 7, 1, 1],
          "dtype": "float32"
        },
        {
          "name": "model_144/tf.nn.convolution_120/convolution/filter",
          "shape": [7, 7, 1, 1],
          "dtype": "float32"
        },
        {
          "name": "model_144/tf.nn.convolution_121/convolution/filter",
          "shape": [7, 7, 1, 1],
          "dtype": "float32"
        },
        {
          "name": "model_144/tf.nn.convolution_122/convolution/filter",
          "shape": [7, 7, 1, 1],
          "dtype": "float32"
        },
        {
          "name": "model_144/tf.nn.convolution_123/convolution/filter",
          "shape": [7, 7, 1, 1],
          "dtype": "float32"
        },
        {
          "name": "model_144/tf.nn.convolution_124/convolution/filter",
          "shape": [7, 7, 1, 1],
          "dtype": "float32"
        },
        {
          "name": "model_144/tf.nn.convolution_125/convolution/filter",
          "shape": [7, 7, 1, 1],
          "dtype": "float32"
        },
        {
          "name": "model_144/tf.nn.convolution_126/convolution/filter",
          "shape": [7, 7, 1, 1],
          "dtype": "float32"
        },
        {
          "name": "model_144/tf.nn.convolution_127/convolution/filter",
          "shape": [7, 7, 1, 1],
          "dtype": "float32"
        },
        {
          "name": "model_144/tf.nn.convolution_128/convolution/filter",
          "shape": [7, 7, 1, 1],
          "dtype": "float32"
        },
        {
          "name": "model_144/tf.nn.convolution_129/convolution/filter",
          "shape": [7, 7, 1, 1],
          "dtype": "float32"
        },
        {
          "name": "model_144/tf.nn.convolution_130/convolution/filter",
          "shape": [7, 7, 1, 1],
          "dtype": "float32"
        },
        {
          "name": "model_144/tf.nn.convolution_131/convolution/filter",
          "shape": [7, 7, 1, 1],
          "dtype": "float32"
        },
        {
          "name": "model_144/tf.nn.convolution_132/convolution/filter",
          "shape": [7, 7, 1, 1],
          "dtype": "float32"
        },
        {
          "name": "model_144/tf.nn.convolution_133/convolution/filter",
          "shape": [7, 7, 1, 1],
          "dtype": "float32"
        },
        {
          "name": "model_144/tf.nn.convolution_134/convolution/filter",
          "shape": [7, 7, 1, 1],
          "dtype": "float32"
        },
        {
          "name": "model_144/tf.nn.convolution_135/convolution/filter",
          "shape": [7, 7, 1, 1],
          "dtype": "float32"
        },
        {
          "name": "model_144/tf.nn.convolution_136/convolution/filter",
          "shape": [7, 7, 1, 1],
          "dtype": "float32"
        },
        {
          "name": "model_144/tf.nn.convolution_137/convolution/filter",
          "shape": [7, 7, 1, 1],
          "dtype": "float32"
        },
        {
          "name": "model_144/tf.nn.convolution_138/convolution/filter",
          "shape": [7, 7, 1, 1],
          "dtype": "float32"
        },
        {
          "name": "model_144/tf.nn.convolution_139/convolution/filter",
          "shape": [7, 7, 1, 1],
          "dtype": "float32"
        },
        {
          "name": "model_144/tf.nn.convolution_140/convolution/filter",
          "shape": [7, 7, 1, 1],
          "dtype": "float32"
        },
        {
          "name": "model_144/tf.nn.convolution_141/convolution/filter",
          "shape": [7, 7, 1, 1],
          "dtype": "float32"
        },
        {
          "name": "model_144/tf.nn.convolution_142/convolution/filter",
          "shape": [7, 7, 1, 1],
          "dtype": "float32"
        },
        {
          "name": "model_144/tf.nn.convolution_143/convolution/filter",
          "shape": [7, 7, 1, 1],
          "dtype": "float32"
        },
        {
          "name": "model_144/tf.nn.convolution_144/convolution/filter",
          "shape": [7, 7, 1, 1],
          "dtype": "float32"
        },
        {
          "name": "model_144/tf.split_3/split/split_dim",
          "shape": [],
          "dtype": "int32"
        },
        {
          "name": "model_144/tf.compat.v1.transpose_59/transpose/perm",
          "shape": [4],
          "dtype": "int32"
        },
        {
          "name": "model_144/tf.reshape_20/Reshape/shape",
          "shape": [4],
          "dtype": "int32"
        },
        {
          "name": "model_144/tf.nn.convolution_145/convolution/filter",
          "shape": [7, 7, 1, 1],
          "dtype": "float32"
        },
        {
          "name": "model_144/tf.concat_3/concat/axis",
          "shape": [],
          "dtype": "int32"
        },
        {
          "name": "model_144/tf.split_2/split/split_dim",
          "shape": [],
          "dtype": "int32"
        },
        {
          "name": "model_144/tf.math.add_25/Add/y",
          "shape": [64],
          "dtype": "float32"
        },
        {
          "name": "model_144/tf.math.add_21/Add/y",
          "shape": [64],
          "dtype": "float32"
        },
        {
          "name": "model_144/tf.math.add_18/Add/y",
          "shape": [64],
          "dtype": "float32"
        },
        {
          "name": "model_144/tf.nn.convolution_14/convolution/filter",
          "shape": [7, 7, 1, 1],
          "dtype": "float32"
        },
        {
          "name": "model_144/tf.nn.convolution_15/convolution/filter",
          "shape": [7, 7, 1, 1],
          "dtype": "float32"
        },
        {
          "name": "model_144/tf.nn.convolution_16/convolution/filter",
          "shape": [7, 7, 1, 1],
          "dtype": "float32"
        },
        {
          "name": "model_144/tf.nn.convolution_17/convolution/filter",
          "shape": [7, 7, 1, 1],
          "dtype": "float32"
        },
        {
          "name": "model_144/tf.nn.convolution_18/convolution/filter",
          "shape": [7, 7, 1, 1],
          "dtype": "float32"
        },
        {
          "name": "model_144/tf.nn.convolution_19/convolution/filter",
          "shape": [7, 7, 1, 1],
          "dtype": "float32"
        },
        {
          "name": "model_144/tf.nn.convolution_20/convolution/filter",
          "shape": [7, 7, 1, 1],
          "dtype": "float32"
        },
        {
          "name": "model_144/tf.nn.convolution_21/convolution/filter",
          "shape": [7, 7, 1, 1],
          "dtype": "float32"
        },
        {
          "name": "model_144/tf.nn.convolution_22/convolution/filter",
          "shape": [7, 7, 1, 1],
          "dtype": "float32"
        },
        {
          "name": "model_144/tf.nn.convolution_23/convolution/filter",
          "shape": [7, 7, 1, 1],
          "dtype": "float32"
        },
        {
          "name": "model_144/tf.nn.convolution_24/convolution/filter",
          "shape": [7, 7, 1, 1],
          "dtype": "float32"
        },
        {
          "name": "model_144/tf.nn.convolution_25/convolution/filter",
          "shape": [7, 7, 1, 1],
          "dtype": "float32"
        },
        {
          "name": "model_144/tf.nn.convolution_26/convolution/filter",
          "shape": [7, 7, 1, 1],
          "dtype": "float32"
        },
        {
          "name": "model_144/tf.nn.convolution_27/convolution/filter",
          "shape": [7, 7, 1, 1],
          "dtype": "float32"
        },
        {
          "name": "model_144/tf.nn.convolution_28/convolution/filter",
          "shape": [7, 7, 1, 1],
          "dtype": "float32"
        },
        {
          "name": "model_144/tf.nn.convolution_29/convolution/filter",
          "shape": [7, 7, 1, 1],
          "dtype": "float32"
        },
        {
          "name": "model_144/tf.nn.convolution_30/convolution/filter",
          "shape": [7, 7, 1, 1],
          "dtype": "float32"
        },
        {
          "name": "model_144/tf.nn.convolution_31/convolution/filter",
          "shape": [7, 7, 1, 1],
          "dtype": "float32"
        },
        {
          "name": "model_144/tf.nn.convolution_32/convolution/filter",
          "shape": [7, 7, 1, 1],
          "dtype": "float32"
        },
        {
          "name": "model_144/tf.nn.convolution_33/convolution/filter",
          "shape": [7, 7, 1, 1],
          "dtype": "float32"
        },
        {
          "name": "model_144/tf.nn.convolution_34/convolution/filter",
          "shape": [7, 7, 1, 1],
          "dtype": "float32"
        },
        {
          "name": "model_144/tf.nn.convolution_35/convolution/filter",
          "shape": [7, 7, 1, 1],
          "dtype": "float32"
        },
        {
          "name": "model_144/tf.nn.convolution_36/convolution/filter",
          "shape": [7, 7, 1, 1],
          "dtype": "float32"
        },
        {
          "name": "model_144/tf.nn.convolution_37/convolution/filter",
          "shape": [7, 7, 1, 1],
          "dtype": "float32"
        },
        {
          "name": "model_144/tf.nn.convolution_38/convolution/filter",
          "shape": [7, 7, 1, 1],
          "dtype": "float32"
        },
        {
          "name": "model_144/tf.nn.convolution_39/convolution/filter",
          "shape": [7, 7, 1, 1],
          "dtype": "float32"
        },
        {
          "name": "model_144/tf.nn.convolution_40/convolution/filter",
          "shape": [7, 7, 1, 1],
          "dtype": "float32"
        },
        {
          "name": "model_144/tf.nn.convolution_41/convolution/filter",
          "shape": [7, 7, 1, 1],
          "dtype": "float32"
        },
        {
          "name": "model_144/tf.nn.convolution_42/convolution/filter",
          "shape": [7, 7, 1, 1],
          "dtype": "float32"
        },
        {
          "name": "model_144/tf.nn.convolution_43/convolution/filter",
          "shape": [7, 7, 1, 1],
          "dtype": "float32"
        },
        {
          "name": "model_144/tf.nn.convolution_44/convolution/filter",
          "shape": [7, 7, 1, 1],
          "dtype": "float32"
        },
        {
          "name": "model_144/tf.nn.convolution_45/convolution/filter",
          "shape": [7, 7, 1, 1],
          "dtype": "float32"
        },
        {
          "name": "model_144/tf.nn.convolution_46/convolution/filter",
          "shape": [7, 7, 1, 1],
          "dtype": "float32"
        },
        {
          "name": "model_144/tf.nn.convolution_47/convolution/filter",
          "shape": [7, 7, 1, 1],
          "dtype": "float32"
        },
        {
          "name": "model_144/tf.nn.convolution_48/convolution/filter",
          "shape": [7, 7, 1, 1],
          "dtype": "float32"
        },
        {
          "name": "model_144/tf.nn.convolution_49/convolution/filter",
          "shape": [7, 7, 1, 1],
          "dtype": "float32"
        },
        {
          "name": "model_144/tf.nn.convolution_50/convolution/filter",
          "shape": [7, 7, 1, 1],
          "dtype": "float32"
        },
        {
          "name": "model_144/tf.nn.convolution_51/convolution/filter",
          "shape": [7, 7, 1, 1],
          "dtype": "float32"
        },
        {
          "name": "model_144/tf.nn.convolution_52/convolution/filter",
          "shape": [7, 7, 1, 1],
          "dtype": "float32"
        },
        {
          "name": "model_144/tf.nn.convolution_53/convolution/filter",
          "shape": [7, 7, 1, 1],
          "dtype": "float32"
        },
        {
          "name": "model_144/tf.nn.convolution_54/convolution/filter",
          "shape": [7, 7, 1, 1],
          "dtype": "float32"
        },
        {
          "name": "model_144/tf.nn.convolution_55/convolution/filter",
          "shape": [7, 7, 1, 1],
          "dtype": "float32"
        },
        {
          "name": "model_144/tf.nn.convolution_56/convolution/filter",
          "shape": [7, 7, 1, 1],
          "dtype": "float32"
        },
        {
          "name": "model_144/tf.nn.convolution_57/convolution/filter",
          "shape": [7, 7, 1, 1],
          "dtype": "float32"
        },
        {
          "name": "model_144/tf.nn.convolution_58/convolution/filter",
          "shape": [7, 7, 1, 1],
          "dtype": "float32"
        },
        {
          "name": "model_144/tf.nn.convolution_59/convolution/filter",
          "shape": [7, 7, 1, 1],
          "dtype": "float32"
        },
        {
          "name": "model_144/tf.nn.convolution_60/convolution/filter",
          "shape": [7, 7, 1, 1],
          "dtype": "float32"
        },
        {
          "name": "model_144/tf.nn.convolution_61/convolution/filter",
          "shape": [7, 7, 1, 1],
          "dtype": "float32"
        },
        {
          "name": "model_144/tf.nn.convolution_62/convolution/filter",
          "shape": [7, 7, 1, 1],
          "dtype": "float32"
        },
        {
          "name": "model_144/tf.nn.convolution_63/convolution/filter",
          "shape": [7, 7, 1, 1],
          "dtype": "float32"
        },
        {
          "name": "model_144/tf.nn.convolution_64/convolution/filter",
          "shape": [7, 7, 1, 1],
          "dtype": "float32"
        },
        {
          "name": "model_144/tf.nn.convolution_65/convolution/filter",
          "shape": [7, 7, 1, 1],
          "dtype": "float32"
        },
        {
          "name": "model_144/tf.nn.convolution_66/convolution/filter",
          "shape": [7, 7, 1, 1],
          "dtype": "float32"
        },
        {
          "name": "model_144/tf.nn.convolution_67/convolution/filter",
          "shape": [7, 7, 1, 1],
          "dtype": "float32"
        },
        {
          "name": "model_144/tf.nn.convolution_68/convolution/filter",
          "shape": [7, 7, 1, 1],
          "dtype": "float32"
        },
        {
          "name": "model_144/tf.nn.convolution_69/convolution/filter",
          "shape": [7, 7, 1, 1],
          "dtype": "float32"
        },
        {
          "name": "model_144/tf.nn.convolution_70/convolution/filter",
          "shape": [7, 7, 1, 1],
          "dtype": "float32"
        },
        {
          "name": "model_144/tf.nn.convolution_71/convolution/filter",
          "shape": [7, 7, 1, 1],
          "dtype": "float32"
        },
        {
          "name": "model_144/tf.nn.convolution_72/convolution/filter",
          "shape": [7, 7, 1, 1],
          "dtype": "float32"
        },
        {
          "name": "model_144/tf.nn.convolution_73/convolution/filter",
          "shape": [7, 7, 1, 1],
          "dtype": "float32"
        },
        {
          "name": "model_144/tf.nn.convolution_74/convolution/filter",
          "shape": [7, 7, 1, 1],
          "dtype": "float32"
        },
        {
          "name": "model_144/tf.nn.convolution_75/convolution/filter",
          "shape": [7, 7, 1, 1],
          "dtype": "float32"
        },
        {
          "name": "model_144/tf.nn.convolution_76/convolution/filter",
          "shape": [7, 7, 1, 1],
          "dtype": "float32"
        },
        {
          "name": "model_144/tf.split_1/split/split_dim",
          "shape": [],
          "dtype": "int32"
        },
        {
          "name": "model_144/tf.compat.v1.transpose_27/transpose/perm",
          "shape": [4],
          "dtype": "int32"
        },
        {
          "name": "model_144/tf.reshape_8/Reshape/shape",
          "shape": [4],
          "dtype": "int32"
        },
        {
          "name": "model_144/tf.nn.convolution_77/convolution/filter",
          "shape": [7, 7, 1, 1],
          "dtype": "float32"
        },
        {
          "name": "model_144/tf.concat_2/concat/axis",
          "shape": [],
          "dtype": "int32"
        },
        {
          "name": "model_144/tf.split/split/split_dim",
          "shape": [],
          "dtype": "int32"
        },
        {
          "name": "model_144/tf.strided_slice_2/ones_like/tensor",
          "shape": [4],
          "dtype": "int32"
        },
        {
          "name": "model_144/tf.strided_slice_2/StridedSlice/end",
          "shape": [4],
          "dtype": "int32"
        },
        {
          "name": "model_144/tf.strided_slice_2/ones_like",
          "shape": [4],
          "dtype": "int32"
        },
        {
          "name": "model_144/tf.strided_slice/ones_like/tensor",
          "shape": [4],
          "dtype": "int32"
        },
        {
          "name": "model_144/tf.strided_slice/StridedSlice/end",
          "shape": [4],
          "dtype": "int32"
        },
        {
          "name": "model_144/tf.strided_slice/ones_like",
          "shape": [4],
          "dtype": "int32"
        },
        {
          "name": "model_144/tf.compat.v1.pad/Pad/paddings",
          "shape": [4, 2],
          "dtype": "int32"
        },
        {
          "name": "model_144/tf.nn.convolution/convolution/filter",
          "shape": [3, 3, 3, 16],
          "dtype": "float32"
        },
        {
          "name": "model_144/tf.math.add/Add/y",
          "shape": [16],
          "dtype": "float32"
        },
        {
          "name": "model_144/tf.compat.v1.pad_1/Pad/paddings",
          "shape": [4, 2],
          "dtype": "int32"
        },
        {
          "name": "model_144/tf.nn.convolution_1/convolution/filter",
          "shape": [3, 3, 16, 32],
          "dtype": "float32"
        },
        {
          "name": "model_144/tf.math.add_1/Add/y",
          "shape": [32],
          "dtype": "float32"
        },
        {
          "name": "model_144/tf.nn.convolution_2/convolution/filter",
          "shape": [1, 1, 32, 32],
          "dtype": "float32"
        },
        {
          "name": "model_144/tf.math.add_2/Add/y",
          "shape": [32],
          "dtype": "float32"
        },
        {
          "name": "model_144/tf.strided_slice_1/ones_like/tensor",
          "shape": [4],
          "dtype": "int32"
        },
        {
          "name": "model_144/tf.strided_slice_1/StridedSlice/end",
          "shape": [4],
          "dtype": "int32"
        },
        {
          "name": "model_144/tf.strided_slice_1/ones_like",
          "shape": [4],
          "dtype": "int32"
        },
        {
          "name": "model_144/tf.nn.convolution_3/convolution/filter",
          "shape": [3, 3, 16, 8],
          "dtype": "float32"
        },
        {
          "name": "model_144/tf.math.add_3/Add/y",
          "shape": [8],
          "dtype": "float32"
        },
        {
          "name": "model_144/tf.nn.convolution_4/convolution/filter",
          "shape": [3, 3, 8, 16],
          "dtype": "float32"
        },
        {
          "name": "model_144/tf.math.add_4/Add/y",
          "shape": [16],
          "dtype": "float32"
        },
        {
          "name": "model_144/tf.concat/concat/axis",
          "shape": [],
          "dtype": "int32"
        },
        {
          "name": "model_144/tf.nn.convolution_5/convolution/filter",
          "shape": [1, 1, 48, 64],
          "dtype": "float32"
        },
        {
          "name": "model_144/tf.math.add_7/Add/y",
          "shape": [64],
          "dtype": "float32"
        },
        {
          "name": "model_144/tf.compat.v1.pad_2/Pad/paddings",
          "shape": [4, 2],
          "dtype": "int32"
        },
        {
          "name": "model_144/tf.nn.convolution_6/convolution/filter",
          "shape": [3, 3, 64, 64],
          "dtype": "float32"
        },
        {
          "name": "model_144/tf.math.add_8/Add/y",
          "shape": [64],
          "dtype": "float32"
        },
        {
          "name": "model_144/tf.nn.convolution_7/convolution/filter",
          "shape": [1, 1, 64, 64],
          "dtype": "float32"
        },
        {
          "name": "model_144/tf.math.add_9/Add/y",
          "shape": [64],
          "dtype": "float32"
        },
        {
          "name": "model_144/tf.strided_slice_3/ones_like/tensor",
          "shape": [4],
          "dtype": "int32"
        },
        {
          "name": "model_144/tf.strided_slice_3/StridedSlice/end",
          "shape": [4],
          "dtype": "int32"
        },
        {
          "name": "model_144/tf.strided_slice_3/ones_like",
          "shape": [4],
          "dtype": "int32"
        },
        {
          "name": "model_144/tf.nn.convolution_8/convolution/filter",
          "shape": [3, 3, 32, 16],
          "dtype": "float32"
        },
        {
          "name": "model_144/tf.math.add_10/Add/y",
          "shape": [16],
          "dtype": "float32"
        },
        {
          "name": "model_144/tf.nn.convolution_9/convolution/filter",
          "shape": [3, 3, 16, 32],
          "dtype": "float32"
        },
        {
          "name": "model_144/tf.math.add_11/Add/y",
          "shape": [32],
          "dtype": "float32"
        },
        {
          "name": "model_144/tf.concat_1/concat/axis",
          "shape": [],
          "dtype": "int32"
        },
        {
          "name": "model_144/tf.nn.convolution_10/convolution/filter",
          "shape": [1, 1, 96, 128],
          "dtype": "float32"
        },
        {
          "name": "model_144/tf.math.add_14/Add/y",
          "shape": [128],
          "dtype": "float32"
        },
        {
          "name": "model_144/tf.compat.v1.pad_3/Pad/paddings",
          "shape": [4, 2],
          "dtype": "int32"
        },
        {
          "name": "model_144/tf.nn.convolution_11/convolution/filter",
          "shape": [3, 3, 128, 128],
          "dtype": "float32"
        },
        {
          "name": "model_144/tf.math.add_15/Add/y",
          "shape": [128],
          "dtype": "float32"
        },
        {
          "name": "model_144/tf.nn.convolution_12/convolution/filter",
          "shape": [1, 1, 128, 64],
          "dtype": "float32"
        },
        {
          "name": "model_144/tf.math.add_16/Add/y",
          "shape": [64],
          "dtype": "float32"
        },
        {
          "name": "model_144/tf.nn.convolution_13/convolution/filter",
          "shape": [1, 1, 64, 192],
          "dtype": "float32"
        },
        {
          "name": "model_144/tf.math.add_17/Add/y",
          "shape": [192],
          "dtype": "float32"
        },
        {
          "name": "model_144/tf.compat.v1.transpose_17/transpose/perm",
          "shape": [4],
          "dtype": "int32"
        },
        {
          "name": "model_144/tf.reshape_2/Reshape/shape",
          "shape": [3],
          "dtype": "int32"
        },
        {
          "name": "model_144/tf.compat.v1.transpose_20/transpose/perm",
          "shape": [3],
          "dtype": "int32"
        },
        {
          "name": "model_144/tf.reshape_5/Reshape/shape",
          "shape": [4],
          "dtype": "int32"
        },
        {
          "name": "model_144/tf.compat.v1.transpose_25/transpose/perm",
          "shape": [4],
          "dtype": "int32"
        },
        {
          "name": "model_144/tf.math.multiply_58/Mul/y",
          "shape": [],
          "dtype": "float32"
        },
        {
          "name": "model_144/tf.compat.v1.transpose_36/transpose/perm",
          "shape": [4],
          "dtype": "int32"
        },
        {
          "name": "model_144/tf.reshape_11/Reshape/shape",
          "shape": [4],
          "dtype": "int32"
        },
        {
          "name": "model_144/tf.nn.convolution_78/convolution/filter",
          "shape": [1, 1, 64, 64],
          "dtype": "float32"
        },
        {
          "name": "model_144/tf.nn.convolution_79/convolution/filter",
          "shape": [1, 1, 64, 128],
          "dtype": "float32"
        },
        {
          "name": "model_144/tf.math.add_24/Add/y",
          "shape": [128],
          "dtype": "float32"
        },
        {
          "name": "model_144/tf.nn.convolution_80/convolution/filter",
          "shape": [1, 1, 128, 64],
          "dtype": "float32"
        },
        {
          "name": "model_144/tf.nn.convolution_81/convolution/filter",
          "shape": [1, 1, 64, 192],
          "dtype": "float32"
        },
        {
          "name": "model_144/tf.math.add_28/Add/y",
          "shape": [192],
          "dtype": "float32"
        },
        {
          "name": "model_144/tf.compat.v1.transpose_49/transpose/perm",
          "shape": [4],
          "dtype": "int32"
        },
        {
          "name": "model_144/tf.reshape_14/Reshape/shape",
          "shape": [3],
          "dtype": "int32"
        },
        {
          "name": "model_144/tf.compat.v1.transpose_52/transpose/perm",
          "shape": [3],
          "dtype": "int32"
        },
        {
          "name": "model_144/tf.reshape_17/Reshape/shape",
          "shape": [4],
          "dtype": "int32"
        },
        {
          "name": "model_144/tf.compat.v1.transpose_57/transpose/perm",
          "shape": [4],
          "dtype": "int32"
        },
        {
          "name": "model_144/tf.math.multiply_71/Mul/y",
          "shape": [],
          "dtype": "float32"
        },
        {
          "name": "model_144/tf.compat.v1.transpose_68/transpose/perm",
          "shape": [4],
          "dtype": "int32"
        },
        {
          "name": "model_144/tf.reshape_23/Reshape/shape",
          "shape": [4],
          "dtype": "int32"
        },
        {
          "name": "model_144/tf.nn.convolution_146/convolution/filter",
          "shape": [1, 1, 64, 64],
          "dtype": "float32"
        },
        {
          "name": "model_144/tf.nn.convolution_147/convolution/filter",
          "shape": [1, 1, 64, 128],
          "dtype": "float32"
        },
        {
          "name": "model_144/tf.math.add_35/Add/y",
          "shape": [128],
          "dtype": "float32"
        },
        {
          "name": "model_144/tf.nn.convolution_148/convolution/filter",
          "shape": [1, 1, 128, 64],
          "dtype": "float32"
        },
        {
          "name": "model_144/tf.nn.convolution_149/convolution/filter",
          "shape": [1, 1, 64, 192],
          "dtype": "float32"
        },
        {
          "name": "model_144/tf.math.add_39/Add/y",
          "shape": [192],
          "dtype": "float32"
        },
        {
          "name": "model_144/tf.compat.v1.transpose_81/transpose/perm",
          "shape": [4],
          "dtype": "int32"
        },
        {
          "name": "model_144/tf.reshape_26/Reshape/shape",
          "shape": [3],
          "dtype": "int32"
        },
        {
          "name": "model_144/tf.compat.v1.transpose_84/transpose/perm",
          "shape": [3],
          "dtype": "int32"
        },
        {
          "name": "model_144/tf.reshape_29/Reshape/shape",
          "shape": [4],
          "dtype": "int32"
        },
        {
          "name": "model_144/tf.compat.v1.transpose_89/transpose/perm",
          "shape": [4],
          "dtype": "int32"
        },
        {
          "name": "model_144/tf.math.multiply_84/Mul/y",
          "shape": [],
          "dtype": "float32"
        },
        {
          "name": "model_144/tf.compat.v1.transpose_100/transpose/perm",
          "shape": [4],
          "dtype": "int32"
        },
        {
          "name": "model_144/tf.reshape_35/Reshape/shape",
          "shape": [4],
          "dtype": "int32"
        },
        {
          "name": "model_144/tf.nn.convolution_214/convolution/filter",
          "shape": [1, 1, 64, 64],
          "dtype": "float32"
        },
        {
          "name": "model_144/tf.nn.convolution_215/convolution/filter",
          "shape": [1, 1, 64, 128],
          "dtype": "float32"
        },
        {
          "name": "model_144/tf.math.add_46/Add/y",
          "shape": [128],
          "dtype": "float32"
        },
        {
          "name": "model_144/tf.nn.convolution_216/convolution/filter",
          "shape": [1, 1, 128, 64],
          "dtype": "float32"
        },
        {
          "name": "model_144/tf.nn.convolution_217/convolution/filter",
          "shape": [1, 1, 64, 192],
          "dtype": "float32"
        },
        {
          "name": "model_144/tf.math.add_50/Add/y",
          "shape": [192],
          "dtype": "float32"
        },
        {
          "name": "model_144/tf.compat.v1.transpose_113/transpose/perm",
          "shape": [4],
          "dtype": "int32"
        },
        {
          "name": "model_144/tf.reshape_38/Reshape/shape",
          "shape": [3],
          "dtype": "int32"
        },
        {
          "name": "model_144/tf.compat.v1.transpose_116/transpose/perm",
          "shape": [3],
          "dtype": "int32"
        },
        {
          "name": "model_144/tf.reshape_41/Reshape/shape",
          "shape": [4],
          "dtype": "int32"
        },
        {
          "name": "model_144/tf.compat.v1.transpose_121/transpose/perm",
          "shape": [4],
          "dtype": "int32"
        },
        {
          "name": "model_144/tf.math.multiply_97/Mul/y",
          "shape": [],
          "dtype": "float32"
        },
        {
          "name": "model_144/tf.compat.v1.transpose_132/transpose/perm",
          "shape": [4],
          "dtype": "int32"
        },
        {
          "name": "model_144/tf.reshape_47/Reshape/shape",
          "shape": [4],
          "dtype": "int32"
        },
        {
          "name": "model_144/tf.nn.convolution_282/convolution/filter",
          "shape": [1, 1, 64, 64],
          "dtype": "float32"
        },
        {
          "name": "model_144/tf.nn.convolution_283/convolution/filter",
          "shape": [1, 1, 64, 128],
          "dtype": "float32"
        },
        {
          "name": "model_144/tf.math.add_57/Add/y",
          "shape": [128],
          "dtype": "float32"
        },
        {
          "name": "model_144/tf.nn.convolution_284/convolution/filter",
          "shape": [1, 1, 128, 64],
          "dtype": "float32"
        },
        {
          "name": "model_144/tf.concat_6/concat/axis",
          "shape": [],
          "dtype": "int32"
        },
        {
          "name": "model_144/tf.nn.convolution_285/convolution/filter",
          "shape": [1, 1, 192, 128],
          "dtype": "float32"
        },
        {
          "name": "model_144/tf.math.add_61/Add/y",
          "shape": [128],
          "dtype": "float32"
        },
        {
          "name": "model_144/tf.compat.v1.pad_4/Pad/paddings",
          "shape": [4, 2],
          "dtype": "int32"
        },
        {
          "name": "model_144/tf.nn.convolution_286/convolution/filter",
          "shape": [3, 3, 128, 256],
          "dtype": "float32"
        },
        {
          "name": "model_144/tf.math.add_62/Add/y",
          "shape": [256],
          "dtype": "float32"
        },
        {
          "name": "model_144/tf.nn.convolution_287/convolution/filter",
          "shape": [1, 1, 256, 128],
          "dtype": "float32"
        },
        {
          "name": "model_144/tf.math.add_63/Add/y",
          "shape": [128],
          "dtype": "float32"
        },
        {
          "name": "model_144/tf.nn.convolution_288/convolution/filter",
          "shape": [1, 1, 128, 384],
          "dtype": "float32"
        },
        {
          "name": "model_144/tf.math.add_64/Add/y",
          "shape": [384],
          "dtype": "float32"
        },
        {
          "name": "model_144/tf.compat.v1.transpose_148/transpose/perm",
          "shape": [4],
          "dtype": "int32"
        },
        {
          "name": "model_144/tf.reshape_50/Reshape/shape",
          "shape": [3],
          "dtype": "int32"
        },
        {
          "name": "model_144/tf.compat.v1.transpose_151/transpose/perm",
          "shape": [3],
          "dtype": "int32"
        },
        {
          "name": "model_144/tf.reshape_53/Reshape/shape",
          "shape": [4],
          "dtype": "int32"
        },
        {
          "name": "model_144/tf.compat.v1.transpose_156/transpose/perm",
          "shape": [4],
          "dtype": "int32"
        },
        {
          "name": "model_144/tf.math.multiply_122/Mul/y",
          "shape": [],
          "dtype": "float32"
        },
        {
          "name": "model_144/tf.compat.v1.transpose_167/transpose/perm",
          "shape": [4],
          "dtype": "int32"
        },
        {
          "name": "model_144/tf.reshape_59/Reshape/shape",
          "shape": [4],
          "dtype": "int32"
        },
        {
          "name": "model_144/tf.nn.convolution_417/convolution/filter",
          "shape": [1, 1, 128, 128],
          "dtype": "float32"
        },
        {
          "name": "model_144/tf.nn.convolution_418/convolution/filter",
          "shape": [1, 1, 128, 256],
          "dtype": "float32"
        },
        {
          "name": "model_144/tf.math.add_71/Add/y",
          "shape": [256],
          "dtype": "float32"
        },
        {
          "name": "model_144/tf.nn.convolution_419/convolution/filter",
          "shape": [1, 1, 256, 128],
          "dtype": "float32"
        },
        {
          "name": "model_144/tf.nn.convolution_420/convolution/filter",
          "shape": [1, 1, 128, 384],
          "dtype": "float32"
        },
        {
          "name": "model_144/tf.math.add_75/Add/y",
          "shape": [384],
          "dtype": "float32"
        },
        {
          "name": "model_144/tf.compat.v1.transpose_180/transpose/perm",
          "shape": [4],
          "dtype": "int32"
        },
        {
          "name": "model_144/tf.reshape_62/Reshape/shape",
          "shape": [3],
          "dtype": "int32"
        },
        {
          "name": "model_144/tf.compat.v1.transpose_183/transpose/perm",
          "shape": [3],
          "dtype": "int32"
        },
        {
          "name": "model_144/tf.reshape_65/Reshape/shape",
          "shape": [4],
          "dtype": "int32"
        },
        {
          "name": "model_144/tf.compat.v1.transpose_188/transpose/perm",
          "shape": [4],
          "dtype": "int32"
        },
        {
          "name": "model_144/tf.math.multiply_135/Mul/y",
          "shape": [],
          "dtype": "float32"
        },
        {
          "name": "model_144/tf.compat.v1.transpose_199/transpose/perm",
          "shape": [4],
          "dtype": "int32"
        },
        {
          "name": "model_144/tf.reshape_71/Reshape/shape",
          "shape": [4],
          "dtype": "int32"
        },
        {
          "name": "model_144/tf.nn.convolution_549/convolution/filter",
          "shape": [1, 1, 128, 128],
          "dtype": "float32"
        },
        {
          "name": "model_144/tf.nn.convolution_550/convolution/filter",
          "shape": [1, 1, 128, 256],
          "dtype": "float32"
        },
        {
          "name": "model_144/tf.math.add_82/Add/y",
          "shape": [256],
          "dtype": "float32"
        },
        {
          "name": "model_144/tf.nn.convolution_551/convolution/filter",
          "shape": [1, 1, 256, 128],
          "dtype": "float32"
        },
        {
          "name": "model_144/tf.nn.convolution_552/convolution/filter",
          "shape": [1, 1, 128, 384],
          "dtype": "float32"
        },
        {
          "name": "model_144/tf.math.add_86/Add/y",
          "shape": [384],
          "dtype": "float32"
        },
        {
          "name": "model_144/tf.compat.v1.transpose_212/transpose/perm",
          "shape": [4],
          "dtype": "int32"
        },
        {
          "name": "model_144/tf.reshape_74/Reshape/shape",
          "shape": [3],
          "dtype": "int32"
        },
        {
          "name": "model_144/tf.compat.v1.transpose_215/transpose/perm",
          "shape": [3],
          "dtype": "int32"
        },
        {
          "name": "model_144/tf.reshape_77/Reshape/shape",
          "shape": [4],
          "dtype": "int32"
        },
        {
          "name": "model_144/tf.compat.v1.transpose_220/transpose/perm",
          "shape": [4],
          "dtype": "int32"
        },
        {
          "name": "model_144/tf.math.multiply_148/Mul/y",
          "shape": [],
          "dtype": "float32"
        },
        {
          "name": "model_144/tf.compat.v1.transpose_231/transpose/perm",
          "shape": [4],
          "dtype": "int32"
        },
        {
          "name": "model_144/tf.reshape_83/Reshape/shape",
          "shape": [4],
          "dtype": "int32"
        },
        {
          "name": "model_144/tf.nn.convolution_681/convolution/filter",
          "shape": [1, 1, 128, 128],
          "dtype": "float32"
        },
        {
          "name": "model_144/tf.nn.convolution_682/convolution/filter",
          "shape": [1, 1, 128, 256],
          "dtype": "float32"
        },
        {
          "name": "model_144/tf.math.add_93/Add/y",
          "shape": [256],
          "dtype": "float32"
        },
        {
          "name": "model_144/tf.nn.convolution_683/convolution/filter",
          "shape": [1, 1, 256, 128],
          "dtype": "float32"
        },
        {
          "name": "model_144/tf.nn.convolution_684/convolution/filter",
          "shape": [1, 1, 128, 384],
          "dtype": "float32"
        },
        {
          "name": "model_144/tf.math.add_97/Add/y",
          "shape": [384],
          "dtype": "float32"
        },
        {
          "name": "model_144/tf.compat.v1.transpose_244/transpose/perm",
          "shape": [4],
          "dtype": "int32"
        },
        {
          "name": "model_144/tf.reshape_86/Reshape/shape",
          "shape": [3],
          "dtype": "int32"
        },
        {
          "name": "model_144/tf.compat.v1.transpose_247/transpose/perm",
          "shape": [3],
          "dtype": "int32"
        },
        {
          "name": "model_144/tf.reshape_89/Reshape/shape",
          "shape": [4],
          "dtype": "int32"
        },
        {
          "name": "model_144/tf.compat.v1.transpose_252/transpose/perm",
          "shape": [4],
          "dtype": "int32"
        },
        {
          "name": "model_144/tf.math.multiply_161/Mul/y",
          "shape": [],
          "dtype": "float32"
        },
        {
          "name": "model_144/tf.compat.v1.transpose_263/transpose/perm",
          "shape": [4],
          "dtype": "int32"
        },
        {
          "name": "model_144/tf.reshape_95/Reshape/shape",
          "shape": [4],
          "dtype": "int32"
        },
        {
          "name": "model_144/tf.nn.convolution_813/convolution/filter",
          "shape": [1, 1, 128, 128],
          "dtype": "float32"
        },
        {
          "name": "model_144/tf.nn.convolution_814/convolution/filter",
          "shape": [1, 1, 128, 256],
          "dtype": "float32"
        },
        {
          "name": "model_144/tf.math.add_104/Add/y",
          "shape": [256],
          "dtype": "float32"
        },
        {
          "name": "model_144/tf.nn.convolution_815/convolution/filter",
          "shape": [1, 1, 256, 128],
          "dtype": "float32"
        },
        {
          "name": "model_144/tf.concat_11/concat/axis",
          "shape": [],
          "dtype": "int32"
        },
        {
          "name": "model_144/tf.nn.convolution_816/convolution/filter",
          "shape": [1, 1, 384, 256],
          "dtype": "float32"
        },
        {
          "name": "model_144/tf.math.add_108/Add/y",
          "shape": [256],
          "dtype": "float32"
        },
        {
          "name": "model_144/tf.concat_24/concat/axis",
          "shape": [],
          "dtype": "int32"
        },
        {
          "name": "model_144/tf.nn.convolution_859/convolution/filter",
          "shape": [1, 1, 384, 256],
          "dtype": "float32"
        },
        {
          "name": "model_144/tf.math.add_168/Add/y",
          "shape": [256],
          "dtype": "float32"
        },
        {
          "name": "model_144/tf.strided_slice_5/ones_like/tensor",
          "shape": [4],
          "dtype": "int32"
        },
        {
          "name": "model_144/tf.strided_slice_5/StridedSlice/end",
          "shape": [4],
          "dtype": "int32"
        },
        {
          "name": "model_144/tf.strided_slice_5/ones_like",
          "shape": [4],
          "dtype": "int32"
        },
        {
          "name": "model_144/tf.nn.convolution_862/convolution/filter",
          "shape": [1, 1, 128, 64],
          "dtype": "float32"
        },
        {
          "name": "model_144/tf.math.add_172/Add/y",
          "shape": [64],
          "dtype": "float32"
        },
        {
          "name": "model_144/tf.concat_26/concat/axis",
          "shape": [],
          "dtype": "int32"
        },
        {
          "name": "model_144/tf.nn.convolution_869/convolution/filter",
          "shape": [1, 1, 128, 128],
          "dtype": "float32"
        },
        {
          "name": "model_144/tf.math.add_183/Add/y",
          "shape": [128],
          "dtype": "float32"
        },
        {
          "name": "model_144/tf.concat_27/concat/axis",
          "shape": [],
          "dtype": "int32"
        },
        {
          "name": "model_144/tf.nn.convolution_870/convolution/filter",
          "shape": [1, 1, 384, 256],
          "dtype": "float32"
        },
        {
          "name": "model_144/tf.math.add_184/Add/y",
          "shape": [256],
          "dtype": "float32"
        },
        {
          "name": "model_144/tf.compat.v1.nn.depthwise_conv2d_6/depthwise/filter_in",
          "shape": [3, 3, 256, 1],
          "dtype": "float32"
        },
        {
          "name": "model_144/tf.math.add_186/Add/y",
          "shape": [256],
          "dtype": "float32"
        },
        {
          "name": "model_144/tf.nn.convolution_873/convolution/filter",
          "shape": [1, 1, 256, 80],
          "dtype": "float32"
        },
        {
          "name": "model_144/tf.math.add_188/Add/y",
          "shape": [80],
          "dtype": "float32"
        },
        {
          "name": "model_144/tf.compat.v1.nn.depthwise_conv2d_7/depthwise/filter_in",
          "shape": [3, 3, 80, 1],
          "dtype": "float32"
        },
        {
          "name": "model_144/tf.math.add_190/Add/y",
          "shape": [80],
          "dtype": "float32"
        },
        {
          "name": "model_144/tf.nn.convolution_875/convolution/filter",
          "shape": [1, 1, 80, 80],
          "dtype": "float32"
        },
        {
          "name": "model_144/tf.math.add_191/Add/y",
          "shape": [80],
          "dtype": "float32"
        },
        {
          "name": "model_144/tf.nn.convolution_876/convolution/filter",
          "shape": [1, 1, 80, 80],
          "dtype": "float32"
        },
        {
          "name": "model_144/tf.math.add_192/Add/y",
          "shape": [80],
          "dtype": "float32"
        },
        {
          "name": "model_144/tf.concat_28/concat/axis",
          "shape": [],
          "dtype": "int32"
        },
        {
          "name": "model_144/tf.compat.v1.transpose_360/transpose/perm",
          "shape": [4],
          "dtype": "int32"
        },
        {
          "name": "model_144/tf.reshape_104/Reshape/shape",
          "shape": [3],
          "dtype": "int32"
        },
        {
          "name": "model_144/tf.concat_29/concat/axis",
          "shape": [],
          "dtype": "int32"
        },
        {
          "name": "model_144/tf.strided_slice_7/StridedSlice/begin",
          "shape": [3],
          "dtype": "int32"
        },
        {
          "name": "model_144/tf.strided_slice_7/StridedSlice/end",
          "shape": [3],
          "dtype": "int32"
        },
        {
          "name": "model_144/tf.strided_slice_7/StridedSlice/strides",
          "shape": [3],
          "dtype": "int32"
        },
        {
          "name": "model_144/output0/concat/axis",
          "shape": [],
          "dtype": "int32"
        }
      ]
    }
  ]
}
